static/img/docs/tlc-pack/web-data/main/testdata/microTVM/model/anomaly_detection_quant.tflite (tflite, 276976 bytes, 10 tensors)

functional_1/dense/MatMul i1 [128, 640] scale=0.000376875 zero_point=0
0.00376875 0.0048993747 -0.0045224996 0.0026381249 0.0015075 -0.00075375 -0.0048993747 -0.0075375
-0.0015075 0.00678375 0.0015075 -0.00075375 0.000376875 -0.001884375 -0.003015 -0.000376875
-0.0011306249 0.003391875 -0.00075375 -0.00075375 -0.00075375 0.000376875 -0.0011306249 -0.001884375
-0.003391875 0.000376875 0.0 -0.0011306249 -0.0045224996 -0.006406875 -0.00603 -0.0052762497
-0.005653125 -0.0011306249 -0.000376875 -0.001884375 -0.0011306249 -0.003015 -0.001884375 -0.0022612498
0.000376875 -0.0015075 0.0026381249 0.0 -0.0026381249 0.0011306249 0.0022612498 0.0011306249
0.00075375 0.000376875 0.0011306249 0.00075375 0.0015075 -0.000376875 -0.0015075 0.000376875
0.000376875 0.0026381249 0.003015 0.00075375 -0.0015075 0.0015075 0.0045224996 -0.0015075
0.000376875 0.003015 0.00075375 0.00075375 0.00075375 0.0011306249 0.0022612498 0.003015
0.000376875 0.0011306249 0.004145625 0.003391875 0.0015075 0.001884375 0.004145625 0.0026381249
0.0015075 -0.000376875 0.0011306249 0.001884375 0.0011306249 -0.0022612498 0.0 0.0022612498
0.0011306249 -0.0022612498 0.0052762497 0.0052762497 -0.0015075 -0.0022612498 -0.0011306249 0.0
-0.0022612498 -0.001884375 0.0 -0.0022612498 -0.0015075 -0.0026381249 -0.001884375 -0.003391875
-0.0011306249 0.00075375 -0.0022612498 0.0011306249 -0.0011306249 -0.004145625 -0.00075375 -0.0011306249
0.001884375 -0.00075375 0.003015 -0.00075375 0.0075375 0.0011306249 -0.00075375 0.0015075
0.003015 0.0022612498 0.0022612498 0.0 0.0015075 0.001884375 -0.0011306249 0.00075375
0.003391875 0.004145625 -0.0045224996 0.003015 0.0026381249 -0.0011306249 -0.0045224996 -0.007160625
-0.000376875 0.00678375 0.0015075 -0.0011306249 -0.000376875 -0.003015 -0.00376875 -0.00075375
-0.001884375 0.004145625 -0.0011306249 -0.00075375 0.00075375 -0.000376875 -0.0022612498 -0.004145625
-0.004145625 0.000376875 -0.00075375 0.0 -0.003391875 -0.00678375 -0.0048993747 -0.005653125
-0.0052762497 -0.0015075 -0.0022612498 -0.0015075 -0.001884375 -0.004145625 -0.003015 -0.0026381249
-0.00075375 -0.0011306249 0.003015 -0.00075375 -0.0045224996 -0.001884375 0.0015075 0.0011306249
0.000376875 0.00075375 0.000376875 -0.000376875 -0.00075375 0.0 -0.0022612498 -0.001884375
0.000376875 0.003391875 0.0026381249 0.0 -0.0022612498 0.0 0.00376875 -0.0026381249
0.0 0.001884375 0.0 0.00075375 0.000376875 -0.000376875 0.003015 0.0015075
0.000376875 0.0015075 0.003391875 0.001884375 0.00075375 0.0011306249 0.003391875 0.003391875
0.0026381249 0.00075375 -0.00075375 -0.00075375 0.0 -0.0015075 -0.0011306249 0.001884375
0.000376875 -0.0022612498 0.0045224996 0.004145625 -0.0022612498 -0.0022612498 -0.001884375 -0.00075375
-0.003391875 -0.0011306249 -0.00075375 -0.0026381249 -0.0026381249 -0.003015 -0.0026381249 -0.00376875
-0.0022612498 -0.0022612498 -0.0026381249 0.001884375 -0.0022612498 -0.0045224996 -0.001884375 -0.0011306249
0.0 -0.00075375 0.0022612498 0.0 0.0045224996 0.0 -0.0015075 -0.00075375
0.001884375 -0.000376875 -0.00075375 -0.0015075 0.0011306249 0.000376875 -0.001884375 -0.00075375
00000000: 0a0d f407 04fe f3ec fc12 04fe 01fb f8ff
00000010: fd09 fefe fe01 fdfb f701 00fd f4ef f0f2
00000020: f1fd fffb fdf8 fbfa 01fc 0700 f903 0603
00000030: 0201 0302 04ff fc01 0107 0802 fc04 0cfc
00000040: 0108 0202 0203 0608 0103 0b09 0405 0b07
00000050: 04ff 0305 03fa 0006 03fa 0e0e fcfa fd00
00000060: fafb 00fa fcf9 fbf7 fd02 fa03 fdf5 fefd
00000070: 05fe 08fe 1403 fe04 0806 0600 0405 fd02
00000080: 090b f408 07fd f4ed ff12 04fd fff8 f6fe
00000090: fb0b fdfe 02ff faf5 f501 fe00 f7ee f3f1
000000a0: f2fc fafc fbf5 f8f9 fefd 08fe f4fb 0403
000000b0: 0102 01ff fe00 fafb 0109 0700 fa00 0af9
000000c0: 0005 0002 01ff 0804 0104 0905 0203 0909
000000d0: 0702 fefe 00fc fd05 01fa 0c0b fafa fbfe
000000e0: f7fd fef9 f9f8 f9f6 fafa f905 faf4 fbfd
000000f0: 00fe 0600 0c00 fcfe 05ff fefc 0301 fbfe

functional_1/dense_1/MatMul i1 [128, 128] scale=0.015028327 zero_point=0
0.09016996 0.120226614 0.015028327 -0.030056654 0.09016996 -0.15028326 -0.09016996 0.015028327
0.04508498 -0.04508498 -0.060113307 0.04508498 -0.030056654 -0.030056654 0.19536825 0.0
0.060113307 0.19536825 -0.07514163 0.04508498 0.030056654 -0.030056654 -0.060113307 -0.015028327
-0.030056654 -0.060113307 -0.015028327 0.33062318 -0.060113307 0.030056654 -0.04508498 -0.31559485
0.030056654 -0.015028327 0.0 0.120226614 -0.030056654 0.09016996 0.120226614 0.0
-0.30056652 0.030056654 0.0 0.030056654 0.015028327 -0.04508498 -0.060113307 -0.25548154
-0.060113307 0.120226614 0.060113307 -0.015028327 0.060113307 0.030056654 0.0 -0.09016996
-0.060113307 -0.030056654 -0.21039657 -0.030056654 0.030056654 -0.060113307 0.060113307 0.015028327
0.0 0.015028327 -0.09016996 0.120226614 -0.27050987 -0.13525493 0.18033992 -0.19536825
0.0 0.060113307 -0.015028327 -0.21039657 -0.030056654 -0.10519829 -0.09016996 -0.07514163
0.10519829 0.0 -0.09016996 0.04508498 -0.04508498 -0.07514163 -0.120226614 0.30056652
-0.120226614 0.07514163 0.060113307 -0.120226614 0.060113307 -0.015028327 0.015028327 0.31559485
0.04508498 0.33062318 0.09016996 0.0 -0.13525493 -0.030056654 0.04508498 -0.015028327
0.2855382 -0.030056654 -0.015028327 -0.13525493 -0.060113307 -0.07514163 -0.060113307 0.3456515
-0.120226614 -0.015028327 -0.030056654 -0.18033992 0.10519829 -0.015028327 -0.015028327 -0.10519829
0.18033992 0.015028327 0.0 -0.09016996 -0.25548154 -0.21039657 -0.015028327 0.10519829
0.015028327 -0.13525493 0.0 0.0 -0.10519829 0.0 -0.015028327 0.0
0.015028327 0.015028327 -0.015028327 0.0 -0.015028327 0.030056654 -0.015028327 0.015028327
-0.030056654 0.0 -0.030056654 0.030056654 0.0 0.0 -0.015028327 0.04508498
-0.015028327 -0.015028327 -0.015028327 -0.015028327 0.0 -0.015028327 -0.060113307 0.0
-0.030056654 0.0 -0.015028327 0.030056654 0.015028327 0.015028327 -0.04508498 0.0
-0.015028327 0.0 0.0 -0.015028327 -0.030056654 -0.04508498 0.030056654 0.0
0.04508498 0.015028327 0.015028327 0.030056654 -0.030056654 -0.030056654 0.015028327 0.015028327
-0.015028327 0.015028327 -0.030056654 0.030056654 -0.015028327 -0.030056654 0.015028327 0.015028327
0.015028327 0.04508498 0.060113307 -0.015028327 0.0 0.04508498 -0.015028327 -0.10519829
0.030056654 0.015028327 0.0 -0.015028327 -0.030056654 0.015028327 0.030056654 -0.030056654
-0.015028327 0.0 0.015028327 0.0 0.015028327 0.015028327 -0.015028327 0.030056654
-0.04508498 -0.015028327 0.015028327 -0.10519829 -0.030056654 0.0 -0.015028327 0.0
0.030056654 0.0 0.015028327 0.030056654 0.09016996 0.0 0.0 0.015028327
0.0 0.04508498 -0.030056654 0.0 -0.030056654 -0.07514163 0.0 0.0
0.07514163 -0.030056654 -0.015028327 0.015028327 0.030056654 0.030056654 0.0 -0.04508498
0.0 0.0 0.015028327 0.060113307 -0.060113307 0.030056654 0.07514163 0.015028327
00000000: 0608 01fe 06f6 fa01 03fd fc03 fefe 0d00
00000010: 040d fb03 02fe fcff fefc ff16 fc02 fdeb
00000020: 02ff 0008 fe06 0800 ec02 0002 01fd fcef
00000030: fc08 04ff 0402 00fa fcfe f2fe 02fc 0401
00000040: 0001 fa08 eef7 0cf3 0004 fff2 fef9 fafb
00000050: 0700 fa03 fdfb f814 f805 04f8 04ff 0115
00000060: 0316 0600 f7fe 03ff 13fe fff7 fcfb fc17
00000070: f8ff fef4 07ff fff9 0c01 00fa eff2 ff07
00000080: 01f7 0000 f900 ff00 0101 ff00 ff02 ff01
00000090: fe00 fe02 0000 ff03 ffff ffff 00ff fc00
000000a0: fe00 ff02 0101 fd00 ff00 00ff fefd 0200
000000b0: 0301 0102 fefe 0101 ff01 fe02 fffe 0101
000000c0: 0103 04ff 0003 fff9 0201 00ff fe01 02fe
000000d0: ff00 0100 0101 ff02 fdff 01f9 fe00 ff00
000000e0: 0200 0102 0600 0001 0003 fe00 fefb 0000
000000f0: 05fe ff01 0202 00fd 0000 0104 fc02 0501

functional_1/dense_2/MatMul i1 [128, 128] scale=0.053500395 zero_point=0
-0.053500395 0.0 0.16050118 -0.053500395 -0.16050118 0.0 0.37450278 0.10700079
0.0 0.0 -0.16050118 0.26750198 -0.053500395 0.053500395 -0.16050118 0.16050118
-0.10700079 -0.053500395 0.0 0.053500395 -0.053500395 0.21400158 -0.053500395 0.26750198
0.053500395 -0.10700079 -0.053500395 -0.053500395 0.0 -0.16050118 0.053500395 -0.10700079
0.0 0.0 -0.69550514 -0.26750198 0.0 0.053500395 0.16050118 -0.053500395
0.16050118 -0.16050118 0.053500395 -0.16050118 0.053500395 -0.16050118 -0.10700079 0.0
-0.16050118 0.0 -0.48150355 0.16050118 -0.10700079 -0.10700079 0.0 -0.16050118
-0.16050118 0.0 -0.053500395 0.053500395 -0.10700079 0.0 0.0 0.053500395
0.21400158 0.053500395 0.0 -0.10700079 -0.21400158 -0.21400158 -0.053500395 0.16050118
-0.053500395 -0.053500395 -0.053500395 -0.10700079 0.10700079 -0.16050118 0.053500395 0.0
0.053500395 0.26750198 0.0 0.0 0.0 -0.053500395 0.053500395 0.0
0.10700079 0.053500395 0.0 0.26750198 -0.10700079 -0.26750198 -0.16050118 0.10700079
0.16050118 -0.16050118 0.0 -0.053500395 -0.10700079 0.0 -0.10700079 0.0
0.0 0.053500395 0.0 -0.053500395 -0.10700079 -0.053500395 -0.74900556 0.0
-0.10700079 -0.053500395 0.21400158 -0.42800316 -0.48150355 -0.21400158 0.0 0.053500395
0.0 -0.16050118 -0.10700079 -0.16050118 0.0 -0.37450278 0.16050118 0.0
0.0 -0.053500395 0.0 0.10700079 -0.16050118 0.053500395 -0.053500395 0.053500395
0.053500395 -0.053500395 0.0 -0.16050118 0.053500395 0.0 -0.21400158 0.053500395
0.32100236 -0.053500395 0.16050118 -0.10700079 0.0 0.053500395 -0.26750198 -0.10700079
0.0 -0.16050118 -0.16050118 0.053500395 0.0 -0.16050118 -0.16050118 -0.10700079
-0.053500395 0.053500395 -0.21400158 0.053500395 0.21400158 -0.10700079 -0.21400158 -0.10700079
0.0 0.053500395 0.37450278 0.053500395 -0.053500395 -0.26750198 0.26750198 0.0
-0.053500395 0.0 0.16050118 0.16050118 0.10700079 0.053500395 0.0 0.0
0.0 -0.053500395 -0.16050118 0.053500395 -0.16050118 -0.21400158 0.0 0.053500395
-0.10700079 -0.10700079 -0.32100236 -0.053500395 0.10700079 -0.10700079 -0.053500395 -0.053500395
-0.26750198 -0.10700079 -0.10700079 0.21400158 -0.053500395 0.053500395 0.10700079 0.0
0.0 0.0 0.053500395 -0.26750198 0.0 0.32100236 0.053500395 -0.053500395
-0.053500395 0.053500395 0.0 0.10700079 0.0 0.053500395 0.053500395 0.16050118
-0.21400158 -0.053500395 0.0 -0.26750198 -0.053500395 0.053500395 -0.42800316 -0.42800316
0.053500395 0.053500395 -0.10700079 -0.10700079 -0.10700079 -0.053500395 -0.42800316 0.0
-0.32100236 -0.053500395 0.16050118 -0.10700079 -0.10700079 0.053500395 0.053500395 -0.16050118
0.053500395 -0.053500395 -0.053500395 0.10700079 -0.053500395 0.053500395 -0.053500395 0.053500395
00000000: ff00 03ff fd00 0702 0000 fd05 ff01 fd03
00000010: feff 0001 ff04 ff05 01fe ffff 00fd 01fe
00000020: 0000 f3fb 0001 03ff 03fd 01fd 01fd fe00
00000030: fd00 f703 fefe 00fd fd00 ff01 fe00 0001
00000040: 0401 00fe fcfc ff03 ffff fffe 02fd 0100
00000050: 0105 0000 00ff 0100 0201 0005 fefb fd02
00000060: 03fd 00ff fe00 fe00 0001 00ff feff f200
00000070: feff 04f8 f7fc 0001 00fd fefd 00f9 0300
00000080: 00ff 0002 fd01 ff01 01ff 00fd 0100 fc01
00000090: 06ff 03fe 0001 fbfe 00fd fd01 00fd fdfe
000000a0: ff01 fc01 04fe fcfe 0001 0701 fffb 0500
000000b0: ff00 0303 0201 0000 00ff fd01 fdfc 0001
000000c0: fefe faff 02fe ffff fbfe fe04 ff01 0200
000000d0: 0000 01fb 0006 01ff ff01 0002 0001 0103
000000e0: fcff 00fb ff01 f8f8 0101 fefe feff f800
000000f0: faff 03fe fe01 01fd 01ff ff02 ff01 ff01

functional_1/dense_3/MatMul i1 [128, 128] scale=0.07203542 zero_point=0
0.21610625 0.21610625 0.07203542 0.0 -0.7203542 0.21610625 0.28814167 0.07203542
-0.14407083 -0.21610625 0.0 -0.14407083 -0.07203542 0.07203542 -0.07203542 -0.07203542
-0.07203542 0.0 0.28814167 -0.64831877 -0.07203542 0.0 0.0 -0.07203542
-0.7923896 -0.14407083 0.0 -0.3601771 -0.07203542 -0.14407083 0.07203542 -0.14407083
0.14407083 0.07203542 -0.14407083 0.21610625 0.07203542 -0.21610625 -0.7203542 -0.07203542
-0.28814167 0.14407083 0.07203542 0.07203542 0.0 0.0 0.0 -0.07203542
0.14407083 0.14407083 -0.14407083 0.28814167 -0.14407083 0.0 -0.07203542 0.07203542
0.0 0.0 0.0 0.0 0.93646044 -0.28814167 -0.07203542 -0.07203542
0.14407083 -0.5042479 0.14407083 -0.07203542 -0.14407083 0.14407083 -0.14407083 0.0
0.0 0.07203542 0.0 0.0 -0.14407083 -0.07203542 0.0 0.0
0.07203542 0.0 0.07203542 0.3601771 0.14407083 0.28814167 -0.07203542 -0.07203542
0.14407083 0.28814167 0.0 -0.14407083 -0.21610625 0.0 0.0 0.07203542
0.0 0.0 -0.07203542 0.0 0.07203542 -0.07203542 0.07203542 0.0
0.0 -0.14407083 0.0 0.07203542 -6.6272583 -0.07203542 -0.07203542 -0.07203542
0.07203542 -0.7203542 0.07203542 0.21610625 0.28814167 0.0 0.07203542 0.0
0.14407083 0.0 0.07203542 -0.864425 0.0 0.07203542 -0.07203542 0.14407083
0.07203542 0.0 -0.07203542 0.0 -0.21610625 0.0 0.0 0.0
0.0 0.07203542 -0.07203542 0.0 0.0 -0.07203542 0.0 0.14407083
-0.07203542 0.0 -0.21610625 -0.07203542 0.0 0.14407083 0.07203542 0.0
-0.14407083 0.0 0.07203542 0.0 0.07203542 -0.07203542 0.0 0.0
-0.14407083 -0.07203542 0.0 0.0 0.07203542 0.0 -0.21610625 0.0
-0.07203542 0.0 0.0 0.14407083 0.07203542 0.0 0.07203542 -0.14407083
-0.21610625 0.0 -0.07203542 0.14407083 -0.4322125 -0.07203542 -0.07203542 0.0
0.0 -0.07203542 -0.4322125 0.0 -0.3601771 -0.07203542 0.0 0.07203542
0.0 0.0 0.0 0.0 -0.14407083 0.07203542 0.0 0.07203542
-0.07203542 0.0 0.0 0.07203542 0.0 0.0 0.0 0.07203542
0.0 0.0 0.0 0.0 0.0 0.0 0.07203542 0.07203542
0.0 0.07203542 -0.07203542 0.0 0.0 0.0 0.0 0.0
0.0 0.0 0.0 -0.07203542 0.0 0.0 0.0 0.0
0.0 0.07203542 0.07203542 0.07203542 0.0 0.0 0.14407083 0.0
0.07203542 0.14407083 0.0 -0.07203542 0.0 0.0 0.0 0.07203542
0.0 0.0 0.0 0.07203542 0.0 -0.07203542 -0.14407083 0.0
00000000: 0303 0100 f603 0401 fefd 00fe ff01 ffff
00000010: ff00 04f7 ff00 00ff f5fe 00fb fffe 01fe
00000020: 0201 fe03 01fd f6ff fc02 0101 0000 00ff
00000030: 0202 fe04 fe00 ff01 0000 0000 0dfc ffff
00000040: 02f9 02ff fe02 fe00 0001 0000 feff 0000
00000050: 0100 0105 0204 ffff 0204 00fe fd00 0001
00000060: 0000 ff00 01ff 0100 00fe 0001 a4ff ffff
00000070: 01f6 0103 0400 0100 0200 01f4 0001 ff02
00000080: 0100 ff00 fd00 0000 0001 ff00 00ff 0002
00000090: ff00 fdff 0002 0100 fe00 0100 01ff 0000
000000a0: feff 0000 0100 fd00 ff00 0002 0100 01fe
000000b0: fd00 ff02 faff ff00 00ff fa00 fbff 0001
000000c0: 0000 0000 fe01 0001 ff00 0001 0000 0001
000000d0: 0000 0000 0000 0101 0001 ff00 0000 0000
000000e0: 0000 00ff 0000 0000 0001 0101 0000 0200
000000f0: 0102 00ff 0000 0001 0000 0001 00ff fe00

functional_1/dense_4/MatMul i1 [8, 128] scale=0.008344634 zero_point=0
0.025033902 -0.050067805 -0.016689269 -0.008344634 -0.025033902 -0.083446346 0.32544073 -0.050067805
0.008344634 -0.066757075 -0.033378538 0.033378538 0.0 0.016689269 0.083446346 -0.07510171
-0.083446346 0.0 0.016689269 -0.15854806 0.07510171 -0.008344634 -0.041723173 0.07510171
0.025033902 0.0 0.05841244 -0.083446346 0.041723173 0.07510171 -0.008344634 0.008344634
0.008344634 -0.46729952 -0.15854806 -0.066757075 0.0 -0.025033902 -0.05841244 -0.17523733
0.016689269 -0.11682488 -0.05841244 0.050067805 0.016689269 0.050067805 0.008344634 0.025033902
-0.025033902 -0.016689269 0.008344634 -0.13351415 0.09179098 0.0 -0.025033902 -0.10013561
-0.016689269 -0.07510171 0.033378538 0.22530513 -0.016689269 0.008344634 -0.033378538 0.025033902
0.025033902 0.050067805 0.27537292 -0.35047466 0.05841244 -0.10013561 -0.016689269 -0.033378538
0.15020342 0.041723173 -0.05841244 -0.016689269 -0.07510171 0.008344634 -0.15854806 0.016689269
0.07510171 -0.033378538 -0.11682488 0.11682488 0.041723173 0.041723173 0.008344634 -0.041723173
-0.07510171 0.0 -0.23364976 -0.10013561 -0.025033902 0.066757075 0.016689269 -0.20027122
-0.050067805 -0.025033902 -0.033378538 0.0 0.016689269 -0.13351415 -0.008344634 0.11682488
0.0 -0.050067805 -0.07510171 -0.3838532 -0.008344634 -0.016689269 0.083446346 -0.10013561
0.008344634 0.05841244 0.05841244 0.2670283 0.083446346 -0.050067805 -0.025033902 0.0
-0.008344634 -0.008344634 0.4589549 -0.10013561 -0.14185879 0.025033902 0.0 0.016689269
0.008344634 0.16689269 -0.033378538 0.008344634 0.3838532 0.05841244 -0.008344634 -0.15020342
-0.033378538 -0.11682488 0.016689269 0.008344634 0.008344634 0.008344634 -0.025033902 0.025033902
0.033378538 0.0 0.016689269 -0.083446346 -0.033378538 -0.18358196 0.008344634 0.033378538
0.033378538 -0.008344634 -0.033378538 0.016689269 0.0 -0.016689269 0.0 -0.11682488
0.0 0.033378538 -0.07510171 0.0 -0.008344634 0.0 0.0 -0.10013561
0.008344634 0.0 0.025033902 0.0 0.025033902 -0.09179098 -0.11682488 -0.52571195
-0.008344634 0.016689269 0.0 -0.083446346 -0.05841244 0.008344634 -0.025033902 0.041723173
0.21696049 -0.041723173 -0.025033902 0.033378538 0.6425369 -0.20027122 0.16689269 -0.033378538
-0.16689269 -0.033378538 0.025033902 0.041723173 0.025033902 0.008344634 0.050067805 0.0
-0.15020342 -1.0597686 -0.11682488 -0.033378538 0.05841244 0.016689269 0.0 -0.033378538
0.083446346 0.025033902 -0.025033902 -0.05841244 -0.008344634 -0.016689269 0.0 0.041723173
0.07510171 0.033378538 -0.008344634 -0.008344634 -0.041723173 0.09179098 0.0 0.008344634
0.0 -0.09179098 0.016689269 -0.016689269 -0.008344634 -0.05841244 -0.008344634 -0.008344634
0.2419944 -0.11682488 0.05841244 -0.041723173 0.008344634 0.0 -0.025033902 0.0
0.0 0.05841244 -0.108480245 0.025033902 -0.008344634 0.0 0.033378538 0.016689269
0.20861585 0.008344634 -0.016689269 -0.016689269 -0.050067805 0.033378538 0.0 0.0
00000000: 03fa feff fdf6 27fa 01f8 fc04 0002 0af7
00000010: f600 02ed 09ff fb09 0300 07f6 0509 ff01
00000020: 01c8 edf8 00fd f9eb 02f2 f906 0206 0103
00000030: fdfe 01f0 0b00 fdf4 fef7 041b fe01 fc03
00000040: 0306 21d6 07f4 fefc 1205 f9fe f701 ed02
00000050: 09fc f20e 0505 01fb f700 e4f4 fd08 02e8
00000060: fafd fc00 02f0 ff0e 00fa f7d2 fffe 0af4
00000070: 0107 0720 0afa fd00 ffff 37f4 ef03 0002
00000080: 0114 fc01 2e07 ffee fcf2 0201 0101 fd03
00000090: 0400 02f6 fcea 0104 04ff fc02 00fe 00f2
000000a0: 0004 f700 ff00 00f4 0100 0300 03f5 f2c1
000000b0: ff02 00f6 f901 fd05 1afb fd04 4de8 14fc
000000c0: ecfc 0305 0301 0600 ee81 f2fc 0702 00fc
000000d0: 0a03 fdf9 fffe 0005 0904 ffff fb0b 0001
000000e0: 00f5 02fe fff9 ffff 1df2 07fb 0100 fd00
000000f0: 0007 f303 ff00 0402 1901 fefe fa04 0000

functional_1/dense_5/MatMul i1 [128, 8] scale=0.026734488 zero_point=0
-0.7485657 -0.10693795 -1.0159105 0.0 -0.053468976 0.16040693 -0.10693795 0.4544863
-0.56142426 -0.37428284 0.080203466 -0.2138759 -0.080203466 0.29407936 -0.2138759 0.6683622
0.34754834 0.13367245 0.6683622 0.026734488 0.13367245 1.3634589 0.026734488 -0.24061039
-0.4544863 -0.16040693 -0.29407936 0.13367245 0.96244156 -0.18714142 -0.10693795 0.29407936
-0.2138759 -0.080203466 -0.34754834 0.0 -0.2673449 -0.16040693 -0.6148932 -0.026734488
0.32081386 0.026734488 -0.24061039 1.4703969 -0.82876915 -0.053468976 0.10693795 -0.10693795
0.18714142 -3.0744662 0.7485657 -0.026734488 0.026734488 -0.053468976 -0.10693795 -0.080203466
0.8555036 -0.026734488 0.2138759 -0.4010173 -0.16040693 -0.98917603 0.10693795 0.10693795
-0.053468976 -0.10693795 -0.24061039 -0.16040693 -0.24061039 -0.8020346 -0.053468976 0.13367245
-0.4544863 -0.10693795 0.13367245 -0.6416277 -0.2673449 0.50795525 0.24061039 0.5346898
-0.13367245 2.1654935 -0.4544863 0.026734488 -0.10693795 0.13367245 0.026734488 0.053468976
0.2138759 1.3099899 -0.16040693 -0.080203466 -0.13367245 -0.13367245 -0.10693795 -0.18714142
-0.026734488 -0.026734488 0.053468976 0.10693795 0.053468976 0.053468976 0.98917603 -0.026734488
-0.080203466 -0.2138759 -0.34754834 0.4277518 -0.8822381 0.053468976 -0.026734488 0.98917603
-0.16040693 0.24061039 -0.026734488 -0.10693795 -0.7218312 -0.080203466 0.50795525 -0.4544863
0.24061039 -0.10693795 -0.34754834 -0.13367245 0.18714142 0.32081386 0.10693795 0.29407936
0.2138759 -0.2138759 -0.7218312 -0.053468976 0.5346898 -0.026734488 -0.56142426 0.080203466
0.080203466 -0.026734488 -0.5346898 0.32081386 0.34754834 -0.82876915 -0.16040693 0.7485657
-0.053468976 0.0 0.0 0.080203466 -0.16040693 -0.98917603 0.32081386 -0.24061039
0.053468976 -0.080203466 -1.3367244 -0.080203466 0.4010173 -0.13367245 0.16040693 0.7485657
0.8020346 0.080203466 0.29407936 0.32081386 -0.8555036 -0.13367245 -0.18714142 0.56142426
0.4010173 0.0 -0.10693795 -0.026734488 0.4010173 -1.256521 0.2138759 0.18714142
0.2138759 1.042645 -0.18714142 0.2138759 -0.34754834 0.2673449 0.080203466 -0.10693795
-0.6416277 0.053468976 -0.16040693 -0.13367245 0.8020346 -0.10693795 0.026734488 -2.299166
0.4544863 -1.7912107 0.6950967 0.0 -0.13367245 -0.053468976 -0.16040693 -0.2673449
-0.026734488 0.026734488 -0.32081386 -0.053468976 -0.026734488 -0.37428284 0.56142426 -0.026734488
0.10693795 -0.10693795 -0.13367245 -0.13367245 -0.080203466 0.026734488 3.39528 0.10693795
0.080203466 -0.053468976 -0.4277518 0.10693795 -0.2138759 -0.2673449 0.6950967 -0.4277518
-0.48122078 0.053468976 0.29407936 -0.82876915 -0.7218312 -0.18714142 -0.080203466 -0.2138759
-0.13367245 0.053468976 0.0 0.2138759 0.50795525 0.13367245 0.10693795 -0.7218312
0.56142426 -0.13367245 -0.2138759 0.080203466 -0.10693795 -0.34754834 0.026734488 -0.8555036
-2.5397763 -0.080203466 0.32081386 -0.13367245 -0.8555036 -1.5238658 0.080203466 0.32081386
00000000: e4fc da00 fe06 fc11 ebf2 03f8 fd0b f819
00000010: 0d05 1901 0533 01f7 effa f505 24f9 fc0b
00000020: f8fd f300 f6fa e9ff 0c01 f737 e1fe 04fc
00000030: 078d 1cff 01fe fcfd 20ff 08f1 fadb 0404
00000040: fefc f7fa f7e2 fe05 effc 05e8 f613 0914
00000050: fb51 ef01 fc05 0102 0831 fafd fbfb fcf9
00000060: ffff 0204 0202 25ff fdf8 f310 df02 ff25
00000070: fa09 fffc e5fd 13ef 09fc f3fb 070c 040b
00000080: 08f8 e5fe 14ff eb03 03ff ec0c 0de1 fa1c
00000090: fe00 0003 fadb 0cf7 02fd cefd 0ffb 061c
000000a0: 1e03 0b0c e0fb f915 0f00 fcff 0fd1 0807
000000b0: 0827 f908 f30a 03fc e802 fafb 1efc 01aa
000000c0: 11bd 1a00 fbfe faf6 ff01 f4fe fff2 15ff
000000d0: 04fc fbfb fd01 7f04 03fe f004 f8f6 1af0
000000e0: ee02 0be1 e5f9 fdf8 fb02 0008 1305 04e5
000000f0: 15fb f803 fcf3 01e0 a1fd 0cfb e0c7 030c

functional_1/dense_6/MatMul i1 [128, 128] scale=0.019335434 zero_point=0
0.0580063 -0.15468347 0.38670868 0.077341735 -0.1160126 -0.13534804 0.0580063 0.038670868
0.077341735 0.15468347 0.019335434 0.0580063 -0.1160126 0.09667717 0.019335434 0.0580063
0.0 0.13534804 -0.038670868 -0.21268977 -0.1160126 0.2900315 -0.1160126 -0.1160126
-0.077341735 -0.19335434 0.09667717 0.038670868 -0.038670868 -0.0580063 -0.019335434 -0.038670868
-0.13534804 0.1160126 0.038670868 -0.1160126 0.13534804 0.077341735 -0.1160126 0.15468347
-0.0580063 0.21268977 -0.1740189 0.0580063 -0.038670868 0.15468347 -0.038670868 -0.0580063
0.09667717 -0.27069607 -0.0580063 0.077341735 -0.13534804 -0.019335434 0.038670868 0.019335434
-0.13534804 0.019335434 0.019335434 -0.2320252 -0.09667717 0.0 0.038670868 0.038670868
-0.21268977 0.09667717 -0.019335434 0.0580063 -0.09667717 -0.09667717 0.038670868 -0.077341735
0.15468347 -0.1740189 0.2320252 0.0580063 0.038670868 -0.0580063 -0.038670868 -0.1160126
0.0 -0.077341735 -0.077341735 -0.038670868 0.0580063 -0.019335434 0.27069607 0.09667717
-0.038670868 0.038670868 -0.038670868 -0.13534804 0.019335434 0.038670868 0.21268977 -0.09667717
0.0580063 -0.019335434 0.15468347 0.0580063 0.0 0.3287024 0.1160126 -0.15468347
-0.077341735 -0.19335434 0.1740189 0.0580063 0.0 -0.09667717 -0.019335434 -0.0580063
0.15468347 -0.2320252 0.0580063 0.0 0.077341735 0.038670868 0.21268977 0.077341735
-0.15468347 0.15468347 0.038670868 0.1160126 0.13534804 0.3287024 0.0 -0.077341735
0.077341735 0.019335434 0.2900315 -0.38670868 -0.077341735 -0.0580063 0.019335434 -0.019335434
-0.42537954 -0.27069607 -0.019335434 0.09667717 0.077341735 -0.3287024 0.0580063 0.09667717
0.0 -0.1740189 -0.1740189 0.09667717 -0.13534804 -0.38670868 0.0580063 -0.077341735
0.019335434 -0.09667717 0.0 -0.038670868 0.077341735 0.1740189 0.09667717 0.15468347
-0.13534804 0.019335434 -0.15468347 -0.3287024 -0.13534804 0.09667717 0.15468347 -0.1160126
0.0 0.077341735 -0.1740189 -0.038670868 0.09667717 0.077341735 -0.077341735 0.2900315
-0.019335434 0.1740189 0.1160126 0.038670868 0.1160126 0.09667717 0.0 0.0
0.0 -0.019335434 0.038670868 -0.077341735 0.019335434 -0.019335434 0.038670868 -0.13534804
-0.038670868 0.077341735 -0.077341735 -0.09667717 -0.1740189 -0.077341735 0.077341735 0.077341735
-0.25136065 0.3480378 -0.1160126 0.019335434 -0.038670868 0.019335434 0.09667717 0.019335434
0.0 -0.09667717 0.019335434 0.019335434 -0.1160126 -0.077341735 0.09667717 0.0580063
0.038670868 0.077341735 -0.0580063 0.019335434 0.09667717 -0.019335434 0.2900315 0.2320252
-0.67674017 -0.038670868 -0.1160126 -0.038670868 0.0 -0.09667717 0.19335434 0.15468347
-0.2320252 -0.09667717 -0.1160126 -0.13534804 -0.077341735 0.1160126 -0.2900315 -0.0580063
0.077341735 0.15468347 0.09667717 0.1160126 -0.1160126 -0.0580063 -0.36737323 0.038670868
-0.0580063 0.038670868 -0.038670868 0.1160126 0.1160126 0.019335434 0.1740189 -0.0580063
00000000: 03f8 1404 faf9 0302 0408 0103 fa05 0103
00000010: 0007 fef5 fa0f fafa fcf6 0502 fefd fffe
00000020: f906 02fa 0704 fa08 fd0b f703 fe08 fefd
00000030: 05f2 fd04 f9ff 0201 f901 01f4 fb00 0202
00000040: f505 ff03 fbfb 02fc 08f7 0c03 02fd fefa
00000050: 00fc fcfe 03ff 0e05 fe02 fef9 0102 0bfb
00000060: 03ff 0803 0011 06f8 fcf6 0903 00fb fffd
00000070: 08f4 0300 0402 0b04 f808 0206 0711 00fc
00000080: 0401 0fec fcfd 01ff eaf2 ff05 04ef 0305
00000090: 00f7 f705 f9ec 03fc 01fb 00fe 0409 0508
000000a0: f901 f8ef f905 08fa 0004 f7fe 0504 fc0f
000000b0: ff09 0602 0605 0000 00ff 02fc 01ff 02f9
000000c0: fe04 fcfb f7fc 0404 f312 fa01 fe01 0501
000000d0: 00fb 0101 fafc 0503 0204 fd01 05ff 0f0c
000000e0: ddfe fafe 00fb 0a08 f4fb faf9 fc06 f1fd
000000f0: 0408 0506 fafd ed02 fd02 fe06 0601 09fd

functional_1/dense_7/MatMul i1 [128, 128] scale=0.0128027415 zero_point=0
0.12802741 0.23044935 -0.10242193 0.07681645 -0.025605483 -0.025605483 -0.16643564 -0.39688498
0.12802741 0.0128027415 -0.14083016 -0.25605482 -0.025605483 -0.038408224 0.16643564 -0.16643564
-0.08961919 0.19204113 0.1536329 0.17923838 0.14083016 0.32006854 0.064013705 0.39688498
0.16643564 -0.2176466 0.19204113 -0.5249124 -0.0128027415 -0.17923838 0.0128027415 0.051210966
-0.17923838 0.051210966 -0.12802741 -0.16643564 -0.16643564 0.064013705 -0.115224674 0.07681645
0.025605483 0.115224674 -0.4352932 0.10242193 -0.58892614 0.16643564 0.038408224 -0.25605482
-0.25605482 -0.6401371 -0.1536329 -0.025605483 -0.0128027415 0.16643564 -0.26885757 0.42249048
-0.16643564 0.10242193 -0.08961919 -0.28166032 -0.26885757 0.47370145 -0.1536329 -0.115224674
0.19204113 -0.038408224 -0.10242193 -0.24325208 -0.07681645 0.115224674 0.20484386 0.115224674
0.25605482 -0.14083016 0.0 0.28166032 0.1536329 -0.10242193 0.0 -0.3072658
0.064013705 0.038408224 0.56332064 0.16643564 0.17923838 0.115224674 0.08961919 0.0
-0.115224674 0.40968773 0.12802741 0.0 0.0 -0.0128027415 -0.038408224 0.26885757
0.32006854 -0.025605483 0.1536329 -0.32006854 -0.0128027415 -0.25605482 0.23044935 -0.25605482
0.1536329 -0.115224674 -0.08961919 -0.3712795 0.025605483 0.0128027415 -0.24325208 -0.345674
0.051210966 -0.07681645 0.12802741 0.14083016 0.0 -0.39688498 -0.10242193 0.26885757
-0.07681645 0.0 0.23044935 0.12802741 -0.14083016 0.17923838 0.038408224 0.07681645
0.025605483 0.08961919 0.038408224 0.051210966 0.08961919 0.064013705 0.1536329 -0.0128027415
0.10242193 0.19204113 -0.40968773 0.17923838 -0.064013705 0.038408224 -0.38408226 0.12802741
0.12802741 -0.12802741 -0.025605483 -0.115224674 0.025605483 -0.25605482 0.10242193 -0.07681645
-0.038408224 -0.07681645 0.064013705 -0.16643564 0.08961919 0.051210966 0.115224674 -0.064013705
0.0128027415 0.14083016 -0.08961919 -0.07681645 0.025605483 0.28166032 0.14083016 0.0
-0.14083016 0.038408224 0.10242193 0.07681645 -0.064013705 -0.1536329 0.064013705 -0.051210966
0.038408224 0.025605483 -0.025605483 0.051210966 -0.115224674 0.0 0.115224674 0.1536329
0.1536329 0.19204113 -0.051210966 -0.051210966 -0.08961919 -0.025605483 -0.25605482 -0.038408224
-0.08961919 0.025605483 0.0 0.0128027415 0.10242193 0.07681645 -0.115224674 0.115224674
-0.038408224 0.025605483 0.0 0.08961919 -0.038408224 -0.10242193 0.1536329 0.115224674
0.051210966 0.0128027415 -0.10242193 -0.12802741 0.10242193 0.025605483 -0.038408224 0.0128027415
0.115224674 0.025605483 -0.0128027415 0.0 -0.29446307 -0.0128027415 0.10242193 -0.115224674
0.038408224 0.025605483 0.0128027415 0.14083016 0.19204113 -0.10242193 -0.051210966 0.10242193
0.08961919 -0.0128027415 -0.025605483 -0.16643564 -0.9474029 0.0 0.0 -0.10242193
0.038408224 0.051210966 -0.025605483 0.10242193 -0.064013705 0.064013705 -0.051210966 0.24325208
0.0 0.0128027415 0.0128027415 0.0128027415 -0.115224674 0.14083016 0.25605482 0.08961919
00000000: 0a12 f806 fefe f3e1 0a01 f5ec fefd 0df3
00000010: f90f 0c0e 0b19 051f 0def 0fd7 fff2 0104
00000020: f204 f6f3 f305 f706 0209 de08 d20d 03ec
00000030: ecce f4fe ff0d eb21 f308 f9ea eb25 f4f7
00000040: 0ffd f8ed fa09 1009 14f5 0016 0cf8 00e8
00000050: 0503 2c0d 0e09 0700 f720 0a00 00ff fd15
00000060: 19fe 0ce7 ffec 12ec 0cf7 f9e3 0201 ede5
00000070: 04fa 0a0b 00e1 f815 fa00 120a f50e 0306
00000080: 0207 0304 0705 0cff 080f e00e fb03 e20a
00000090: 0af6 fef7 02ec 08fa fdfa 05f3 0704 09fb
000000a0: 010b f9fa 0216 0b00 f503 0806 fbf4 05fc
000000b0: 0302 fe04 f700 090c 0c0f fcfc f9fe ecfd
000000c0: f902 0001 0806 f709 fd02 0007 fdf8 0c09
000000d0: 0401 f8f6 0802 fd01 0902 ff00 e9ff 08f7
000000e0: 0302 010b 0ff8 fc08 07ff fef3 b600 00f8
000000f0: 0304 fe08 fb05 fc13 0001 0101 f70b 1407

functional_1/dense_8/MatMul i1 [128, 128] scale=0.007049884 zero_point=0
0.16214734 -0.105748266 0.0916485 0.16214734 0.12689792 -0.042299304 0.042299304 0.07049884
0.08459861 -0.38069373 0.1339478 0.14804757 0.007049884 0.45824248 -0.105748266 0.1339478
0.056399073 -0.03524942 -0.14804757 -0.0916485 -0.08459861 -0.19034687 -0.09869838 -0.25379583
0.16919722 0.06344896 -0.14804757 -0.20444664 -0.33134454 0.03524942 -0.183297 0.07049884
0.1339478 0.14099768 -0.042299304 0.07049884 0.014099768 0.04934919 -0.007049884 -0.0916485
-0.056399073 -0.15509745 0.021149652 0.12689792 -0.021149652 0.34544432 -0.5005418 -0.3101949
-0.056399073 -0.014099768 -0.1339478 -0.042299304 0.028199537 0.20444664 -0.03524942 0.2185464
-0.14804757 0.09869838 -0.021149652 -0.04934919 0.007049884 -0.07754873 0.183297 0.12689792
0.07049884 -0.014099768 -0.04934919 -0.09869838 0.1339478 -0.29609513 -0.021149652 -0.028199537
-0.105748266 -0.06344896 -0.03524942 0.09869838 -0.26084572 0.55694085 0.2749455 0.16919722
0.09869838 -0.11984803 -0.042299304 0.021149652 0.007049884 0.11984803 0.21149653 0.03524942
0.07754873 0.06344896 0.1339478 0.16214734 0.19739676 0.06344896 0.09869838 -0.14804757
0.34544432 0.3172448 0.24674594 -0.15509745 -0.04934919 -0.2255963 -0.08459861 0.26084572
0.0 0.028199537 -0.26084572 0.0916485 -0.3242947 -0.08459861 0.007049884 0.056399073
-0.03524942 0.056399073 0.3242947 0.07049884 0.15509745 -0.09869838 -0.03524942 -0.42299306
0.105748266 -0.15509745 -0.021149652 -0.09869838 0.028199537 0.0 -0.19034687 0.06344896
-0.007049884 0.08459861 -0.09869838 0.105748266 -0.08459861 -0.07754873 0.06344896 0.014099768
-0.07754873 0.028199537 0.021149652 0.08459861 -0.11984803 -0.08459861 0.021149652 -0.03524942
-0.20444664 0.07754873 -0.1339478 0.03524942 -0.04934919 -0.028199537 0.042299304 0.042299304
-0.2678956 -0.056399073 0.03524942 0.028199537 0.12689792 -0.105748266 -0.007049884 0.028199537
-0.16214734 -0.021149652 -0.056399073 -0.14099768 -0.014099768 -0.08459861 -0.09869838 -0.14804757
0.028199537 -0.014099768 0.007049884 0.028199537 -0.2185464 0.03524942 0.042299304 0.007049884
0.03524942 0.09869838 0.20444664 -0.12689792 0.07049884 -0.014099768 -0.007049884 -0.2185464
-0.028199537 0.105748266 0.09869838 -0.06344896 0.105748266 0.042299304 -0.23969606 0.014099768
-0.021149652 0.183297 0.056399073 -0.056399073 -0.028199537 -0.007049884 0.042299304 0.007049884
-0.07754873 0.03524942 0.11984803 -0.014099768 -0.38069373 -0.16919722 -0.08459861 0.07049884
0.0 -0.105748266 0.0916485 -0.014099768 -0.04934919 0.007049884 0.183297 -0.23264618
0.042299304 -0.16214734 0.056399073 -0.04934919 -0.09869838 0.042299304 -0.11279815 0.11279815
-0.0916485 -0.16214734 -0.014099768 -0.20444664 0.09869838 -0.028199537 0.08459861 -0.21149653
-0.14804757 -0.042299304 0.04934919 -0.1339478 -0.056399073 0.07754873 -0.08459861 -0.07049884
-0.21149653 0.03524942 -0.06344896 -0.15509745 -0.03524942 -0.03524942 0.056399073 -0.07754873
-0.38774362 0.11279815 -0.19034687 -0.03524942 -0.0916485 0.1339478 0.042299304 0.007049884
00000000: 17f1 0d17 12fa 060a 0cca 1315 0141 f113
00000010: 08fb ebf3 f4e5 f2dc 1809 ebe3 d105 e60a
00000020: 1314 fa0a 0207 fff3 f8ea 0312 fd31 b9d4
00000030: f8fe edfa 041d fb1f eb0e fdf9 01f5 1a12
00000040: 0afe f9f2 13d6 fdfc f1f7 fb0e db4f 2718
00000050: 0eef fa03 0111 1e05 0b09 1317 1c09 0eeb
00000060: 312d 23ea f9e0 f425 0004 db0d d2f4 0108
00000070: fb08 2e0a 16f2 fbc4 0fea fdf2 0400 e509
00000080: ff0c f20f f4f5 0902 f504 030c eff4 03fb
00000090: e30b ed05 f9fc 0606 daf8 0504 12f1 ff04
000000a0: e9fd f8ec fef4 f2eb 04fe 0104 e105 0601
000000b0: 050e 1dee 0afe ffe1 fc0f 0ef7 0f06 de02
000000c0: fd1a 08f8 fcff 0601 f505 11fe cae8 f40a
000000d0: 00f1 0dfe f901 1adf 06e9 08f9 f206 f010
000000e0: f3e9 fee3 0efc 0ce2 ebfa 07ed f80b f4f6
000000f0: e205 f7ea fbfb 08f5 c910 e5fb f313 0601

functional_1/dense_9/MatMul i1 [640, 128] scale=0.019556683 zero_point=0
-0.3324636 -0.31290692 -0.25423688 -0.117340095 -0.8800507 0.07822673 -0.95827746 -0.46936038
0.058670048 -0.25423688 -0.07822673 -0.039113365 -1.0756176 -0.37157696 -0.07822673 -0.3324636
-0.5867005 -0.860494 -0.058670048 0.09778342 0.019556683 -0.52803046 -0.07822673 -0.430247
-0.6844839 -0.4498037 -0.5475871 -0.25423688 -0.430247 -0.17601015 -0.860494 -0.3520203
-0.117340095 0.058670048 -0.7040406 -0.5475871 -0.23468019 -1.114731 -0.25423688 0.23468019
-0.09778342 -0.117340095 -0.6649272 -1.173401 -0.62581384 -1.173401 0.17601015 -0.2151235
-0.039113365 0.07822673 0.31290692 -0.64537054 -1.0365041 -0.019556683 0.27379355 -0.25423688
-0.13689677 -0.801824 -1.3298544 -1.2711843 -0.8996074 -0.39113367 -1.0756176 0.0
-0.430247 -0.5475871 -0.48891705 -0.95827746 -0.39113367 -0.95827746 0.15645346 -0.50847375
-0.37157696 -0.50847375 -0.76271063 -0.7235972 -0.19556683 -1.3689678 -0.3520203 -0.8996074
-0.7040406 -0.6844839 -0.019556683 -0.801824 -0.058670048 -0.27379355 -1.3689678 -0.058670048
0.4498037 -0.31290692 -0.62581384 -0.801824 -0.27379355 -0.4498037 -0.8213807 -0.117340095
-0.2151235 -0.019556683 -0.8409374 -0.39113367 -0.23468019 -1.5449779 0.48891705 -0.23468019
-0.37157696 -0.95827746 -0.430247 0.430247 0.25423688 -0.50847375 -0.19556683 0.019556683
-0.039113365 -0.9973908 -0.5475871 -0.48891705 -0.19556683 -0.19556683 -0.19556683 -0.039113365
-0.50847375 0.15645346 -0.4498037 0.07822673 -1.1538442 -0.27379355 -0.5671438 -0.25423688
-0.7431539 -0.15645346 0.15645346 -0.46936038 -0.117340095 -0.46936038 -0.37157696 -0.31290692
-0.15645346 -0.60625714 -0.5475871 -0.07822673 -0.058670048 0.019556683 -0.019556683 -0.31290692
-0.27379355 -1.2516277 0.3520203 0.41069034 0.15645346 0.039113365 0.09778342 0.117340095
-0.27379355 -0.37157696 -0.39113367 -0.2151235 -0.2151235 1.3102977 0.13689677 -0.15645346
-0.058670048 -0.039113365 0.019556683 -0.48891705 0.39113367 -1.6818748 -0.48891705 0.2151235
0.117340095 -0.039113365 -0.41069034 0.039113365 -0.52803046 -1.173401 -0.07822673 0.60625714
0.5867005 -0.09778342 0.41069034 -0.46936038 -0.3324636 0.07822673 -0.019556683 -0.019556683
-0.39113367 -0.5671438 -1.0365041 -0.91916406 -0.3520203 -0.15645346 -1.173401 -0.3324636
-0.039113365 -0.6649272 -0.29335025 -0.09778342 -0.29335025 -1.232071 0.09778342 -0.62581384
-1.2516277 -0.6844839 -0.019556683 -0.3324636 -0.6649272 -0.19556683 -0.37157696 -0.8213807
-0.15645346 -0.117340095 0.27379355 -0.13689677 0.50847375 -0.60625714 -0.7040406 0.19556683
0.117340095 -0.41069034 -0.50847375 -0.78226733 -0.058670048 -0.3324636 -1.173401 -0.3324636
-0.17601015 -0.27379355 -0.25423688 0.039113365 -1.1929576 0.3324636 -0.19556683 -0.5867005
-0.41069034 -0.5671438 -0.4498037 0.8996074 -0.17601015 -0.5475871 0.29335025 -0.41069034
-0.29335025 -0.3520203 -0.4498037 -0.23468019 0.13689677 -0.76271063 0.0 0.039113365
-0.39113367 0.23468019 0.039113365 0.019556683 -1.1538442 -0.13689677 -0.801824 1.1342876
00000000: eff0 f3fa d304 cfe8 03f3 fcfe c9ed fcef
00000010: e2d4 fd05 01e5 fcea dde9 e4f3 eaf7 d4ee
00000020: fa03 dce4 f4c7 f30c fbfa dec4 e0c4 09f5
00000030: fe04 10df cbff 0ef3 f9d7 bcbf d2ec c900
00000040: eae4 e7cf eccf 08e6 ede6 d9db f6ba eed2
00000050: dcdd ffd7 fdf2 bafd 17f0 e0d7 f2e9 d6fa
00000060: f5ff d5ec f4b1 19f4 edcf ea16 0de6 f601
00000070: fecd e4e7 f6f6 f6fe e608 e904 c5f2 e3f3
00000080: daf8 08e8 fae8 edf0 f8e1 e4fc fd01 fff0
00000090: f2c0 1215 0802 0506 f2ed ecf5 f543 07f8
000000a0: fdfe 01e7 14aa e70b 06fe eb02 e5c4 fc1f
000000b0: 1efb 15e8 ef04 ffff ece3 cbd1 eef8 c4ef
000000c0: fede f1fb f1c1 05e0 c0dd ffef def6 edd6
000000d0: f8fa 0ef9 1ae1 dc0a 06eb e6d8 fdef c4ef
000000e0: f7f2 f302 c311 f6e2 ebe3 e92e f7e4 0feb
000000f0: f1ee e9f4 07d9 0002 ec0c 0201 c5f9 d73a
