static/img/docs/tlc-pack/web-data/main/testdata/microTVM/model/image_classification_quant.tflite (tflite, 98496 bytes, 10 tensors)

model/dense/MatMul i1 [10, 64] scale=0.030554391 zero_point=0
00000000: 1fe6 2823 10b8 f8f5 d30d 17e0 eff9 ffe7
00000010: 12c0 e818 fced 14e7 0e07 0fda d214 0a44
00000020: c4b9 2014 34c5 c8e4 2026 e5ab e90b cf15
00000030: af04 df33 d0fb d628 3ae1 18c9 0505 031a
00000040: b7da dde0 0514 15fc dff6 ef24 36e8 1be0
00000050: 0a29 cf0a 27e4 e013 fd13 35ed c9d6 d80c
00000060: f8c6 fe09 edd9 faa9 24dd 0e06 2600 12de
00000070: 00e2 57f8 13d5 e2ce be10 144e f013 40e3
00000080: 2e1d 39ff ccda 1db0 1445 fbdf 2312 c7ec
00000090: 0cdf 14fc bcea 1e1f ead6 ea6d dfe1 ccdf
000000a0: e7f4 fd7d 0f1c 3b03 0c46 0824 e4e6 ba1b
000000b0: 0c0f d0ba f7b1 f300 f9e2 b6ed e70a 003a
000000c0: fafb 0d0c cce5 c910 c6e8 08fb f525 0d1b
000000d0: ebf4 04f9 e214 f004 f31c c3da e4f9 22d8
000000e0: 1604 e0ee 170a f70b f8d2 fb3c e61b 0314
000000f0: 04e6 f9e3 e84f 7fd9 0322 f1e5 d91c 2ff0
0.9471861 -0.79441416 1.2221756 1.0694036 0.48887026 -2.1999161 -0.24443513 -0.3360983
-1.3749477 0.39720708 0.702751 -0.9777405 -0.5194247 -0.21388075 -0.030554391 -0.7638598
0.54997903 -1.955481 -0.7333054 0.7333054 -0.122217566 -0.58053344 0.6110878 -0.7638598
0.4277615 0.21388075 0.45831588 -1.1610669 -1.405502 0.6110878 0.3055439 2.0776987
-1.8332635 -2.1693618 0.9777405 0.6110878 1.5888283 -1.8027091 -1.711046 -0.855523
0.9777405 1.1610669 -0.8249686 -2.5971234 -0.702751 0.3360983 -1.4971652 0.6416422
-2.4749057 0.122217566 -1.0082949 1.5582739 -1.4666108 -0.15277195 -1.2832844 1.2221756
1.7721547 -0.9471861 0.7333054 -1.6804916 0.15277195 0.15277195 0.091663174 0.79441416
-2.2304707 -1.1610669 -1.0694036 -0.9777405 0.15277195 0.6110878 0.6416422 -0.122217566
-1.0082949 -0.3055439 -0.5194247 1.0999581 1.6499372 -0.7333054 0.8249686 -0.9777405
0.3055439 1.25273 -1.4971652 0.3055439 1.1916213 -0.855523 -0.9777405 0.58053344
-0.091663174 0.58053344 1.6193827 -0.58053344 -1.6804916 -1.2832844 -1.2221756 0.3666527
-0.24443513 -1.7721547 -0.061108783 0.27498952 -0.58053344 -1.1916213 -0.18332635 -2.658232
1.0999581 -1.0694036 0.4277615 0.18332635 1.1610669 0.0 0.54997903 -1.0388494
0.0 -0.91663176 2.658232 -0.24443513 0.58053344 -1.3138388 -0.91663176 -1.5277196
-2.0165899 0.48887026 0.6110878 2.3832426 -0.48887026 0.58053344 1.955481 -0.88607734
1.405502 0.88607734 1.7416003 -0.030554391 -1.5888283 -1.1610669 0.88607734 -2.4443512
0.6110878 2.108253 -0.15277195 -1.0082949 1.0694036 0.54997903 -1.7416003 -0.6110878
0.3666527 -1.0082949 0.6110878 -0.122217566 -2.0776987 -0.6721966 0.91663176 0.9471861
-0.6721966 -1.2832844 -0.6721966 3.3304286 -1.0082949 -0.9471861 -1.5888283 -1.0082949
-0.7638598 -0.3666527 -0.091663174 3.819299 0.45831588 0.855523 1.8027091 0.091663174
0.3666527 2.1388073 0.24443513 1.0999581 -0.855523 -0.79441416 -2.1388073 0.8249686
0.3666527 0.45831588 -1.4666108 -2.1388073 -0.27498952 -2.413797 -0.39720708 0.0
-0.21388075 -0.91663176 -2.261025 -0.58053344 -0.7638598 0.3055439 0.0 1.7721547
-0.18332635 -0.15277195 0.39720708 0.3666527 -1.5888283 -0.8249686 -1.6804916 0.48887026
-1.7721547 -0.7333054 0.24443513 -0.15277195 -0.3360983 1.1305125 0.39720708 0.8249686
-0.6416422 -0.3666527 0.122217566 -0.21388075 -0.91663176 0.6110878 -0.48887026 0.122217566
-0.39720708 0.855523 -1.8638179 -1.1610669 -0.855523 -0.21388075 1.0388494 -1.2221756
0.6721966 0.122217566 -0.9777405 -0.54997903 0.702751 0.3055439 -0.27498952 0.3360983
-0.24443513 -1.405502 -0.15277195 1.8332635 -0.79441416 0.8249686 0.091663174 0.6110878
0.122217566 -0.79441416 -0.21388075 -0.88607734 -0.7333054 2.413797 3.8804078 -1.1916213
0.091663174 1.0388494 -0.45831588 -0.8249686 -1.1916213 0.855523 1.4360564 -0.48887026

model/conv2d/Conv2D i1 [16, 3, 3, 3]
00000000: 1921 d115 f0c4 4b11 9aa7 f64b f928 f4ec
00000010: d7ed aeff 0826 3a7f a8e8 2cf3 18a3 4ac0
00000020: f528 a5ec e7f1 e1a9 8a9f 7fe4 60ba 262b
00000030: 321f eb61 ab4f c4b2 243f 4320 ac2d 0530
00000040: c9f4 bcb6 ebcf c3a7 7f05 f819 36ea 0742
00000050: 5dbd 0407 ba3c eb04 2dd0 0122 0ff0 7f13
00000060: 0918 d62d fad7 d907 dbe0 1cf7 8132 55ad
00000070: 25db 2702 f097 0e5c a3f7 e20d 251b 6920
00000080: db60 b9d5 4eac e94c 1710 bc81 aef0 c9bb
00000090: b6ee eacf 0c09 f065 26f4 fe1d 52de 2855
000000a0: 6522 3ea1 41e8 e962 d618 19ca c50d 0007
000000b0: 9965 7fee 165c 40c6 c584 eb53 ab67 a2ac
000000c0: 71c2 b921 2807 1a4f 0eeb 1626 cf01 d29f
000000d0: 463a 8188 fe1b 375b 2aa2 1567 597f 5ff3
000000e0: e8f5 ee19 9423 6691 8aec 35c6 13f5 cbc6
000000f0: f90f eb4c e51f f4ee e5d0 db04 7f30 61c5
25 33 -47 21 -16 -60 75 17
-102 -89 -10 75 -7 40 -12 -20
-41 -19 -82 -1 8 38 58 127
-88 -24 44 -13 24 -93 74 -64
-11 40 -91 -20 -25 -15 -31 -87
-118 -97 127 -28 96 -70 38 43
50 31 -21 97 -85 79 -60 -78
36 63 67 32 -84 45 5 48
-55 -12 -68 -74 -21 -49 -61 -89
127 5 -8 25 54 -22 7 66
93 -67 4 7 -70 60 -21 4
45 -48 1 34 15 -16 127 19
9 24 -42 45 -6 -41 -39 7
-37 -32 28 -9 -127 50 85 -83
37 -37 39 2 -16 -105 14 92
-93 -9 -30 13 37 27 105 32
-37 96 -71 -43 78 -84 -23 76
23 16 -68 -127 -82 -16 -55 -69
-74 -18 -22 -49 12 9 -16 101
38 -12 -2 29 82 -34 40 85
101 34 62 -95 65 -24 -23 98
-42 24 25 -54 -59 13 0 7
-103 101 127 -18 22 92 64 -58
-59 -124 -21 83 -85 103 -94 -84
113 -62 -71 33 40 7 26 79
14 -21 22 38 -49 1 -46 -97
70 58 -127 -120 -2 27 55 91
42 -94 21 103 89 127 95 -13
-24 -11 -18 25 -108 35 102 -111
-118 -20 53 -58 19 -11 -53 -58
-7 15 -21 76 -27 31 -12 -18
-27 -48 -37 4 127 48 97 -59

model/conv2d_1/Conv2D i1 [16, 3, 3, 16]
00000000: 0f08 03fc f01a 093f f1fe 0207 0316 d3fe
00000010: 06ec 9e2b be07 13ab edee d6a9 16e7 eb0b
00000020: ca17 fbda 1407 3129 1ff4 02ee c201 16e4
00000030: e7f5 2743 10f0 1aee ba12 000f ef2e c6e0
00000040: e1b5 f138 df13 9c0a f324 aed2 aff9 ec40
00000050: e632 0485 1a1c efdd da1f dfe7 f9e8 100b
00000060: 0e16 f2ec 04a1 f8d9 17f4 fa0e 17fc ec03
00000070: 2502 22fa f9de dede e106 f7fe a7f5 0981
00000080: 552f 0bb1 0dfa f6fc f6d3 2207 04dd 1ceb
00000090: 09ec f30b 1240 1818 bc12 05f0 4700 243a
000000a0: 16c9 5223 4839 f68e f16c 104c 1714 127c
000000b0: 2501 3b41 3454 12bb 214e f16e 01e4 f370
000000c0: 25dc f0c3 ddb0 ed1c e0f2 2bdc d9e8 4eea
000000d0: f3bc 6aec 2381 c8a3 c155 42e6 030a 25d4
000000e0: e3ce 5511 1b03 0083 cd48 1ff2 0cf0 e80e
000000f0: 1413 e223 c70a 0328 26cf 1be4 e0c6 27fa
15 8 3 -4 -16 26 9 63
-15 -2 2 7 3 22 -45 -2
6 -20 -98 43 -66 7 19 -85
-19 -18 -42 -87 22 -25 -21 11
-54 23 -5 -38 20 7 49 41
31 -12 2 -18 -62 1 22 -28
-25 -11 39 67 16 -16 26 -18
-70 18 0 15 -17 46 -58 -32
-31 -75 -15 56 -33 19 -100 10
-13 36 -82 -46 -81 -7 -20 64
-26 50 4 -123 26 28 -17 -35
-38 31 -33 -25 -7 -24 16 11
14 22 -14 -20 4 -95 -8 -39
23 -12 -6 14 23 -4 -20 3
37 2 34 -6 -7 -34 -34 -34
-31 6 -9 -2 -89 -11 9 -127
85 47 11 -79 13 -6 -10 -4
-10 -45 34 7 4 -35 28 -21
9 -20 -13 11 18 64 24 24
-68 18 5 -16 71 0 36 58
22 -55 82 35 72 57 -10 -114
-15 108 16 76 23 20 18 124
37 1 59 65 52 84 18 -69
33 78 -15 110 1 -28 -13 112
37 -36 -16 -61 -35 -80 -19 28
-32 -14 43 -36 -39 -24 78 -22
-13 -68 106 -20 35 -127 -56 -93
-63 85 66 -26 3 10 37 -44
-29 -50 85 17 27 3 0 -125
-51 72 31 -14 12 -16 -24 14
20 19 -30 35 -57 10 3 40
38 -49 27 -28 -32 -58 39 -6

model/conv2d_2/Conv2D i1 [16, 3, 3, 16]
00000000: aa42 d50a 9918 5817 c02e 1ed3 1b14 ecb9
00000010: d05e 5ee1 22f4 3d64 b4f8 2d47 351c 1fe6
00000020: a07f 5a0b 5ff2 082b f1e0 304b dd3e ef35
00000030: 0811 f30a ece3 f533 1813 00e9 0daf c509
00000040: 202b 1717 16d7 237f 0be9 0749 14ca ecb3
00000050: e106 07ec 0efa f825 0ff1 2031 cd0b d2b9
00000060: 401e baa2 e81f d9fc f7c7 aea6 1a82 be1e
00000070: 2fc9 c2c6 19c8 dc13 3ebc b6fb 009a ffdd
00000080: 39a1 1ed7 efd4 bc08 24f4 fc1a d0a9 b002
00000090: 0c34 e8e9 d2e4 b312 f641 0008 cb1d 3dc5
000000a0: 36ec e833 3e1f c9d6 0007 fe02 e2ee 079e
000000b0: dcf0 23d6 ad1d 57d2 1408 f7f5 08d6 f243
000000c0: 7f33 da4a 2bda e021 44fb 3406 b05a 36a1
000000d0: 05ed cfe7 73ff e6ef 07d3 0a19 cac9 fe91
000000e0: a0c9 6fb1 893d 23e7 4f06 0ef8 26fe fb73
000000f0: 3ed7 c749 e8c7 f3d4 f5f2 0c05 b82c 11ec
-86 66 -43 10 -103 24 88 23
-64 46 30 -45 27 20 -20 -71
-48 94 94 -31 34 -12 61 100
-76 -8 45 71 53 28 31 -26
-96 127 90 11 95 -14 8 43
-15 -32 48 75 -35 62 -17 53
8 17 -13 10 -20 -29 -11 51
24 19 0 -23 13 -81 -59 9
32 43 23 23 22 -41 35 127
11 -23 7 73 20 -54 -20 -77
-31 6 7 -20 14 -6 -8 37
15 -15 32 49 -51 11 -46 -71
64 30 -70 -94 -24 31 -39 -4
-9 -57 -82 -90 26 -126 -66 30
47 -55 -62 -58 25 -56 -36 19
62 -68 -74 -5 0 -102 -1 -35
57 -95 30 -41 -17 -44 -68 8
36 -12 -4 26 -48 -87 -80 2
12 52 -24 -23 -46 -28 -77 18
-10 65 0 8 -53 29 61 -59
54 -20 -24 51 62 31 -55 -42
0 7 -2 2 -30 -18 7 -98
-36 -16 35 -42 -83 29 87 -46
20 8 -9 -11 8 -42 -14 67
127 51 -38 74 43 -38 -32 33
68 -5 52 6 -80 90 54 -95
5 -19 -49 -25 115 -1 -26 -17
7 -45 10 25 -54 -55 -2 -111
-96 -55 111 -79 -119 61 35 -25
79 6 14 -8 38 -2 -5 115
62 -41 -57 73 -24 -57 -13 -44
-11 -14 12 5 -72 44 17 -20

model/conv2d_3/Conv2D i1 [32, 3, 3, 16]
00000000: e705 f4d2 f2ba 0ece b317 0b1d 0425 1525
00000010: d203 fcce edbf 0fba c928 040f 0e3c 2625
00000020: e60c 0d27 e732 f8ec f1eb 01fc 0f1d 0b0b
00000030: 10eb d9e2 11b5 06d8 f2da ce04 1726 16f3
00000040: e9f9 cfc2 2183 1dad d003 c810 1733 141e
00000050: cc07 f5e2 10e3 01c2 d6ec ef04 14fa 0230
00000060: 4606 1021 28e6 c710 21d7 b81d 192d 1f0f
00000070: 0521 eaff 2281 0fdd f2f1 e02a 0432 234b
00000080: d733 ece4 0bc0 14d5 c715 192d 0901 3849
00000090: 0c0f c200 450f c905 eb10 ebdb 0bf3 0b08
000000a0: 02fa 3b08 9b06 0bf9 18ef 240c 02f9 edf6
000000b0: 02f6 0601 09f7 1103 fc16 ee0b 05fa e800
000000c0: e033 93ea 6310 ce10 ea17 c8f1 02f9 161c
000000d0: 07e5 5421 81ea 47e8 fcde 2f04 f804 ee02
000000e0: 12fd 00f5 18f2 f40e 0513 ee10 f904 f40e
000000f0: e916 dbf5 3bf8 f213 f1ec ed0e fafb f906
-25 5 -12 -46 -14 -70 14 -50
-77 23 11 29 4 37 21 37
-46 3 -4 -50 -19 -65 15 -70
-55 40 4 15 14 60 38 37
-26 12 13 39 -25 50 -8 -20
-15 -21 1 -4 15 29 11 11
16 -21 -39 -30 17 -75 6 -40
-14 -38 -50 4 23 38 22 -13
-23 -7 -49 -62 33 -125 29 -83
-48 3 -56 16 23 51 20 30
-52 7 -11 -30 16 -29 1 -62
-42 -20 -17 4 20 -6 2 48
70 6 16 33 40 -26 -57 16
33 -41 -72 29 25 45 31 15
5 33 -22 -1 34 -127 15 -35
-14 -15 -32 42 4 50 35 75
-41 51 -20 -28 11 -64 20 -43
-57 21 25 45 9 1 56 73
12 15 -62 0 69 15 -55 5
-21 16 -21 -37 11 -13 11 8
2 -6 59 8 -101 6 11 -7
24 -17 36 12 2 -7 -19 -10
2 -10 6 1 9 -9 17 3
-4 22 -18 11 5 -6 -24 0
-32 51 -109 -22 99 16 -50 16
-22 23 -56 -15 2 -7 22 28
7 -27 84 33 -127 -22 71 -24
-4 -34 47 4 -8 4 -18 2
18 -3 0 -11 24 -14 -12 14
5 19 -18 16 -7 4 -12 14
-23 22 -37 -11 59 -8 -14 19
-15 -20 -19 14 -6 -5 -7 6

model/conv2d_4/Conv2D i1 [32, 3, 3, 32]
00000000: b8e0 2cfe ead6 0f36 0505 f705 04b9 251a
00000010: e0e7 eee2 dfcb bee1 c330 37df f4ea e7bb
00000020: 19ed 5513 c9d5 27d7 de04 e301 0503 d9e2
00000030: 17d0 e1e3 f4cd da0d def4 3506 f1ef e102
00000040: 1513 2449 02ef e9ab ae0d eada 1319 c7c0
00000050: fc2f fce8 d905 1b14 f2ea df0f 1d00 eb45
00000060: c9c8 1ea2 f8d7 ed7f 10d8 fbf3 f4de 4628
00000070: ede1 f506 0909 bf01 bf2e 1bca fd41 f7b5
00000080: 3ccf 3adc be1a 1ffc 0b0a 01e9 020f ebe5
00000090: 11b4 fb04 d70a e501 09e3 2af2 eb4c f510
000000a0: 331b 0a27 a513 05be fb4c ff10 1139 a2e4
000000b0: ff13 0f0f 011b 060b 5ed2 0108 1f33 f427
000000c0: dfd8 eedc 40cf f634 dbc3 0dec dbe0 3afb
000000d0: dde5 ffff 020d c5fb fe0b 31c4 e021 d1df
000000e0: 42ca 2106 34ce 08dc d5e1 1616 031f f4da
000000f0: 01be f72b cc18 b1ef 0a04 f1d8 e802 fd0f
-72 -32 44 -2 -22 -42 15 54
5 5 -9 5 4 -71 37 26
-32 -25 -18 -30 -33 -53 -66 -31
-61 48 55 -33 -12 -22 -25 -69
25 -19 85 19 -55 -43 39 -41
-34 4 -29 1 5 3 -39 -30
23 -48 -31 -29 -12 -51 -38 13
-34 -12 53 6 -15 -17 -31 2
21 19 36 73 2 -17 -23 -85
-82 13 -22 -38 19 25 -57 -64
-4 47 -4 -24 -39 5 27 20
-14 -22 -33 15 29 0 -21 69
-55 -56 30 -94 -8 -41 -19 127
16 -40 -5 -13 -12 -34 70 40
-19 -31 -11 6 9 9 -65 1
-65 46 27 -54 -3 65 -9 -75
60 -49 58 -36 -66 26 31 -4
11 10 1 -23 2 15 -21 -27
17 -76 -5 4 -41 10 -27 1
9 -29 42 -14 -21 76 -11 16
51 27 10 39 -91 19 5 -66
-5 76 -1 16 17 57 -94 -28
-1 19 15 15 1 27 6 11
94 -46 1 8 31 51 -12 39
-33 -40 -18 -36 64 -49 -10 52
-37 -61 13 -20 -37 -32 58 -5
-35 -27 -1 -1 2 13 -59 -5
-2 11 49 -60 -32 33 -47 -33
66 -54 33 6 52 -50 8 -36
-43 -31 22 22 3 31 -12 -38
1 -66 -9 43 -52 24 -79 -17
10 4 -15 -40 -24 2 -3 15

model/conv2d_5/Conv2D i1 [32, 1, 1, 16]
00000000: 4bf9 d5e5 2d53 7f3c 1e04 2894 0fab c506
00000010: d550 5281 fb08 b448 0ef7 2bd9 2e1e d972
00000020: 7ff0 17ec 0905 19d1 1bde ed0c 051b f012
00000030: 7f59 09d5 cd19 eb36 70d7 062e 372e 1720
00000040: 0ed8 dee5 f07f 112b 2cda 02c5 e402 e9c5
00000050: 0308 3ed1 7259 07e5 e8dd 2a17 0e0b 4681
00000060: 082a 47d5 2149 e2be 04ff 5381 7ae2 21cf
00000070: e5dc 20c3 2357 b9f0 d513 7f5d 1800 41dd
00000080: ea63 3eca 9145 e715 f64a b4fc 863a 7fb5
00000090: 3ceb 11de 08a1 2da1 8164 415b 2510 4c1e
000000a0: ac88 b0d6 d4b8 19e3 4e86 e7b2 36a2 81b0
000000b0: 8112 1fcc dce8 4ffe f535 e73d b7fe 45ad
000000c0: 1820 0de3 e531 bc0f fc81 f714 1e1b f206
000000d0: d31b 0b18 37cb 7f04 c341 db12 cece 1dad
000000e0: d6f9 076d def1 95c4 8156 70e8 16e5 242b
000000f0: 171b 293b 1bd7 3ded 1e15 2400 7ffc 1300
75 -7 -43 -27 45 83 127 60
30 4 40 -108 15 -85 -59 6
-43 80 82 -127 -5 8 -76 72
14 -9 43 -39 46 30 -39 114
127 -16 23 -20 9 5 25 -47
27 -34 -19 12 5 27 -16 18
127 89 9 -43 -51 25 -21 54
112 -41 6 46 55 46 23 32
14 -40 -34 -27 -16 127 17 43
44 -38 2 -59 -28 2 -23 -59
3 8 62 -47 114 89 7 -27
-24 -35 42 23 14 11 70 -127
8 42 71 -43 33 73 -30 -66
4 -1 83 -127 122 -30 33 -49
-27 -36 32 -61 35 87 -71 -16
-43 19 127 93 24 0 65 -35
-22 99 62 -54 -111 69 -25 21
-10 74 -76 -4 -122 58 127 -75
60 -21 17 -34 8 -95 45 -95
-127 100 65 91 37 16 76 30
-84 -120 -80 -42 -44 -72 25 -29
78 -122 -25 -78 54 -94 -127 -80
-127 18 31 -52 -36 -24 79 -2
-11 53 -25 61 -73 -2 69 -83
24 32 13 -29 -27 49 -68 15
-4 -127 -9 20 30 27 -14 6
-45 27 11 24 55 -53 127 4
-61 65 -37 18 -50 -50 29 -83
-42 -7 7 109 -34 -15 -107 -60
-127 86 112 -24 22 -27 36 43
23 27 41 59 27 -41 61 -19
30 21 36 0 127 -4 19 0

model/conv2d_6/Conv2D i1 [64, 3, 3, 32]
00000000: 03c2 2e2b e106 d302 27ef e125 cfe1 00f0
00000010: de13 efe5 b211 d23f 2d9f 2a07 d4cd 43c4
00000020: 1ba6 d43e c902 9519 22f7 d3e7 f8f1 19d1
00000030: e2f9 e1ed c2e6 9d24 09e5 1934 e7dc 1236
00000040: fdb3 c52c e40d 9d27 06e2 e7e0 1e2d 28ea
00000050: 23db e40f def3 be07 0dee fe30 f3f0 0244
00000060: 27a4 35f6 f5fb 1327 5af2 c8fc d4e9 0ffb
00000070: db36 de0c b9ec d734 f4a6 2012 fa0d f9d5
00000080: 19a9 df1c e402 e83e 5a12 bfda 0af7 f1bb
00000090: ec21 f029 bcf7 9b19 caf0 052a 1600 dc36
000000a0: f9e5 da36 fa0b e37f 3302 e9d5 2516 f7b6
000000b0: 25f9 033a c5e9 aa0c ece3 db2b 1cef fe51
000000c0: 1ab6 3aa5 1cf5 4afa 2e39 e7f3 f4f9 142a
000000d0: 082e b925 b706 b2fd c8be d4f6 041e ffee
000000e0: 29a1 efc3 07f4 3018 4734 f6f1 18fb fee2
000000f0: 0a16 cf46 ab04 acdf bcdd e0e8 fa23 f328
3 -62 46 43 -31 6 -45 2
39 -17 -31 37 -49 -31 0 -16
-34 19 -17 -27 -78 17 -46 63
45 -97 42 7 -44 -51 67 -60
27 -90 -44 62 -55 2 -107 25
34 -9 -45 -25 -8 -15 25 -47
-30 -7 -31 -19 -62 -26 -99 36
9 -27 25 52 -25 -36 18 54
-3 -77 -59 44 -28 13 -99 39
6 -30 -25 -32 30 45 40 -22
35 -37 -28 15 -34 -13 -66 7
13 -18 -2 48 -13 -16 2 68
39 -92 53 -10 -11 -5 19 39
90 -14 -56 -4 -44 -23 15 -5
-37 54 -34 12 -71 -20 -41 52
-12 -90 32 18 -6 13 -7 -43
25 -87 -33 28 -28 2 -24 62
90 18 -65 -38 10 -9 -15 -69
-20 33 -16 41 -68 -9 -101 25
-54 -16 5 42 22 0 -36 54
-7 -27 -38 54 -6 11 -29 127
51 2 -23 -43 37 22 -9 -74
37 -7 3 58 -59 -23 -86 12
-20 -29 -37 43 28 -17 -2 81
26 -74 58 -91 28 -11 74 -6
46 57 -25 -13 -12 -7 20 42
8 46 -71 37 -73 6 -78 -3
-56 -66 -44 -10 4 30 -1 -18
41 -95 -17 -61 7 -12 48 24
71 52 -10 -15 24 -5 -2 -30
10 22 -49 70 -85 4 -84 -33
-68 -35 -32 -24 -6 35 -13 40

model/conv2d_7/Conv2D i1 [64, 3, 3, 64]
00000000: c3f1 eef6 c24b 2b17 ff27 b91c 0fe9 2fd8
00000010: fa17 f01f 00d3 4c10 d7de edff c2c2 c8ba
00000020: 0b2c dd3d e2cc c9f4 0ee4 04f5 ec23 21fd
00000030: 3d0f 63f3 121e 3f1a c7d7 1321 f4b8 ed14
00000040: 1afa 14d1 fe17 1c00 fc03 e512 51dd deb1
00000050: e50e f10e 2df7 7f10 16dd fdfc e6a4 29f7
00000060: 09ff c335 e01a e41b 0407 0607 eb1d 1420
00000070: 2cde 5702 e74f 3c0f 09ef ecfe f2a5 fcef
00000080: 1dfe 17fb d2e1 3507 06ec 10e3 72e3 d9c7
00000090: dfef e1b9 2d39 300d 32fd f5e0 e6d7 fb0d
000000a0: 31e2 1c4f fbd2 cce7 d3e1 1efc 1925 2df9
000000b0: 13e3 1eec 1d1f c7fc 0d08 f8dd cacd 2c15
000000c0: cffb 2fc6 cb37 4534 cc29 f624 f7e5 1fe6
000000d0: 030f d417 0f08 f03e b6fc b201 f5f7 dbca
000000e0: ee0e 0ffc ebec db18 07fe e0f9 2109 262e
000000f0: 4ffc c313 091d 6016 daff d313 fd0c 00fc
-61 -15 -18 -10 -62 75 43 23
-1 39 -71 28 15 -23 47 -40
-6 23 -16 31 0 -45 76 16
-41 -34 -19 -1 -62 -62 -56 -70
11 44 -35 61 -30 -52 -55 -12
14 -28 4 -11 -20 35 33 -3
61 15 99 -13 18 30 63 26
-57 -41 19 33 -12 -72 -19 20
26 -6 20 -47 -2 23 28 0
-4 3 -27 18 81 -35 -34 -79
-27 14 -15 14 45 -9 127 16
22 -35 -3 -4 -26 -92 41 -9
9 -1 -61 53 -32 26 -28 27
4 7 6 7 -21 29 20 32
44 -34 87 2 -25 79 60 15
9 -17 -20 -2 -14 -91 -4 -17
29 -2 23 -5 -46 -31 53 7
6 -20 16 -29 114 -29 -39 -57
-33 -17 -31 -71 45 57 48 13
50 -3 -11 -32 -26 -41 -5 13
49 -30 28 79 -5 -46 -52 -25
-45 -31 30 -4 25 37 45 -7
19 -29 30 -20 29 31 -57 -4
13 8 -8 -35 -54 -51 44 21
-49 -5 47 -58 -53 55 69 52
-52 41 -10 36 -9 -27 31 -26
3 15 -44 23 15 8 -16 62
-74 -4 -78 1 -11 -9 -37 -54
-18 14 15 -4 -21 -20 -37 24
7 -2 -32 -7 33 9 38 46
79 -4 -61 19 9 29 96 22
-38 -1 -45 19 -3 12 0 -4

model/conv2d_8/Conv2D i1 [64, 1, 1, 32]
00000000: 0304 f52c fb35 b7fc c415 140d cbd6 39d8
00000010: 0b31 c117 e825 101d f381 e710 ac24 1acb
00000020: e607 3008 9ef7 afac 8ce6 0dee c2ee 3659
00000030: c60d 7f07 401e c0d5 ad7a 2e3a 8417 1b54
00000040: 492a da81 a8d6 4f19 b4eb 03f0 f341 0728
00000050: 00d7 82bd 0ddc 4205 e437 1e00 a3cc d0c9
00000060: 27f6 f6f5 7ffd 0039 489b 06f8 5afa efcb
00000070: fef4 ff29 c4df e8ed cec6 f51d 5ffd e0d4
00000080: 3f02 0a37 7212 81ba 2c1d 3edd 19f9 018b
00000090: b3f0 1406 dff6 20e2 38a8 1c20 f5e2 d4e7
000000a0: abfb a520 f5eb 83d8 fdfc 2a11 eef3 fe81
000000b0: 0a0c ea24 f103 f5e8 05a8 f9e2 b608 ddd4
000000c0: a6f7 0712 e6ff 81d9 ffd0 14d9 ded1 d8a6
000000d0: e804 2b22 10eb fde7 57bf 03f6 bff4 fff9
000000e0: b41f 83d0 f0d3 8c0a 4a2f 0e0d 7fea 1f3b
000000f0: e00d 02be d015 d80e 36b1 f5f5 b1f7 faa9
3 4 -11 44 -5 53 -73 -4
-60 21 20 13 -53 -42 57 -40
11 49 -63 23 -24 37 16 29
-13 -127 -25 16 -84 36 26 -53
-26 7 48 8 -98 -9 -81 -84
-116 -26 13 -18 -62 -18 54 89
-58 13 127 7 64 30 -64 -43
-83 122 46 58 -124 23 27 84
73 42 -38 -127 -88 -42 79 25
-76 -21 3 -16 -13 65 7 40
0 -41 -126 -67 13 -36 66 5
-28 55 30 0 -93 -52 -48 -55
39 -10 -10 -11 127 -3 0 57
72 -101 6 -8 90 -6 -17 -53
-2 -12 -1 41 -60 -33 -24 -19
-50 -58 -11 29 95 -3 -32 -44
63 2 10 55 114 18 -127 -70
44 29 62 -35 25 -7 1 -117
-77 -16 20 6 -33 -10 32 -30
56 -88 28 32 -11 -30 -44 -25
-85 -5 -91 32 -11 -21 -125 -40
-3 -4 42 17 -18 -13 -2 -127
10 12 -22 36 -15 3 -11 -24
5 -88 -7 -30 -74 8 -35 -44
-90 -9 7 18 -26 -1 -127 -39
-1 -48 20 -39 -34 -47 -40 -90
-24 4 43 34 16 -21 -3 -25
87 -65 3 -10 -65 -12 -1 -7
-76 31 -125 -48 -16 -45 -116 10
74 47 14 13 127 -22 31 59
-32 13 2 -66 -48 21 -40 14
54 -79 -11 -11 -79 -9 -6 -87
