static/img/docs/tlc-pack/web-data/main/testdata/microTVM/model/keyword_spotting_quant.tflite (tflite, 53936 bytes, 10 tensors)

functional_1/batch_normalization_1/FusedBatchNormV3;functional_1/depthwise_conv2d/depthwise;functional_1/depthwise_conv2d/BiasAdd;functional_1/conv2d_4/Conv2D;functional_1/depthwise_conv2d/BiasAdd/ReadVariableOp/resource i1 [1, 3, 3, 64]
000000 2a 01 c1 d6 23 d3 f7 c1 7f 81 e2 cd b9 2d df 04
       42 1 -63 -42 35 -45 -9 -63 127 -127 -30 -51 -71 45 -33 4
000010 d2 16 36 d3 41 f5 2d cb c2 54 2a bf db dd f4 45
       -46 22 54 -45 65 -11 45 -53 -62 84 42 -65 -37 -35 -12 69
000020 e9 f7 e6 fc a6 f7 fb f6 d4 20 7f 16 bf fd c7 bc
       -23 -9 -26 -4 -90 -9 -5 -10 -44 32 127 22 -65 -3 -57 -68
000030 d1 12 22 04 b2 3f 38 77 30 48 f3 c9 e0 81 b7 dd
       -47 18 34 4 -78 63 56 119 48 72 -13 -55 -32 -127 -73 -35
000040 fe a0 20 7f dd 1b c9 a8 cb 70 e4 36 2d ea 1a b0
       -2 -96 32 127 -35 27 -55 -88 -53 112 -28 54 45 -22 26 -80
000050 14 12 e7 db 16 08 f3 df 19 e7 2f 04 5c 0a 3b 81
       20 18 -25 -37 22 8 -13 -33 25 -25 47 4 92 10 59 -127
000060 0a 7f 1b f5 ed f6 ec ba 2b 96 f1 07 fb c0 b2 d6
       10 127 27 -11 -19 -10 -20 -70 43 -106 -15 7 -5 -64 -78 -42
000070 01 81 c1 11 b1 9c 43 0a fa 82 f9 f3 20 03 dd de
       1 -127 -63 17 -79 -100 67 10 -6 -126 -7 -13 32 3 -35 -34
000080 1e 81 b4 02 7f 0a 7f f3 a8 4e 7c ba d9 b7 d7 06
       30 -127 -76 2 127 10 127 -13 -88 78 124 -70 -39 -73 -41 6
000090 4d 8d 7d 1e f8 eb 13 0f e8 d0 b4 60 39 1c 78 d0
       77 -115 125 30 -8 -21 19 15 -24 -48 -76 96 57 28 120 -48
0000a0 c4 55 f7 88 e1 9c bb 16 05 44 d8 a9 03 50 12 a5
       -60 85 -9 -120 -31 -100 -69 22 5 68 -40 -87 3 80 18 -91
0000b0 9a d0 8b ad 25 81 ba 81 7f ad 03 f9 b6 3d e5 7f
       -102 -48 -117 -83 37 -127 -70 -127 127 -83 3 -7 -74 61 -27 127
0000c0 bc c6 d1 03 c9 7f b7 8a b9 8a bf 3c 81 31 20 d8
       -68 -58 -47 3 -55 127 -73 -118 -71 -118 -65 60 -127 49 32 -40
0000d0 4a 33 25 7f 0d cc f1 7f e3 75 13 4b b8 ce be 34
       74 51 37 127 13 -52 -15 127 -29 117 19 75 -72 -50 -66 52
0000e0 e0 f9 81 ea 8a 2a 05 e9 d6 19 ce 23 7f e5 81 96
       -32 -7 -127 -22 -118 42 5 -23 -42 25 -50 35 127 -27 -127 -106
0000f0 25 16 fb f4 bc 05 7f 8c 26 50 7f e6 51 9c d1 e1
       37 22 -5 -12 -68 5 127 -116 38 80 127 -26 81 -100 -47 -31

functional_1/batch_normalization_3/FusedBatchNormV3;functional_1/depthwise_conv2d_1/depthwise;functional_1/depthwise_conv2d_1/BiasAdd;functional_1/conv2d_4/Conv2D;functional_1/depthwise_conv2d_1/BiasAdd/ReadVariableOp/resource i1 [1, 3, 3, 64]
000000 58 b7 bd 3f cc df fd 76 08 99 4e 37 e6 50 7f a2
       88 -73 -67 63 -52 -33 -3 118 8 -103 78 55 -26 80 127 -94
000010 12 60 7f cc 66 f5 4f f0 03 f5 4c 0f 6f d3 af ea
       18 96 127 -52 102 -11 79 -16 3 -11 76 15 111 -45 -81 -22
000020 09 55 81 1d 03 29 4f 7f e4 fc bb 72 dc 2c 25 55
       9 85 -127 29 3 41 79 127 -28 -4 -69 114 -36 44 37 85
000030 f9 64 35 08 d6 0a a4 c4 2d 48 81 cc 0b e4 16 ce
       -7 100 53 8 -42 10 -92 -60 45 72 -127 -52 11 -28 22 -50
000040 ff c5 0b bb a5 0e 1d be 2b b8 2a 54 d9 7f d5 7f
       -1 -59 11 -69 -91 14 29 -66 43 -72 42 84 -39 127 -43 127
000050 66 1e 28 0b 74 de e7 4d 7f fb 8d a6 d0 e9 d1 7f
       102 30 40 11 116 -34 -25 77 127 -5 -115 -90 -48 -23 -47 127
000060 34 98 71 fc dc c7 7f 02 bb 81 d1 40 df 61 aa f5
       52 -104 113 -4 -36 -57 127 2 -69 -127 -47 64 -33 97 -86 -11
000070 42 d4 f0 53 85 ed e5 e0 fc e4 ed f5 ea d9 0e 81
       66 -44 -16 83 -123 -19 -27 -32 -4 -28 -19 -11 -22 -39 14 -127
000080 26 d6 7f 47 7d 1c bb 77 02 0b 68 d7 7f f3 04 df
       38 -42 127 71 125 28 -69 119 2 11 104 -41 127 -13 4 -33
000090 12 7f d5 f1 a9 81 70 c7 45 de d0 1a d0 bb d7 ff
       18 127 -43 -15 -87 -127 112 -57 69 -34 -48 26 -48 -69 -41 -1
0000a0 b8 04 8d 31 19 eb e4 22 91 f2 db b6 b4 b9 06 eb
       -72 4 -115 49 25 -21 -28 34 -111 -14 -37 -74 -76 -71 6 -21
0000b0 81 ea 81 e9 e0 c9 e1 7f e1 ef 15 f6 00 3c eb ab
       -127 -22 -127 -23 -32 -55 -31 127 -31 -17 21 -10 0 60 -21 -85
0000c0 7f 14 b8 34 91 c4 20 6c 1c c4 0f 3a 93 4a 50 ce
       127 20 -72 52 -111 -60 32 108 28 -60 15 58 -109 74 80 -50
0000d0 c8 59 75 b8 54 fc 5b e9 a3 18 6a 33 7f 7f 89 de
       -56 89 117 -72 84 -4 91 -23 -93 24 106 51 127 127 -119 -34
0000e0 25 39 b7 ff b8 7f f4 f9 32 fb e1 40 9b d6 53 7f
       37 57 -73 -1 -72 127 -12 -7 50 -5 -31 64 -101 -42 83 127
0000f0 7c 6d ff eb 81 c3 97 eb 34 4c f5 f5 3b 9d f4 ee
       124 109 -1 -21 -127 -61 -105 -21 52 76 -11 -11 59 -99 -12 -18

functional_1/batch_normalization_5/FusedBatchNormV3;functional_1/depthwise_conv2d_2/depthwise;functional_1/depthwise_conv2d_2/BiasAdd;functional_1/conv2d_4/Conv2D;functional_1/depthwise_conv2d_2/BiasAdd/ReadVariableOp/resource i1 [1, 3, 3, 64]
000000 81 3a ef d7 81 98 a3 e3 7f 67 11 f9 72 0c b0 f9
       -127 58 -17 -41 -127 -104 -93 -29 127 103 17 -7 114 12 -80 -7
000010 b2 8d de e7 09 7f 3e d1 3c ae 61 1b f0 43 aa f0
       -78 -115 -34 -25 9 127 62 -47 60 -82 97 27 -16 67 -86 -16
000020 7f 85 7f 85 7f 11 4c db 18 81 7f 79 39 48 7f 75
       127 -123 127 -123 127 17 76 -37 24 -127 127 121 57 72 127 117
000030 c2 75 35 7f 7f 70 b2 43 2c fa 60 d7 22 16 d3 e8
       -62 117 53 127 127 112 -78 67 44 -6 96 -41 34 22 -45 -24
000040 25 1a 7f 0f 37 de 8c f2 30 49 c8 9e 28 57 3e e9
       37 26 127 15 55 -34 -116 -14 48 73 -56 -98 40 87 62 -23
000050 f0 d5 ca f3 e5 1a 7f d6 19 97 d9 7f 7f 37 93 ed
       -16 -43 -54 -13 -27 26 127 -42 25 -105 -39 127 127 55 -109 -19
000060 23 81 3c f7 a8 25 43 0e 52 a4 5a 42 81 47 10 de
       35 -127 60 -9 -88 37 67 14 82 -92 90 66 -127 71 16 -34
000070 a2 fc 05 21 f8 b6 69 23 bb d6 4c 19 22 1f fc 3b
       -94 -4 5 33 -8 -74 105 35 -69 -42 76 25 34 31 -4 59
000080 15 43 cd 53 d1 7f e5 81 45 7f 2a d4 b9 19 3d 81
       21 67 -51 83 -47 127 -27 -127 69 127 42 -44 -71 25 61 -127
000090 81 36 8d 81 cb 4f 28 37 0a 9f 81 ad 24 48 09 13
       -127 54 -115 -127 -53 79 40 55 10 -97 -127 -83 36 72 9 19
0000a0 b7 a8 74 a3 5a 3a c2 20 81 0e 4e 7f 5d 04 3e 55
       -73 -88 116 -93 90 58 -62 32 -127 14 78 127 93 4 62 85
0000b0 72 c4 f5 27 39 22 0b 35 a5 f7 81 7f 7f 81 eb 36
       114 -60 -11 39 57 34 11 53 -91 -9 -127 127 127 -127 -21 54
0000c0 18 7f df a9 d9 f8 cc dd 42 22 2b 2f 61 dc ac fd
       24 127 -33 -87 -39 -8 -52 -35 66 34 43 47 97 -36 -84 -3
0000d0 ea f9 bc a3 07 46 77 fe fb c0 d7 4d d3 1a d5 1e
       -22 -7 -68 -93 7 70 119 -2 -5 -64 -41 77 -45 26 -43 30
0000e0 59 ac 5a 81 37 f6 6a 7d 18 c7 4a 40 2f 4b 46 20
       89 -84 90 -127 55 -10 106 125 24 -57 74 64 47 75 70 32
0000f0 dc 3b 3c 1d 4a 57 0c 4a f3 ce 14 ed d4 3a 0d 3c
       -36 59 60 29 74 87 12 74 -13 -50 20 -19 -44 58 13 60

functional_1/batch_normalization_7/FusedBatchNormV3;functional_1/depthwise_conv2d_3/depthwise;functional_1/depthwise_conv2d_3/BiasAdd;functional_1/conv2d_4/Conv2D;functional_1/depthwise_conv2d_3/BiasAdd/ReadVariableOp/resource i1 [1, 3, 3, 64]
000000 66 7f 76 88 95 81 63 81 7f cc 39 e1 92 87 d7 94
       102 127 118 -120 -107 -127 99 -127 127 -52 57 -31 -110 -121 -41 -108
000010 b3 81 92 98 c4 db 5d ab 31 81 d8 97 32 6e 39 d3
       -77 -127 -110 -104 -60 -37 93 -85 49 -127 -40 -105 50 110 57 -45
000020 d6 ca 7c 44 67 5e 68 3f b3 81 9a 99 90 35 7f ff
       -42 -54 124 68 103 94 104 63 -77 -127 -102 -103 -112 53 127 -1
000030 69 7f d3 9f 4c 3a 5b 7f 57 bf bb 81 9c 8d 77 77
       105 127 -45 -97 76 58 91 127 87 -65 -69 -127 -100 -115 119 119
000040 6b 2c 3f 81 96 b9 64 9e 20 94 54 c4 81 8d 81 81
       107 44 63 -127 -106 -71 100 -98 32 -108 84 -60 -127 -115 -127 -127
000050 c9 ab ce 2d f0 c1 40 81 29 aa 9e bf 81 e5 4b 99
       -55 -85 -50 45 -16 -63 64 -127 41 -86 -98 -65 -127 -27 75 -103
000060 d3 81 5b 1f 6a 7c 66 51 ae 5f ea 98 81 72 54 b5
       -45 -127 91 31 106 124 102 81 -82 95 -22 -104 -127 114 84 -75
000070 7a 7a 7f ac 7f f7 4d 58 4d 96 bb 84 9f 55 74 7f
       122 122 127 -84 127 -9 77 88 77 -106 -69 -124 -97 85 116 127
000080 7f 18 7b 0a 81 3d 45 bc c3 bc 5f ae bc 92 29 a3
       127 24 123 10 -127 61 69 -68 -61 -68 95 -82 -68 -110 41 -93
000090 81 8f b0 56 a5 f3 31 b4 1f 81 81 b6 4f 81 7f fb
       -127 -113 -80 86 -91 -13 49 -76 31 -127 -127 -74 79 -127 127 -5
0000a0 f1 da 43 f2 7f 6e 50 59 c0 b7 81 d3 b5 7f 71 dd
       -15 -38 67 -14 127 110 80 89 -64 -73 -127 -45 -75 127 113 -35
0000b0 7f 51 d8 c0 78 c0 65 db 60 dc 81 cd de 23 7f 48
       127 81 -40 -64 120 -64 101 -37 96 -36 -127 -51 -34 35 127 72
0000c0 0a 5f 1d b5 d1 fb 03 b3 19 ce 08 c5 18 c5 ac f1
       10 95 29 -75 -47 -5 3 -77 25 -50 8 -59 24 -59 -84 -15
0000d0 02 d5 cf 81 c1 b2 4a 26 e0 dc d1 e9 14 12 10 ca
       2 -43 -49 -127 -63 -78 74 38 -32 -36 -47 -23 20 18 16 -54
0000e0 d2 02 1e 57 10 08 10 2f e3 d4 d9 10 c7 15 21 11
       -46 2 30 87 16 8 16 47 -29 -44 -39 16 -57 21 33 17
0000f0 16 21 f7 da f8 1f d1 19 10 dd ee 0e 0e 81 fd 1e
       22 33 -9 -38 -8 31 -47 25 16 -35 -18 14 14 -127 -3 30

functional_1/dense/MatMul i1 [12, 64] scale=0.008385755 zero_point=0
000000 b0 da d9 2b 06 05 f1 23 fa 28 b9 42 e2 d7 25 25
       -0.6708604 -0.3186587 -0.32704446 0.36058748 0.05031453 0.041928776 -0.12578633 0.29350144 -0.05031453 0.3354302 -0.5953886 0.5534598 -0.25157267 -0.34381595 0.31027293 0.31027293
000010 bb dc ba 13 17 f5 b0 da cf 15 aa 10 f0 34 57 e7
       -0.5786171 -0.30188718 -0.5870029 0.15932935 0.19287238 -0.09224331 -0.6708604 -0.3186587 -0.410902 0.17610085 -0.72117496 0.13417208 -0.13417208 0.43605927 0.7295607 -0.20964387
000020 0a e9 23 f7 f9 24 e4 af d2 d7 07 a4 f6 54 2b bd
       0.08385755 -0.19287238 0.29350144 -0.075471796 -0.058700286 0.30188718 -0.23480114 -0.6792462 -0.38574475 -0.34381595 0.058700286 -0.7714895 -0.08385755 0.7044034 0.36058748 -0.5618456
000030 a7 e3 2f d4 50 b6 b8 d7 b4 17 2c e2 3c ec df 20
       -0.7463322 -0.24318689 0.3941305 -0.36897323 0.6708604 -0.62054586 -0.60377437 -0.34381595 -0.6373174 0.19287238 0.36897323 -0.25157267 0.50314534 -0.1677151 -0.2767299 0.26834416
000040 0c 41 e2 da 24 ee 10 d6 3f c7 1e f3 1a cd 1d f0
       0.10062906 0.5450741 -0.25157267 -0.3186587 0.30188718 -0.15094359 0.13417208 -0.3522017 0.52830255 -0.47798803 0.25157267 -0.10901482 0.21802963 -0.42767352 0.24318689 -0.13417208
000050 bc bd d1 20 30 be 03 e7 ae f2 b8 ed e1 dd 1a b0
       -0.5702313 -0.5618456 -0.3941305 0.26834416 0.40251625 -0.5534598 0.025157265 -0.20964387 -0.6876319 -0.11740057 -0.60377437 -0.15932935 -0.25995842 -0.29350144 0.21802963 -0.6708604
000060 ad 3b d3 20 d5 0d 14 38 d7 36 ec ba 2e fb 2b d2
       -0.6960177 0.49475956 -0.37735897 0.26834416 -0.36058748 0.10901482 0.1677151 0.4696023 -0.34381595 0.4528308 -0.1677151 -0.5870029 0.38574475 -0.041928776 0.36058748 -0.38574475
000070 0a dd c0 db d8 eb cb ef dc 38 45 da 1d b1 1a 19
       0.08385755 -0.29350144 -0.5366883 -0.31027293 -0.3354302 -0.17610085 -0.444445 -0.14255783 -0.30188718 0.4696023 0.5786171 -0.3186587 0.24318689 -0.66247463 0.21802963 0.20964387
000080 36 dd 19 cc 0e e0 23 be d1 f6 f2 c7 38 21 b7 c1
       0.4528308 -0.29350144 0.20964387 -0.43605927 0.11740057 -0.26834416 0.29350144 -0.5534598 -0.3941305 -0.08385755 -0.11740057 -0.47798803 0.4696023 0.2767299 -0.61216015 -0.52830255
000090 4c 39 33 b5 18 3d 3c 0a 3e ee c3 d9 09 ba 09 df
       0.6373174 0.47798803 0.42767352 -0.62893164 0.20125812 0.51153105 0.50314534 0.08385755 0.51991683 -0.15094359 -0.51153105 -0.32704446 0.075471796 -0.5870029 0.075471796 -0.2767299
0000a0 2a 2c ce f7 0d f6 c7 1d 1a ab d6 c8 c3 f5 bc ed
       0.3522017 0.36897323 -0.41928774 -0.075471796 0.10901482 -0.08385755 -0.47798803 0.24318689 0.21802963 -0.7127892 -0.3522017 -0.4696023 -0.51153105 -0.09224331 -0.5702313 -0.15932935
0000b0 b1 45 e3 d4 c8 08 1d fc c5 ad bd 23 ce 44 c5 ef
       -0.66247463 0.5786171 -0.24318689 -0.36897323 -0.4696023 0.06708604 0.24318689 -0.03354302 -0.49475956 -0.6960177 -0.5618456 0.29350144 -0.41928774 0.5702313 -0.49475956 -0.14255783
0000c0 e7 1f d2 c9 34 da c4 13 0c f6 d4 cc 37 04 d1 eb
       -0.20964387 0.25995842 -0.38574475 -0.46121654 0.43605927 -0.3186587 -0.50314534 0.15932935 0.10062906 -0.08385755 -0.36897323 -0.43605927 0.46121654 0.03354302 -0.3941305 -0.17610085
0000d0 bc 35 ea 02 2d d2 d8 3a bd bf ca c8 16 cf e0 cb
       -0.5702313 0.444445 -0.18448661 0.01677151 0.37735897 -0.38574475 -0.3354302 0.48637378 -0.5618456 -0.5450741 -0.4528308 -0.4696023 0.18448661 -0.410902 -0.26834416 -0.444445
0000e0 d9 33 30 cc 3d 27 df f7 da bf a9 ce 46 e2 39 ed
       -0.32704446 0.42767352 0.40251625 -0.43605927 0.51153105 0.32704446 -0.2767299 -0.075471796 -0.3186587 -0.5450741 -0.7295607 -0.41928774 0.5870029 -0.25157267 0.47798803 -0.15932935
0000f0 f4 fd 10 dc e1 de d2 f4 e4 36 e2 2a cb f6 e4 3d
       -0.10062906 -0.025157265 0.13417208 -0.30188718 -0.25995842 -0.28511566 -0.38574475 -0.10062906 -0.23480114 0.4528308 -0.25157267 0.3522017 -0.444445 -0.08385755 -0.23480114 0.51153105

functional_1/conv2d/Conv2D i1 [64, 10, 4, 1]
000000 fa 13 f5 12 53 15 d1 e7 7f 3b ce 2c 1d dd 1e 6e
       -6 19 -11 18 83 21 -47 -25 127 59 -50 44 29 -35 30 110
000010 d0 ab 42 22 bf f2 0b a4 b4 13 f0 b4 ba fd 11 11
       -48 -85 66 34 -65 -14 11 -92 -76 19 -16 -76 -70 -3 17 17
000020 06 0c 11 df 29 12 12 d1 10 3b 46 9e e8 0d 79 c2
       6 12 17 -33 41 18 18 -47 16 59 70 -98 -24 13 121 -62
000030 ce f4 7f e3 cd 8d 45 2e ba e9 f3 37 fe cf cf 2e
       -50 -12 127 -29 -51 -115 69 46 -70 -23 -13 55 -2 -49 -49 46
000040 0f f5 bc 28 34 12 a7 fb 57 22 9b 00 10 15 be 41
       15 -11 -68 40 52 18 -89 -5 87 34 -101 0 16 21 -66 65
000050 12 81 1f 4b bc d9 e6 17 d7 de bd 53 a4 08 f3 27
       18 -127 31 75 -68 -39 -26 23 -41 -34 -67 83 -92 8 -13 39
000060 f4 1b e7 bc f9 5e 32 a0 fd 49 46 96 37 35 3c 10
       -12 27 -25 -68 -7 94 50 -96 -3 73 70 -106 55 53 60 16
000070 f0 fb 38 e2 2d ec f4 0f 10 0d 12 0a 3d 1e 3f 3b
       -16 -5 56 -30 45 -20 -12 15 16 13 18 10 61 30 63 59
000080 28 43 eb f4 03 25 b8 ba c5 0a f9 90 81 b1 ea c8
       40 67 -21 -12 3 37 -72 -70 -59 10 -7 -112 -127 -79 -22 -56
000090 e7 bc eb f9 14 d8 e3 1c 3b ee 0c 7c 32 08 23 33
       -25 -68 -21 -7 20 -40 -29 28 59 -18 12 124 50 8 35 51
0000a0 dd db be 04 f4 0d c5 3a fa 0d b8 4d 03 c8 f0 0d
       -35 -37 -66 4 -12 13 -59 58 -6 13 -72 77 3 -56 -16 13
0000b0 e3 96 14 f1 fc 81 e3 2e 3a 3b e7 2f 23 40 36 1e
       -29 -106 20 -15 -4 -127 -29 46 58 59 -25 47 35 64 54 30
0000c0 f4 5e 54 c8 fc f4 45 c9 23 ef f3 ee 37 00 ae 01
       -12 94 84 -56 -4 -12 69 -55 35 -17 -13 -18 55 0 -82 1
0000d0 f3 12 b8 32 fc fe 97 10 ce 13 be 61 e2 f0 f5 69
       -13 18 -72 50 -4 -2 -105 16 -50 19 -66 97 -30 -16 -11 105
0000e0 cf f2 1d 7f d6 ce fc 72 cf 34 1d 39 f5 12 30 13
       -49 -14 29 127 -42 -50 -4 114 -49 52 29 57 -11 18 48 19
0000f0 23 eb ff f9 1e ff 14 0a 31 1d f6 23 20 f8 d8 1b
       35 -21 -1 -7 30 -1 20 10 49 29 -10 35 32 -8 -40 27

functional_1/conv2d_1/Conv2D i1 [64, 1, 1, 64]
000000 35 b1 03 02 de 4e e2 00 bf ee ff 09 f6 5a 17 f5
       53 -79 3 2 -34 78 -30 0 -65 -18 -1 9 -10 90 23 -11
000010 cc d5 53 f2 19 09 c4 9a 18 31 f5 d2 1c ce a0 12
       -52 -43 83 -14 25 9 -60 -102 24 49 -11 -46 28 -50 -96 18
000020 27 0d be 53 38 6e fe 25 dc 19 e0 0e d8 fb c9 da
       39 13 -66 83 56 110 -2 37 -36 25 -32 14 -40 -5 -55 -38
000030 c4 cb 9f 42 4a f8 28 16 81 08 9c 33 a1 e6 ea d5
       -60 -53 -97 66 74 -8 40 22 -127 8 -100 51 -95 -26 -22 -43
000040 f2 fa fd 2c 05 d9 ab de 24 cc ef 43 f6 f0 dd 5c
       -14 -6 -3 44 5 -39 -85 -34 36 -52 -17 67 -10 -16 -35 92
000050 01 1e c5 04 a6 47 1c 16 3f b8 33 c3 48 0b 12 07
       1 30 -59 4 -90 71 28 22 63 -72 51 -61 72 11 18 7
000060 22 e2 4e 43 12 45 0d 7f 22 db 4d fe 43 d6 22 71
       34 -30 78 67 18 69 13 127 34 -37 77 -2 67 -42 34 113
000070 e5 cc 09 b3 d5 d2 24 ea 37 23 1c ea 5f 9d 3d 09
       -27 -52 9 -77 -43 -46 36 -22 55 35 28 -22 95 -99 61 9
000080 26 2d 26 88 0d d8 1d a3 c2 1d 35 dc 43 d9 29 a9
       38 45 38 -120 13 -40 29 -93 -62 29 53 -36 67 -39 41 -87
000090 4c fb d9 3e 5c c7 fc d7 f9 c0 9c 0a 1d ea 45 0a
       76 -5 -39 62 92 -57 -4 -41 -7 -64 -100 10 29 -22 69 10
0000a0 d6 af 1a 55 21 81 1c de da bd df 06 1a 04 29 ff
       -42 -81 26 85 33 -127 28 -34 -38 -67 -33 6 26 4 41 -1
0000b0 ea 5a 09 58 be a4 08 00 ff cc 0c f8 3a 01 06 4c
       -22 90 9 88 -66 -92 8 0 -1 -52 12 -8 58 1 6 76
0000c0 f6 fe 3c 14 22 f2 03 7e 19 2b 22 eb ea ae d1 af
       -10 -2 60 20 34 -14 3 126 25 43 34 -21 -22 -82 -47 -81
0000d0 d1 c3 b7 c3 7f b5 07 94 e2 32 9b f4 2c cd 5f 5d
       -47 -61 -73 -61 127 -75 7 -108 -30 50 -101 -12 44 -51 95 93
0000e0 e8 8a 0c e8 43 be b4 04 0a 38 03 07 13 05 32 61
       -24 -118 12 -24 67 -66 -76 4 10 56 3 7 19 5 50 97
0000f0 f7 b5 e2 d4 e5 43 df f8 8b 95 a9 da 0f 1b 7d 2e
       -9 -75 -30 -44 -27 67 -33 -8 -117 -107 -87 -38 15 27 125 46

functional_1/conv2d_2/Conv2D i1 [64, 1, 1, 64]
000000 c4 0c fc c5 29 b6 e1 01 c2 fb db 25 e6 26 2d f8
       -60 12 -4 -59 41 -74 -31 1 -62 -5 -37 37 -26 38 45 -8
000010 b0 01 eb 0f 54 1a e4 f3 2e 06 29 d6 3d 1f 81 83
       -80 1 -21 15 84 26 -28 -13 46 6 41 -42 61 31 -127 -125
000020 d6 38 da 2d fd 3c 33 e2 18 01 be 4a c9 2a dc db
       -42 56 -38 45 -3 60 51 -30 24 1 -66 74 -55 42 -36 -37
000030 be 1e 1d 1b f2 e4 ff e8 bd f8 e7 1e ab b0 f8 f8
       -66 30 29 27 -14 -28 -1 -24 -67 -8 -25 30 -85 -80 -8 -8
000040 02 12 c5 f9 31 c9 a6 c5 cf 5c 4b 37 ea ef d7 fe
       2 18 -59 -7 49 -55 -90 -59 -49 92 75 55 -22 -17 -41 -2
000050 7f d9 6f 58 21 00 98 1c 06 60 25 d4 44 e2 32 f2
       127 -39 111 88 33 0 -104 28 6 96 37 -44 68 -30 50 -14
000060 7f 81 41 bc e5 ef f6 2c 3c 17 0d 05 45 30 3d fd
       127 -127 65 -68 -27 -17 -10 44 60 23 13 5 69 48 61 -3
000070 c1 e6 04 05 44 db fd 3b 0a 57 1c 63 ed 05 3e 2e
       -63 -26 4 5 68 -37 -3 59 10 87 28 99 -19 5 62 46
000080 c6 1b 60 ad d7 31 07 ab 81 44 69 dd ea cb 2a 14
       -58 27 96 -83 -41 49 7 -85 -127 68 105 -35 -22 -53 42 20
000090 5d 1a f9 15 f9 4f ea fa f9 e6 13 bf ff b0 2a 0a
       93 26 -7 21 -7 79 -22 -6 -7 -26 19 -65 -1 -80 42 10
0000a0 c9 2b f8 e1 7e b2 32 a3 fa e3 4f 15 04 01 f1 f8
       -55 43 -8 -31 126 -78 50 -93 -6 -29 79 21 4 1 -15 -8
0000b0 20 7d 4e 53 ee 01 10 32 d9 2a d3 1a f4 f9 3a e0
       32 125 78 83 -18 1 16 50 -39 42 -45 26 -12 -7 58 -32
0000c0 b8 f6 23 1c fd 4c e8 3d 0c 48 9f 89 49 e8 e3 cc
       -72 -10 35 28 -3 76 -24 61 12 72 -97 -119 73 -24 -29 -52
0000d0 31 40 e6 18 66 ed f9 fb 01 01 33 2d 42 09 41 c5
       49 64 -26 24 102 -19 -7 -5 1 1 51 45 66 9 65 -59
0000e0 f3 d6 b7 b7 7f 03 08 06 2f 3c ef 4e 59 f7 64 dd
       -13 -42 -73 -73 127 3 8 6 47 60 -17 78 89 -9 100 -35
0000f0 a5 16 0f e7 df 3b e1 f0 2b 0e 32 41 e1 4c 40 16
       -91 22 15 -25 -33 59 -31 -16 43 14 50 65 -31 76 64 22

functional_1/conv2d_3/Conv2D i1 [64, 1, 1, 64]
000000 06 19 0e 31 e3 26 a3 0f da b2 73 f2 32 81 fd b6
       6 25 14 49 -29 38 -93 15 -38 -78 115 -14 50 -127 -3 -74
000010 0f 02 fc fb 17 13 0a b4 f5 09 e3 f3 4c 2a f7 c0
       15 2 -4 -5 23 19 10 -76 -11 9 -29 -13 76 42 -9 -64
000020 d5 a0 d0 cf 4f 0b 40 18 0c 20 d7 04 dc 51 f5 15
       -43 -96 -48 -49 79 11 64 24 12 32 -41 4 -36 81 -11 21
000030 ed 34 f4 b7 4e b9 ef d9 04 c5 f9 e1 0c 9f 07 28
       -19 52 -12 -73 78 -71 -17 -39 4 -59 -7 -31 12 -97 7 40
000040 51 12 a0 97 f9 ef 1a da 16 1a 11 19 21 52 2b 47
       81 18 -96 -105 -7 -17 26 -38 22 26 17 25 33 82 43 71
000050 d4 0f ea 0c 81 4b 3a f8 ec 16 0a d4 dc d9 2e 1e
       -44 15 -22 12 -127 75 58 -8 -20 22 10 -44 -36 -39 46 30
000060 ef 27 61 38 23 66 11 0f e5 d1 b0 d5 ed cd 24 3c
       -17 39 97 56 35 102 17 15 -27 -47 -80 -43 -19 -51 36 60
000070 4b 47 12 7f 7a 2c c5 bb 0b f2 57 e7 2f 26 ca 2f
       75 71 18 127 122 44 -59 -69 11 -14 87 -25 47 38 -54 47
000080 f8 d1 d7 d8 3e f9 9b f5 bd f5 fb e1 d4 f3 61 3b
       -8 -47 -41 -40 62 -7 -101 -11 -67 -11 -5 -31 -44 -13 97 59
000090 04 42 ef 42 e6 42 c3 cc 2a 22 7f 54 53 23 65 21
       4 66 -17 66 -26 66 -61 -52 42 34 127 84 83 35 101 33
0000a0 40 95 2c d4 3b fe 29 bf 0d 16 d4 c2 cb 2d e7 06
       64 -107 44 -44 59 -2 41 -65 13 22 -44 -62 -53 45 -25 6
0000b0 c7 40 18 f2 00 3d 1d fc b9 08 ad 34 eb db bd ee
       -57 64 24 -14 0 61 29 -4 -71 8 -83 52 -21 -37 -67 -18
0000c0 58 e6 ec 03 3d 4f d8 ef f0 cb 2b eb 1f f4 ff 98
       88 -26 -20 3 61 79 -40 -17 -16 -53 43 -21 31 -12 -1 -104
0000d0 dd c2 db 5b 0f bd 5a 0a 19 13 d7 06 c4 43 cd bb
       -35 -62 -37 91 15 -67 90 10 25 19 -41 6 -60 67 -51 -69
0000e0 e1 fe d0 22 1d 7f 35 17 08 d4 f7 04 d2 18 44 9f
       -31 -2 -48 34 29 127 53 23 8 -44 -9 4 -46 24 68 -97
0000f0 f8 0f 19 ea c3 c5 14 e7 c5 d3 34 fe 1c 06 d9 02
       -8 15 25 -22 -61 -59 20 -25 -59 -45 52 -2 28 6 -39 2

functional_1/conv2d_4/Conv2D i1 [64, 1, 1, 64]
000000 50 e5 ff 24 a9 eb 65 39 db 5e 24 ff ee 14 f0 0a
       80 -27 -1 36 -87 -21 101 57 -37 94 36 -1 -18 20 -16 10
000010 d7 05 1a da ff 52 eb fa 02 f2 d7 db 20 0e 52 0d
       -41 5 26 -38 -1 82 -21 -6 2 -14 -41 -37 32 14 82 13
000020 24 bb b7 f2 d6 ea 01 0f ee 1a 08 ee 47 08 c3 40
       36 -69 -73 -14 -42 -22 1 15 -18 26 8 -18 71 8 -61 64
000030 02 11 0a 2e 12 0b 7f ea e5 d4 e6 32 9f 09 d2 da
       2 17 10 46 18 11 127 -22 -27 -44 -26 50 -97 9 -46 -38
000040 02 e7 b8 e1 f6 3d df 18 14 e9 7f 07 1a ff 10 22
       2 -25 -72 -31 -10 61 -33 24 20 -23 127 7 26 -1 16 34
000050 99 ed e0 20 fe 13 30 cb d4 0a cb 44 37 27 db a6
       -103 -19 -32 32 -2 19 48 -53 -44 10 -53 68 55 39 -37 -90
000060 01 f8 ca dd c5 e4 e5 10 e1 3a d8 33 0b d6 dc 0d
       1 -8 -54 -35 -59 -28 -27 16 -31 58 -40 51 11 -42 -36 13
000070 f9 64 ef f5 2b 3b e5 ee 3d 28 1b e4 f2 14 2b fa
       -7 100 -17 -11 43 59 -27 -18 61 40 27 -28 -14 20 43 -6
000080 34 bd 53 70 13 e1 6f 3b 18 23 c0 cc 35 5b f0 b1
       52 -67 83 112 19 -31 111 59 24 35 -64 -52 53 91 -16 -79
000090 fb 67 30 df 18 5a c2 d2 32 ed 87 a9 05 df 79 7f
       -5 103 48 -33 24 90 -62 -46 50 -19 -121 -87 5 -33 121 127
0000a0 ef 04 fb 10 c4 fd 5a c8 32 0d 4f ba a9 e2 15 6b
       -17 4 -5 16 -60 -3 90 -56 50 13 79 -70 -87 -30 21 107
0000b0 ef 0b f1 48 04 fa 0f c2 2c d4 81 1d e3 e0 d1 36
       -17 11 -15 72 4 -6 15 -62 44 -44 -127 29 -29 -32 -47 54
0000c0 a8 f3 55 fb 5c 2b df 22 69 ed dd 0d c6 ba f5 fc
       -88 -13 85 -5 92 43 -33 34 105 -19 -35 13 -58 -70 -11 -4
0000d0 b8 da e7 17 f6 01 e6 cd f2 d6 24 3a bc 05 ea f5
       -72 -38 -25 23 -10 1 -26 -51 -14 -42 36 58 -68 5 -22 -11
0000e0 20 e1 0b 0c 18 f3 0b 15 33 ea 0c c5 ee e4 7f 01
       32 -31 11 12 24 -13 11 21 51 -22 12 -59 -18 -28 127 1
0000f0 f0 fd ef f6 28 1b d8 fc d9 0d 49 ee 02 25 f7 29
       -16 -3 -17 -10 40 27 -40 -4 -39 13 73 -18 2 37 -9 41
