static/img/docs/tlc-pack/web-data/main/testdata/microTVM/model/keyword_spotting_fp32.tflite (tflite, 43392 bytes, 20 tensors)

functional_1/dense/BiasAdd/ReadVariableOp/resource f4 [12]
00000000: f2a1 55bd 0900 31bc e398 34bd ed94 73bd
00000010: 36dc a5bb 9723 7dbd 7939 0bbe 07a2 b03c
00000020: 9e88 2ebd 2610 d0bd 6dca ecbc 11b0 eb3d
-0.052156396 -0.010803231 -0.044091117 -0.0594682 -0.0050616516 -0.06180152 -0.13596143 0.021561636
-0.042610757 -0.1015933 -0.028905118 0.115081914

functional_1/activation/Relu;functional_1/batch_normalization/FusedBatchNormV3;functional_1/conv2d/BiasAdd/ReadVariableOp/resource;functional_1/conv2d/BiasAdd;functional_1/conv2d_4/Conv2D;functional_1/conv2d/Conv2D f4 [64]
00000000: 4903 03be f7e0 39be c4cc 233d 31d8 8dbe
00000010: 1087 a7bc 360c 9d3c 2d1d 8d3d b706 04be
00000020: b551 c7bd 3eed 4c3b 31f1 9a3d 3160 083d
00000030: 159b 67bc 1a90 39be 9629 82bd ccd1 1dbd
00000040: fda7 b1be b99a 323d 5584 d5bd 5811 183c
00000050: 62f4 6d3c 097d 2b3e 11d6 a33c 9edc 303d
00000060: 0022 993d f713 4abe c7cd e2bc 868e 09bd
00000070: e356 67be 574e bc3d 6ccc 8ebc 46f0 bebd
00000080: e425 e43c 01cf 79be af60 25bd 1fb1 4d3e
00000090: ad8a 6aba 42d2 a9bd 4044 883e 99c4 b7bd
000000a0: abb7 abbd c5a1 453b 49e6 043e b8eb a23d
000000b0: 6a21 94bb 8ee1 143e ee8b 4abe 17d9 ffbd
000000c0: 0dc9 7ebd 843c 963d 6c75 b83c 2a41 cdbd
000000d0: 5104 aa3d 4608 55be 783c a4be 5a91 72be
000000e0: df85 163c a3a9 823d b7d8 5ebd f6c9 e4bd
000000f0: 2c2f aa3d cf47 9b3d 5302 4dbd a652 a7bd
-0.12794222 -0.18152224 0.0399902 -0.27704003 -0.020450145 0.019170862 0.068903305 -0.12893187
-0.09732381 0.0031269337 0.07565535 0.03329486 -0.0141360955 -0.18121377 -0.06355588 -0.038530156
-0.34698477 0.043604586 -0.10425631 0.009281479 0.014523597 0.16746916 0.019999536 0.043179147
0.07477188 -0.19734178 -0.027686013 -0.033583187 -0.22591738 0.0919463 -0.01743146 -0.09323172
0.027850099 -0.24395372 -0.040375408 0.20087098 -0.0008947056 -0.082920566 0.2661457 -0.08973045
-0.08384641 0.0030156237 0.12978472 0.07955116 -0.004520585 0.14539167 -0.19779941 -0.124925785
-0.062203456 0.07335761 0.022516929 -0.10022195 0.083016045 -0.20803937 -0.32077384 -0.2368826
0.009187191 0.06380012 -0.054405894 -0.111713335 0.083097786 0.07582056 -0.050051045 -0.08170061

functional_1/activation_1/Relu;functional_1/batch_normalization_1/FusedBatchNormV3;functional_1/depthwise_conv2d/depthwise;functional_1/depthwise_conv2d/BiasAdd;functional_1/conv2d_4/Conv2D;functional_1/depthwise_conv2d/BiasAdd/ReadVariableOp/resource f4 [64]
00000000: 458f a13e a511 343f ccfb ef3e 13df 1ebd
00000010: 7238 a33e 0cb1 48be fee3 5d3e 8fb3 343f
00000020: b073 1fbc 606a 463b 54b2 8e3d 6758 2d3d
00000030: 48f9 5c3d 7359 2a3e 7534 153e f546 bf3d
00000040: a5bd d0bd 06a4 003f 3c17 ee3b f6cc 0e3d
00000050: be6c 783e 97da fc3e bead 4abe aa7c 9dbe
00000060: 4d48 063f 2b98 153e e744 063f ec65 aabc
00000070: f80b a13c 9836 853c 890d 753d 6797 d83e
00000080: 6527 37be b2f0 56be 9860 ee3d ad95 033f
00000090: 942d 3e3e a822 a43e f496 5d3f 9c48 013f
000000a0: c867 3ebc 8ca6 a0bd 60ce 44be be06 9b3e
000000b0: 10f6 f13c be8e 3c3e c255 483f 442e 253f
000000c0: a5d5 4dbe d192 053e 747d 7a3e 2063 6c3b
000000d0: 1967 a43e 46c4 cd3d 0e5e 15bd 7091 103d
000000e0: 3b9f 2b3e 26a1 543e 805b 353c cba6 363f
000000f0: 3195 d53e 9682 d03e 62d4 b83e 5c2f 31bc
0.31554618 0.70339423 0.46871793 -0.03878696 0.31879002 -0.19598788 0.21669003 0.70586485
-0.009732172 0.0030275807 0.06967607 0.042320635 0.05394867 0.16635685 0.14570792 0.09339706
-0.10192422 0.5025028 0.0072659533 0.034863435 0.24260232 0.4938552 -0.1979284 -0.30759174
0.5245407 0.14608829 0.52448887 -0.020800553 0.019659027 0.016261384 0.05982736 0.4230301
-0.17886122 -0.20990255 0.116395175 0.5140026 0.18572074 0.3205769 0.8655846 0.5050142
-0.011621423 -0.07844266 -0.19219351 0.3027858 0.029536277 0.18413827 0.78255856 0.6452372
-0.2010103 0.13044287 0.24461919 0.0036069825 0.32109907 0.10047202 -0.03646665 0.03529495
0.1675996 0.20764598 0.011069179 0.71348256 0.41715387 0.4072463 0.36099535 -0.010814514

functional_1/batch_normalization_1/FusedBatchNormV3;functional_1/depthwise_conv2d/depthwise;functional_1/depthwise_conv2d/BiasAdd;functional_1/conv2d_4/Conv2D;functional_1/depthwise_conv2d/BiasAdd/ReadVariableOp/resource f4 [1, 3, 3, 64]
00000000: 4a92 b73e 78a6 653b 16fc 15bf ca34 0bbf
00000010: 73ff c93e 7486 24bf f30c b8bd 5f62 bfbe
00000020: 7e1f a13f 931d 2cbf 3a95 91be 2c18 12bf
00000030: 0a14 47bf 9ec4 053f 7344 80be feea 153d
00000040: 0d23 d0be 9482 a13e 4dae 333f cc69 1ebf
00000050: 7bf4 813f d345 a3bd 0225 673f 4167 f3be
00000060: 2570 6abf d3c7 e53e f1db c63e 3629 6abf
00000070: 6f37 e7be 303a f1be 1663 cabd 81f4 cf3e
00000080: 7404 63be 8bb7 c8bd 5701 74be 2698 23bd
00000090: 1c4b 3fbf 3ac3 28bd e8cd 81bd 23e6 d9bd
000000a0: 86d8 57bf 0301 cb3e 9647 0540 c2bf 753e
000000b0: 23e0 04bf b452 f3bc 76f6 e2be e594 bebe
000000c0: b29f 48bf 7754 373e f2ab b33e cfa0 cb3d
000000d0: 93c0 5fbf 1a0a f43e 584f bf3e dfff 483f
000000e0: 19b7 143f 0c89 0b3f c5b9 6abe a0f1 35bf
000000f0: 88b7 a6be 5a93 54bf 6829 5dbf 35e9 f5be
00000100: a54e 9ebc 3419 fdbe 5cd4 953e 7d11 d13f
00000110: 7d3d cbbe d319 c73e f86b 08bf a239 06bf
00000120: c00d 06bf a06c 173f 94b0 88be 3292 1b3f
00000130: c5fc fe3e 2146 84be 2b6c 473e 401d 2abf
00000140: 715b 333e 9bea 813e 4b13 a9be d0c5 02bf
00000150: ed6f ac3e 5b37 713d 3462 82be 7714 96be
00000160: 8acc bd3e fc37 07be b2dc dd3e e6bd 493d
00000170: 5f2b 903f 5f65 083e bcf4 f83e 80ac 3fbf
00000180: 15a1 ca3d e288 ac3f 1fde 7d3e 4d9c f1bd
00000190: c9bf 1fbe 85ed 3fbd 485e 84be 1ec2 46bf
000001a0: 5723 543f 5952 a8bf cd18 74be 02b2 9c3d
000001b0: ffa4 18bd 5563 0fbf 240d 1abf 78b6 6abe
000001c0: f150 bd3c 1b00 a6bf 5e06 25bf 7d85 bf3e
000001d0: 83e5 63bf 8f5a 40bf af50 e13e b0e5 813d
000001e0: c2fe 99bd 0a17 76bf bdb4 f8bd 8b65 2ebe
000001f0: 7b3c a33e 1af5 983c 3bee cfbe 42ea f2be
00000200: 96b8 813e f02b 28bf 8e6c 33bf 6b48 d63c
00000210: 943f b83f bdcf 113e be85 9e3f 05dd a0bd
00000220: abd2 5fbf 95a6 d23e 6cd8 953f 053f 47bf
00000230: 3040 d8be ab07 5abf 797c 9dbe 29f1 583d
00000240: 9a4e 2d3f 85d1 d3bf feab d03f 6ca2 ce3e
00000250: 4223 f0bd 0389 1abe be3a c43e e301 073e
00000260: d997 b5be 35f6 84be 441d 32bf 4155 ad3f
00000270: 9e50 333f 42af c13e 8008 7e3f a5c8 90be
00000280: fd22 14bf 9ac6 663f d17f a6bd 9153 a1bf
00000290: 2fe5 83be ee29 e9be e2dd 5fbf a041 7a3e
000002a0: 7970 c33d 1464 583f 4659 27bf f78e 6ebf
000002b0: 7872 c03c b21e 353f 4cb9 103e 4086 00bf
000002c0: e97a d7bf 6c67 f8be 4a3b 9abf b3b2 eebf
000002d0: 3220 d73e 3f27 74bf 3862 eebe 3308 56bf
000002e0: 2ea1 c63f aeec 21bf 4bcd 3f3d 318b b1bd
000002f0: 814d 3fbf 53ea ca3e 2acb a0be 3834 e03f
00000300: 4b9a 14bf e1cc 99be 51ee e0be e652 2c3d
00000310: 972e 1fbf 064d e83f d652 37bf 3773 33bf
00000320: 4c71 34bf 1b65 1fbf 39a2 1cbf 83c2 2a3f
00000330: a90d b2bf 2dc2 133f 3b56 743e 66fa aabe
00000340: 5b2f 263f cbd9 3a3f 59ed f63e 645b de3f
00000350: 268a 483e 5705 bdbe 8530 94be 639b 903f
00000360: 02ef d9be 4a52 213f 9a69 2f3e 0230 873f
00000370: 6950 60bf c7b9 2abf 81a4 0cbf cb09 9c3e
00000380: 8fc9 9fbe d6fd 99bd 925b 95bf de15 6abe
00000390: d7aa 7abf efa3 423e bf59 823d f450 80be
000003a0: 6ce5 4ebf 2353 9f3e 357d 52bf 4c1b c13e
000003b0: 8b5c 823f a96a 74be c2af 7bbf b7b1 14bf
000003c0: f371 1c3f 998d 633e fdd0 56bd b085 8cbe
000003d0: 35b2 43bf 6b7a 1a3d cf23 573f f747 44bf
000003e0: 835e f03e 086b 1b3f 49ea 0b40 b227 b0be
000003f0: c956 503f a320 27bf 41ee 0dbf 6d8b dbbe
0.35853797 0.003504185 -0.5858778 -0.54377425 0.39452705 -0.6426766 -0.08986845 -0.3737974
1.2587736 -0.67232627 -0.28434163 -0.57068133 -0.7776495 0.5225314 -0.25052223 0.03660106
-0.40651742 0.31544936 0.70187837 -0.61880183 1.0152735 -0.07972302 0.90290844 -0.47539714
-0.9157737 0.44879016 0.38839677 -0.9146913 -0.4515948 -0.47114706 -0.098821804 0.4061623
-0.22169667 -0.09800633 -0.23828636 -0.039940022 -0.7472398 -0.041201808 -0.063381016 -0.10639598
-0.84314764 0.3964921 2.0824943 0.23998931 -0.51904505 -0.029702522 -0.4432866 -0.37222973
-0.78368676 0.17903315 0.3509212 0.09942781 -0.8740322 0.47663957 0.37365222 0.7851543
0.58091885 0.5450599 -0.22922428 -0.71071815 -0.32561898 -0.8303734 -0.86391306 -0.48029485
-0.01932461 -0.4943329 0.2926358 1.6333462 -0.3969535 0.3888689 -0.5328975 -0.5243169
-0.5236473 0.59150124 -0.26697218 0.6076995 0.49802223 -0.25834754 0.19474857 -0.6645088
0.17515351 0.25374302 -0.33022532 -0.5108309 0.33679143 0.05889068 -0.25465548 -0.29312488
0.37070113 -0.1320495 0.4333244 0.049253367 1.1263236 0.1331992 0.48624218 -0.7487259
0.09894005 1.3479273 0.24791764 -0.1179739 -0.15600504 -0.046857376 -0.2585318 -0.7763995
0.82866424 -1.315013 -0.23837586 0.0765114 -0.037266728 -0.56010944 -0.601763 -0.22921169
0.023109885 -1.2968782 -0.6446284 0.3740653 -0.8902208 -0.7513818 0.4400687 0.063426375
-0.07519294 -0.96128905 -0.12143848 -0.17030923 0.3188208 0.018671561 -0.40611443 -0.4744435
0.2533614 -0.65692043 -0.70087516 0.026157578 1.4394403 0.14239402 1.2384565 -0.07854656
-0.8743083 0.41142717 1.1706672 -0.77830535 -0.4223647 -0.8516795 -0.30759028 0.052964363
0.6769806 -1.6548315 1.6302488 0.40358293 -0.11725475 -0.15091328 0.38326067 0.13184313
-0.35467413 -0.2596909 -0.69575906 1.3541642 0.7004489 0.37829024 0.9923172 -0.2827808
-0.5786589 0.9014679 -0.08129848 -1.2603627 -0.2576079 -0.45539802 -0.8744794 0.24439096
0.09542937 0.8452771 -0.65370595 -0.931869 0.023492083 0.7074996 0.14133185 -0.5020485
-1.6834384 -0.48516405 -1.2049344 -1.8648285 0.4201675 -0.95372385 -0.4655931 -0.8360626
1.5517938 -0.6325177 0.046826642 -0.08669127 -0.74727637 0.396319 -0.31405002 1.7515936
-0.5804793 -0.30039123 -0.4393182 0.042071246 -0.62180465 1.8148506 -0.7161077 -0.7009768
-0.7048538 -0.6226365 -0.6118503 0.6670305 -1.3910419 0.57718164 0.2386102 -0.33394164
0.6491601 0.72988576 0.48227957 1.737164 0.1958395 -0.36918136 -0.28943267 1.129742
-0.4256516 0.6301619 0.17130128 1.0561526 -0.87622696 -0.66689724 -0.54938513 0.3047622
-0.31208465 -0.075191185 -1.166857 -0.22859904 -0.9791693 0.19007848 0.06364774 -0.25061762
-0.8081882 0.31118116 -0.822223 0.37716138 1.0184492 -0.23868813 -0.9831506 -0.5808367
0.6111137 0.22221984 -0.0524454 -0.27445745 -0.764438 0.037714403 0.84039015 -0.7667231
0.46947107 0.6071019 2.1861746 -0.34405285 0.81382424 -0.65284175 -0.5544167 -0.4287981

functional_1/activation_2/Relu;functional_1/batch_normalization_2/FusedBatchNormV3;functional_1/conv2d_1/BiasAdd/ReadVariableOp/resource;functional_1/conv2d_1/BiasAdd;functional_1/conv2d_4/Conv2D;functional_1/conv2d_1/Conv2D f4 [64]
00000000: 4c91 103f 5ccb 26bf d953 823e 80f5 b63e
00000010: 1053 553f d66e 0d3f 687a e1be 7a44 593f
00000020: dce9 34bd f256 dd3e a793 d33e 6268 d83e
00000030: 42c6 763f 9475 bc3d 076d 7f3f e5f7 d93e
00000040: 76b2 a53e b8af 243d dbe4 b03f d3e9 883e
00000050: c35b f93e b14f 533f 64c7 533f f56b f9be
00000060: a41b 003f 3936 083f a812 343f 58ea debe
00000070: 1ff1 f53d 84c3 09bd c6a3 cb3e dacd 4dbd
00000080: 5579 b83e 66d3 233c a864 403e 2f4f 2f3f
00000090: 6691 3a3f 16e1 bc3e a2ff c83e c274 48bf
000000a0: 680a 083f 63c3 dbbe cad6 3a3f 802b 103e
000000b0: a451 b53e cf63 f83e 18de a23e d591 82be
000000c0: 112d b83e cd83 a83e b6ac 303f c54b 6a3f
000000d0: 3841 d43e 6832 22be 56f2 443e fdfd bc3d
000000e0: c6db 433e 6485 2f3f 57cf 033f 48d9 863e
000000f0: f2f2 273e bd21 e0be 4237 f3bc daf4 9cbc
0.56471705 -0.6515405 0.25454596 0.35734177 0.8332987 0.5524725 -0.440387 0.8487011
-0.04416834 0.43230397 0.41323587 0.42267138 0.9639627 0.09202114 0.9977574 0.4257194
0.32362717 0.04020664 1.3819841 0.26740894 0.4870282 0.82543474 0.8272612 -0.48715177
0.50042176 0.5320774 0.7034097 -0.43538165 0.12008881 -0.033633724 0.39773387 -0.050245143
0.3603007 0.009999132 0.18788397 0.684802 0.7287811 0.36890477 0.39257532 -0.7830316
0.5314088 -0.42922506 0.7298399 0.14079094 0.3541385 0.48513648 0.3181007 -0.25501886
0.35971883 0.32913056 0.69013536 0.91521865 0.41456008 -0.15839541 0.19233069 0.09228132
0.19126806 0.6856291 0.5148825 0.26337647 0.1640127 -0.4377574 -0.029689435 -0.019159723

functional_1/activation_3/Relu;functional_1/batch_normalization_3/FusedBatchNormV3;functional_1/depthwise_conv2d_1/depthwise;functional_1/depthwise_conv2d_1/BiasAdd;functional_1/conv2d_4/Conv2D;functional_1/depthwise_conv2d_1/BiasAdd/ReadVariableOp/resource f4 [64]
00000000: 43e4 4bbf 008c 793f f386 2b3e e212 48bf
00000010: 74b1 89be d023 a73f b851 84be d072 8b3b
00000020: 0f78 49bf 2228 5a3f 2074 34bf 1576 c9be
00000030: 1b50 853e 01b7 8cbf 1605 2bbf ea5b 223e
00000040: 808d c7be 4609 a5bf 83dd 2ebf 9ab1 863f
00000050: 4c32 3ebe 756c c53f a688 0cbf 04fb df3e
00000060: 0901 63bf 698b 18bf 8243 e43e 4ec9 c7be
00000070: fac5 13bf 2e39 41bf e887 453f 544f 1fbc
00000080: 279b 8fbf cf0c f33d 0d64 e83e 46ba 23bf
00000090: ceaa 6f3f 44a6 203c 6eb8 05bf ff03 cbbe
000000a0: a8c0 e6be ae71 e1bd 7f78 8d3f a15c b0be
000000b0: 0b77 9c3f c7d9 04bf c242 5ebe 1155 90be
000000c0: 8264 c3be 46f6 cfbe e5ec 923f fe0e 9bbe
000000d0: 14d5 943f fa7b 933f 33ac 4f3f ffdf 5abe
000000e0: 9333 3cbf de22 ae3e 5734 1a3e 1467 ad3f
000000f0: 63d8 0abf b7a9 443f 82cc 76be f43e 8b3f
-0.79645175 0.9747925 0.16750698 -0.7815381 -0.26893198 1.3057804 -0.25843596 0.00425563
-0.7869882 0.8521749 -0.7048969 -0.39347902 0.26037678 -1.0993348 -0.66804636 0.15855375
-0.38975143 -1.2893455 -0.6830675 1.052295 -0.18573874 1.5423723 -0.5489601 0.43746197
-0.88673455 -0.59587723 0.44582754 -0.3902077 -0.57723963 -0.75477874 0.771605 -0.009723503
-1.1219224 0.118676774 0.45388833 -0.63956106 0.9362 0.009805266 -0.5223454 -0.39651486
-0.4506886 -0.11008011 1.1052397 -0.3444567 1.2223829 -0.518948 -0.21705154 -0.281899
-0.3816262 -0.4061758 1.1478544 -0.30284876 1.1627526 1.152221 0.8112213 -0.2137451
-0.73516196 0.34010977 0.15059029 1.3547082 -0.5423643 0.76821464 -0.24101451 1.0878587

functional_1/batch_normalization_3/FusedBatchNormV3;functional_1/depthwise_conv2d_1/depthwise;functional_1/depthwise_conv2d_1/BiasAdd;functional_1/conv2d_4/Conv2D;functional_1/depthwise_conv2d_1/BiasAdd/ReadVariableOp/resource f4 [1, 3, 3, 64]
00000000: 5bf4 123f 6274 f1be 9c80 5ebf 0cac 153f
00000010: f4b0 afbe 24c7 efbe 8c39 a3bc 334f 293f
00000020: 6613 c73d 1a5e 2ebf 5667 143f 8197 d13e
00000030: 4fa9 39be 9b32 0b3f 87cf 8f3f 3591 51bf
00000040: 8c70 0e3e a4fd 413f aaa4 563f 0339 8fbe
00000050: c376 f33e cbb7 51be 3390 103f ab85 d9bd
00000060: 65d7 af3c 0a9a d1bd e679 173f 2c37 b43d
00000070: 9f32 483f fb30 c2be 852a e2be 42f8 13be
00000080: 6b73 203e ff34 173f 280c 54bf 783f a63e
00000090: e511 5f3c 3bae 603e 3c53 1d3f 99cb 233f
000000a0: a5d5 78be 36c2 3ebd 4fbd 0dbf 350d f33e
000000b0: 4f87 64be 5e95 cc3e cfb4 cd3e fbed 0b3f
000000c0: 112b 58bd c970 163f ff2b 193f 41e5 d93d
000000d0: 6238 afbe d04d 883d 4a7c 07bf 5e7e ddbe
000000e0: fca2 df3e 3bd1 2d3f afa5 9fbf f477 c4be
000000f0: 53d4 ab3d 1da8 50be 19f2 163e 6f67 c1be
00000100: 0cdb 05bc af3d c4be e31f 143e 59ac 22bf
00000110: 9ae6 19bf 9a2e 483e 9eef 313e c1d7 bcbe
00000120: eb37 083f 4f20 f2be 058b 9e3e abf9 1f3f
00000130: 2f31 8cbe 9d29 5e3f 48c4 c3be a3db 8c3f
00000140: 6b28 4b3f 42aa 763e 78e3 863e d276 743d
00000150: 4d1c 0b3f a9ba 22bf 6a10 39be cbc6 033f
00000160: 8dda 7c3f 1b87 3cbd 9d0f 64bf dfd4 05bf
00000170: 2fed acbe bd4f 44be 9bfe 82be e93f 553f
00000180: 84a8 5d3f 95ec 38bf 1913 3c3f 7a0e 30bd
00000190: 8064 34be 648f 9ebe 97e3 7d3f aafb 123c
000001a0: 3171 19bf c06c a8bf a15e c0be 1078 893e
000001b0: 9695 53be a6d0 633f c296 6cbf 8a47 91bd
000001c0: 295f ef3e 0628 83be f296 38be 6001 8c3f
000001d0: 4dc0 81bf 0bd1 04be e178 1cbe 6234 6abe
000001e0: 4e93 0fbd 387a 85be 2d25 3bbe 3e00 adbd
000001f0: 8ab0 29be 3a32 92be fbf6 c23d d233 73bf
00000200: 8d94 7d3e 139a 89be b773 d13f 446e 273f
00000210: b417 543f 5746 cf3e b2bc d1be 139e 2a3f
00000220: a648 dd3c 841e 973d 2105 453f 701d 9dbe
00000230: 72a0 653f 926e b2bd bc66 0c3d ca7f 94be
00000240: 5179 0b3e 6966 803f fe0a 91be 6422 abbd
00000250: feb8 d0be f336 16c0 58da 4a3f 8fc3 c1be
00000260: d11f 093f 2e11 a4be 70f4 bdbe 788c 1a3e
00000270: 7168 adbe c463 14bf a133 66be cadc e4bb
00000280: 197c 98bf 9dbe d73c 78e1 3fbf cae4 0b3f
00000290: 8451 f73d 932b ebbd 76f4 5fbe 79fa 303e
000002a0: 6f25 78bf 66d6 16be fbf4 9abe d045 9ebe
000002b0: 78cf f2be e570 26bf ca7a 8d3d 214e 0abe
000002c0: 466d 66bf 3368 06be 66a2 b6bf 4f92 9bbe
000002d0: eabd 87be d39e c1be a806 36be a3c0 683f
000002e0: 7bac 98be eeb9 20be 0717 533e 1066 92bd
000002f0: 1208 0d3b 3bfd df3e 86d0 11be 4f46 22bf
00000300: d4fa 533f c7be 013e 49ef 6ebf ab45 f53e
00000310: 61f6 3abf 709e 5bbf 1eab 443e d4ef 1a3f
00000320: 14d5 b33e 8011 ccbe 7836 e73d 4fc9 dc3e
00000330: 9ac3 45bf 6cfa 013f 08fa 343f f385 dcbe
00000340: 0e6a ddbe f9aa 343f 345f 463f 1cb6 c6be
00000350: 1e3c c83e 85c2 9dbd 320d 263f 8a4e 1bbe
00000360: 9626 39bf d384 693e 6782 523f eea1 963e
00000370: 4ff9 643f fbda 883f 0ec2 25bf f27c 64be
00000380: ef35 1d3f 9d54 cb3e 1e76 f3be fd8b 66bc
00000390: f3de b4be 4cfa 2f3f 4662 c5bd 6875 0cbd
000003a0: 96cd e03e 8e1e 61bd 9a7c 80be 499a 893e
000003b0: 8bfc 20bf a47d c4be 1915 663f e97e 503f
000003c0: 9c2b 603f 4bd8 233f ca99 c1bb 4fad 8ebe
000003d0: 2c99 85bf 5645 d5be f338 1abf fb53 1bbe
000003e0: 6002 033f 4242 373f 88d0 dbbd 6dc1 a3bd
000003f0: 6376 e13e f52e 39bf 5a06 a7bd 7eff 08be
0.57404107 -0.47159106 -0.8691499 0.5846565 -0.34314692 -0.4683162 -0.019924901 0.66136473
0.09720497 -0.6811234 0.5797018 0.409359 -0.18130992 0.5437409 1.1235207 -0.81862193
0.1391012 0.7577765 0.8384501 -0.27973184 0.47551546 -0.20480268 0.5647003 -0.10621198
0.021465013 -0.10234459 0.5917038 0.08799586 0.7820224 -0.37927994 -0.44173065 -0.14450172
0.15669028 0.5906524 -0.8283105 0.32470298 0.013615106 0.21941464 0.6145513 0.6398254
-0.24300249 -0.046571933 -0.55366987 0.47471014 -0.22317241 0.39957708 0.40177009 0.54660004
-0.052775446 0.58765846 0.5983276 0.1063943 -0.34222704 0.066554666 -0.52924025 -0.43260473
0.43679035 0.67897385 -1.2472438 -0.38372767 0.08390107 -0.2037663 0.1474079 -0.37774226
-0.008169901 -0.3832831 0.14465289 -0.6354423 -0.60117495 0.19549027 0.17376563 -0.36883357
0.53210324 -0.47290275 0.30965438 0.6249034 -0.27381274 0.86782247 -0.38235688 1.1004528
0.7935855 0.24088386 0.2634542 0.05968363 0.5434006 -0.6356607 -0.18072668 0.5147521
0.9877098 -0.046027284 -0.89086324 -0.5227794 -0.33774707 -0.19171043 -0.25584874 0.83300644
0.8658526 -0.72235996 0.7346664 -0.042982556 -0.17616463 -0.30968773 0.991754 0.008971134
-0.5993834 -1.3158188 -0.37572196 0.26849413 -0.20662531 0.8899025 -0.9241754 -0.07093723
0.4675229 -0.25616473 -0.18026331 1.093792 -1.013681 -0.12970369 -0.15280487 -0.22871545
-0.03505259 -0.26069808 -0.182759 -0.08447312 -0.1657125 -0.28553945 0.09519764 -0.95000947
0.24763699 -0.26875362 1.6363438 0.65402627 0.8284867 0.40483353 -0.40964276 0.6664745
0.02701218 0.07378867 0.7696095 -0.30686522 0.89697945 -0.08712496 0.034277663 -0.29003745
0.13620497 1.0031253 -0.283287 -0.08356169 -0.40766138 -2.3471038 0.79239416 -0.37844512
0.53564173 -0.32044357 -0.37100554 0.15092647 -0.33868745 -0.5796473 -0.22480632 -0.006984328
-1.1912872 0.026336009 -0.74953413 0.5464598 0.12076095 -0.114829205 -0.21870598 0.17283048
-0.9693212 -0.14730224 -0.3026503 -0.30912638 -0.4742391 -0.65016013 0.06908186 -0.13506366
-0.9001049 -0.13125686 -1.426831 -0.30385062 -0.2651208 -0.37816486 -0.17775977 0.9091894
-0.29819092 -0.15695927 0.20614253 -0.07148373 0.0021519703 0.43747887 -0.14239702 -0.6338853
0.8280461 0.12670432 -0.9333387 0.47904715 -0.73032194 -0.8578863 0.19205901 0.605222
0.35123503 -0.398571 0.11289686 0.43122336 -0.7725159 0.5077274 0.7069402 -0.43070945
-0.43244976 0.70573384 0.7748902 -0.38810813 0.39108366 -0.07703117 0.64863884 -0.15166679
-0.723245 0.22804575 0.8223023 0.29420418 0.89442915 1.0691828 -0.6474923 -0.22313288
0.6141042 0.39712992 -0.47551054 -0.014071462 -0.35326347 0.687413 -0.09637885 -0.034291655
0.4390685 -0.05496078 -0.25095063 0.26875523 -0.6288535 -0.38377106 0.8987594 0.8144365
0.8756654 0.6400191 -0.0059082257 -0.278666 -1.0437369 -0.41654462 -0.6024315 -0.15168755
0.511755 0.71585476 -0.107331336 -0.079958774 0.44035634 -0.72337276 -0.08155508 -0.13378713

functional_1/activation_4/Relu;functional_1/batch_normalization_4/FusedBatchNormV3;functional_1/conv2d_2/BiasAdd/ReadVariableOp/resource;functional_1/conv2d_2/BiasAdd;functional_1/conv2d_4/Conv2D;functional_1/conv2d_2/Conv2D f4 [64]
00000000: 48b4 0f3f 0698 9cbf c127 06bf 194c 7dbf
00000010: 5d93 123f 7780 8c3f 294b 85bf bc1b b63e
00000020: 5fa8 a53e 061b 8c3e c4d5 f93e 2686 a13f
00000030: 526f 2d3f 94da bcbd 6548 a33f d6b1 233f
00000040: 11dc 54be bc24 f73e 429c 953f 6908 f73d
00000050: 7c54 b4be 60a4 213e 8baa e3be 498d 82be
00000060: a964 adbf dcb8 e7bd c2ca 42bf cda3 963f
00000070: a814 dcbe 5419 883c 5455 c13d f088 71be
00000080: bb47 0c3f 3eaf 5b3e ddd2 103e 5457 bd3e
00000090: f372 363f 58db a8be 3e48 153f d622 0cbe
000000a0: 5456 523d c608 913e 0253 ac3d 1979 05bf
000000b0: 01fb dc3d 6ccb 5abe 5a44 3bbf 859d c73e
000000c0: 997f 143f 0f25 5d3d ea1c 50bd 17be f23e
000000d0: 4ca2 dcbe 674f 623f 6cf2 a43e 65af 31bf
000000e0: 37b7 24bf 3516 bcbe bbf0 1ebf 2424 4ebe
000000f0: b02d 223c 6072 2ebe 4287 fd3e 6934 90be
0.5613446 -1.2233894 -0.5240441 -0.9894424 0.5725611 1.0976704 -1.0413562 0.35568035
0.3235502 0.27364367 0.48795903 1.2619064 0.67747986 -0.09221378 1.2756468 0.6394323
-0.20787074 0.48270214 1.1688311 0.12062151 -0.35220706 0.1578536 -0.4446605 -0.25498417
-1.3546344 -0.11314556 -0.76090634 1.1768738 -0.4298451 0.01661364 0.09440103 -0.23587394
0.5479695 0.21453568 0.14142938 0.3698069 0.7126915 -0.32979846 0.5831336 -0.13685164
0.05135186 0.28327006 0.0841427 -0.52137905 0.10790063 -0.21366662 -0.7315117 0.38987365
0.580072 0.05399042 -0.050808825 0.47410652 -0.43092573 0.8840241 0.32216203 -0.69408256
-0.64342064 -0.36735693 -0.62086076 -0.20130974 0.009898588 -0.17035818 0.49517256 -0.28164986

functional_1/activation_5/Relu;functional_1/batch_normalization_5/FusedBatchNormV3;functional_1/depthwise_conv2d_2/depthwise;functional_1/depthwise_conv2d_2/BiasAdd;functional_1/conv2d_4/Conv2D;functional_1/depthwise_conv2d_2/BiasAdd/ReadVariableOp/resource f4 [64]
00000000: 05fa 05bf b008 4dbf 1c9e 68be 3b81 81be
00000010: e4ce 013f b6a0 41bd 7ec9 723f 131f 953f
00000020: d3db 5bbf 47bd 0bbf 329c 99be 1825 813f
00000030: 5ec2 69bf dbf6 1cbe 7686 793f fa12 a33f
00000040: d425 1e3f a912 a93f 8ea0 cf3f 28d1 dc3e
00000050: 7849 973f b1be 11bf c99d 29bf 54fc 04be
00000060: 3c5a 37bf c6ba 903f 0dfa 233f 3d7b 53bf
00000070: 7e31 08bf cc2c 80bf 6892 6b3f 0467 51bf
00000080: d168 1fbf 9567 8b3f 09aa 6abf 1386 983f
00000090: a813 6fbd 02b6 1abf 0df0 03bf 62e1 0ebf
000000a0: 0e53 fbbe dffc 893f ef20 5bbf 3020 32bf
000000b0: 0295 4ebe 4cec cebe 980c 4abf 706c 36be
000000c0: fa79 2c3f bb33 f3be 8336 39bf fdae 86bf
000000d0: 5538 57bf ff50 25bf 0a52 a4be d852 14bf
000000e0: 9010 4c3f d756 903f d458 88be 62fc c73e
000000f0: 0757 d9be 83a1 283f 2eb1 ae3f 8041 50bf
-0.52334625 -0.8009138 -0.22716564 -0.25293908 0.50706315 -0.047272407 0.948387 1.1650108
-0.858823 -0.5458569 -0.3000198 1.0089445 -0.91312206 -0.15328543 0.97470796 1.2740166
0.6177647 1.320882 1.6220872 0.43128324 1.1819296 -0.56931597 -0.66256386 -0.1298688
-0.7162206 1.1306999 0.6405342 -0.8260992 -0.5320052 -1.0013671 0.92020273 -0.81797814
-0.6226931 1.0890986 -0.91665703 1.1915916 -0.058368355 -0.6043397 -0.51538163 -0.55812657
-0.49086803 1.0780295 -0.8559713 -0.69580364 -0.2017403 -0.40414655 -0.78925467 -0.17814803
0.6737362 -0.47500405 -0.72348803 -1.0522152 -0.8407033 -0.64576715 -0.3209384 -0.5793891
0.7971277 1.1276501 -0.2663027 0.3905974 -0.4244921 0.6587145 1.3647821 -0.81349945

functional_1/batch_normalization_5/FusedBatchNormV3;functional_1/depthwise_conv2d_2/depthwise;functional_1/depthwise_conv2d_2/BiasAdd;functional_1/conv2d_4/Conv2D;functional_1/depthwise_conv2d_2/BiasAdd/ReadVariableOp/resource f4 [1, 3, 3, 64]
00000000: caae aabf 9992 af3e 095b 0dbe 32ea 83be
00000010: 8491 2cbf 48e0 8bbf aba5 c3be a584 5dbe
00000020: 67b2 093f 3f6b 663f 305b 283e f9c9 4cbd
00000030: c063 2e3f 96cc a43d 93b4 19bf 886e 58bd
00000040: 5d54 37bf 4fc1 7fbf 2ff0 82be dd3d fabd
00000050: babb 693d ddc5 743f 66d7 853e 5123 e0be
00000060: d24a 823e 9465 c9be 38e5 2b3f a131 483e
00000070: b574 41be dc82 053f e8ce cdbe 54ba f8bd
00000080: df22 7d3f 3141 20bf 6e82 4c3f 8ce4 0cbf
00000090: cebc 913f 0997 203e 2613 ed3e 3334 0ebe
000000a0: c092 073e 3b43 22bf 034e 3a3f 300e f83e
000000b0: 066d 973e d22f fd3e f3b5 483f 2139 7f3f
000000c0: 51eb c2be ac67 953f 254f aa3e b05a cb3f
000000d0: be06 1a3f d371 293f 1eac 35bf 3b18 fa3e
000000e0: a5c4 ab3e 9437 2bbd 57ac ee3e 62f3 9abe
000000f0: e5f1 8d3e db86 1d3e 9afb fbbe 53a9 39be
00000100: 9e09 c73e 7050 1e3e 3a27 833f 8147 c33d
00000110: 7c7b 943e c34c b7be c21e f3be c543 dabd
00000120: 7a30 513e d43f 243f 72e4 0abf 27cb 3bbf
00000130: bd2b 743e 5122 143f 8e34 ec3e 0987 32be
00000140: ca49 1bbe 8991 bfbe 5431 ccbe ae32 80bd
00000150: 8181 27be d8bd 493e 022b 093f 4c7e cabe
00000160: ae4f d63d ab2b 00bf 9263 8abe 2496 683f
00000170: dbd7 bc3f 351b d93e b85e 02bf dd57 17be
00000180: 857e 8c3e b377 25bf 5b4d c23e d49b 21bd
00000190: 5d89 4abf 09f0 b13e 5fb0 d03e 75ff 503d
000001a0: 6aad e63e 0cce ebbe 98b1 043f bb99 873e
000001b0: 6180 29bf 149c fa3e 91d5 c53d cf7e 95be
000001c0: 0295 13bf ce9e 37bd d517 013d 65ba d43e
000001d0: 2c47 12bd 3ed1 debe 51fb 723f 7087 823e
000001e0: 8c8a 04bf 99a6 a0be 0987 bb3e dc95 3f3e
000001f0: 7a49 8f3e 1275 593e 1704 36bd 310b e93e
00000200: bb37 5f3e 4370 ca3e 6a5d d4be d8b8 063f
00000210: 48db 7dbe 46a2 ab3f 74b5 e2bd 096d 6fbf
00000220: 9cad 953e f445 8e3f a6b6 ce3e bfd5 a9be
00000230: 433a dbbe 08cd 2a3e 41cd e93e dc11 73bf
00000240: 0696 95bf 43ae ee3e 54e6 5abf 05a5 1ebf
00000250: bdc5 a5be 16d8 173f d613 2e3e 570d 043f
00000260: c339 2c3d a72a eebe 7da2 61bf c76e 18bf
00000270: 9b80 d63e c2a2 0e3f 9aa1 333d 3abf 113e
00000280: bc92 10bf d739 e5be ea42 3b3f c7b9 d5be
00000290: 0f6a 4d3f 4f00 0c3f a7f8 c2be 9409 f73d
000002a0: 92cd 31bf dfac 8f3d 798a e33e fbe6 013f
000002b0: c57e f83e 5104 f23c 5b69 c23e 69b8 383f
000002c0: f200 333f 2fbc 19bf 16fa 90bd 5a05 f83e
000002d0: ec54 8a3e c72c 4e3e 69c0 c63d 3a6a c33e
000002e0: 5a54 2fbf 4e26 8bbd 691f 1dbf adaf 703f
000002f0: 5e5e 853f 2376 5fbf 7a91 6fbe d69b d43e
00000300: 3cb4 833e 4660 403f 7847 89be 4698 0cbf
00000310: 4674 54be 1434 abbd 1399 5abe 8d68 82be
00000320: cbfb 8e3e e0fb 963e 6679 d63e 0426 b53e
00000330: d9b6 143f d740 74be 0ef8 20bf a0ef b2bc
00000340: 9a7e 4ebe 1feb 6dbd 536e 01bf 0dbe e7be
00000350: 92c8 393d 1c38 073f 015e 003f c62e 7fbc
00000360: 977b a9bc 763c 9dbe 9f2c 91be 4b8f 0c3f
00000370: d3c2 06bf 715c 513e 9dc2 4cbe 4638 6c3e
00000380: 22d0 303f 3a1a dcbe f9bf 103f b4ac 11bf
00000390: 1b98 fb3e 48ad babd 2184 253f d272 ef3e
000003a0: bffd 083e e665 92be 0979 d83e 462d 823e
000003b0: d0af 783e 5be3 023f 66e1 dc3e e95b 8b3e
000003c0: 7eac 62be ac58 163f fec7 c03e d042 b93e
000003d0: 1aa7 b33e 5801 033f 0574 e33d e9bd 093f
000003e0: d822 cabd fbf5 bebe 3741 c13d 2ef7 0fbe
000003f0: 9c4b babe cb80 ca3e 9431 163e 3962 ed3e
-1.3334591 0.34291533 -0.13804258 -0.25764614 -0.6740954 -1.092782 -0.38212332 -0.21632631
0.53787845 0.90007395 0.16441035 -0.049997304 0.68120956 0.08046834 -0.6004116 -0.052839786
-0.71613103 -0.9990434 -0.2557387 -0.12218831 0.057063796 0.95614415 0.26140898 -0.43776944
0.25447708 -0.3933531 0.67146635 0.19550182 -0.18892176 0.521528 -0.4019692 -0.12144914
0.98881334 -0.62599474 0.7988652 -0.55036235 1.1385744 0.15682615 0.46303672 -0.138871
0.13239574 -0.63383836 0.72775286 0.48448324 0.29575366 0.49450547 0.7840263 0.99696547
-0.38070157 1.1672263 0.33263507 1.5887051 0.6016654 0.66189307 -0.70965755 0.4884661
0.33548465 -0.04180105 0.4661586 -0.3026381 0.27723613 0.15383475 -0.49215394 -0.18130998
0.38874525 0.15460372 1.0246346 0.09535123 0.2900046 -0.35800752 -0.47484404 -0.10657457
0.20428649 0.64159894 -0.5425483 -0.7335686 0.2384481 0.5786486 0.46133846 -0.17434324
-0.15164867 -0.37415722 -0.39881384 -0.062596664 -0.16357996 0.19701326 0.5358125 -0.39549482
0.104644164 -0.5006663 -0.2702909 0.90854096 1.4753374 0.4240357 -0.5092578 -0.14779611
0.27440277 -0.6463577 0.37949643 -0.03945525 -0.7911585 0.34753445 0.4075956 0.051024873
0.4505418 -0.4605564 0.51833487 0.26484475 -0.66211516 0.48947203 0.09659875 -0.2919831
-0.5764924 -0.044829182 0.03151687 0.41548458 -0.035712406 -0.43519014 0.9491473 0.25493956
-0.51773906 -0.31377104 0.3662646 0.1870951 0.27985746 0.21236065 -0.044437494 0.4551635
0.21798603 0.39538774 -0.4147752 0.526258 -0.2479068 1.3408897 -0.11069766 -0.9352575
0.29234016 1.1115098 0.40373725 -0.33170888 -0.42817888 0.16679776 0.4566441 -0.94949126
-1.1686409 0.46617326 -0.855077 -0.6197055 -0.32377425 0.59314096 0.16999754 0.51582855
0.042047273 -0.46516916 -0.8813856 -0.5954403 0.41894993 0.557171 0.043855287 0.14233103
-0.564739 -0.4477069 0.7314898 -0.417433 0.8023996 0.5468797 -0.38080332 0.12062374
-0.694543 0.070153944 0.44441584 0.50743073 0.48534217 0.029543074 0.37971005 0.7215639
0.6992332 -0.6005277 -0.0707895 0.48441583 0.27017915 0.20134269 0.09704668 0.38166982
-0.68488085 -0.067944154 -0.61376053 0.9401806 1.0419424 -0.8728964 -0.23395339 0.41525143
0.25723445 0.751469 -0.2681234 -0.5491985 -0.2074748 -0.083595425 -0.21347456 -0.2547039
0.27926478 0.2948904 0.41889495 0.35380566 0.58091503 -0.2385286 -0.628785 -0.021842778
-0.20165482 -0.058085557 -0.50558966 -0.45262185 0.045357294 0.5281999 0.5014344 -0.0155751165
-0.020688815 -0.3071019 -0.28354356 0.5490615 -0.5264103 0.2044542 -0.19996114 0.23068342
0.69067585 -0.4298876 0.5654293 -0.5690415 0.49139485 -0.09115082 0.6465474 0.46767288
0.13378046 -0.28593367 0.42279842 0.25425166 0.24285817 0.51128167 0.43140715 0.2721856
-0.22136113 0.5872905 0.37652582 0.36183786 0.35088426 0.51173925 0.11106113 0.53805405
-0.09869927 -0.37297043 0.09436267 -0.14059135 -0.3638581 0.39551386 0.1466735 0.46364

functional_1/activation_6/Relu;functional_1/batch_normalization_6/FusedBatchNormV3;functional_1/conv2d_3/BiasAdd/ReadVariableOp/resource;functional_1/conv2d_3/BiasAdd;functional_1/conv2d_4/Conv2D;functional_1/conv2d_3/Conv2D f4 [64]
00000000: 37fa 103f 7632 8dbe 0443 60be 852d 0d3f
00000010: 480b af3e 26be 4e3e 3502 923e ddde 783e
00000020: 951d 7bbd 0978 6f3f c773 4c3f fb88 7abe
00000030: d6c5 8fbe 4c76 483e 1935 b4be 7630 b93e
00000040: bc02 883d 2661 453f 044f 423e e01d 30bd
00000050: af53 b23e ff01 ca3e 2e95 ca3e 336d 7cbf
00000060: 7bef c1be 8e3f 45bf 3dc3 7d3f cf6d b93e
00000070: 8e88 fa3e 991c a2be 73b8 163e 4bb2 06bf
00000080: f04b 293f 9f4b b9bd b1c9 263e cde9 8a3e
00000090: b03b a4be f99d 01bf bc4e 0abf 8950 8a3f
000000a0: 96e1 a9be 4211 0a3f a23c 11be aafe d83e
000000b0: 5e23 253f e87f 01bf 9a23 693d a639 7b3e
000000c0: 20b5 f73e 1847 423f cc90 253e 6c5c f73e
000000d0: b2dd 38be 725d 03bf 9002 eb3d 695b dbbd
000000e0: 08de c83e 2982 483f b0fb 963e 961e 7fbf
000000f0: fe3d 553f e692 c83e d670 ab3c 8935 8b3e
0.566318 -0.2757756 -0.21900564 0.5514758 0.34188294 0.20189723 0.2851731 0.24303766
-0.06130751 0.93542534 0.7986416 -0.24466316 -0.28080624 0.19576377 -0.3519676 0.36169785
0.066411465 0.7710136 0.18975455 -0.04299724 0.3482947 0.39454648 0.3956694 -0.98604125
-0.37878022 -0.770501 0.99126035 0.3621659 0.48932308 -0.31662443 0.147188 -0.52615803
0.66131496 -0.09047627 0.16287877 0.271315 -0.32076788 -0.5063167 -0.5402639 1.0805827
-0.3317992 0.53932583 -0.14183286 0.42381793 0.6450709 -0.50585794 0.056918718 0.2453371
0.48380375 0.7588973 0.16168517 0.483127 -0.1805332 -0.5131446 0.11475098 -0.107107945
0.39231896 0.7832361 0.29488897 -0.99656045 0.8329772 0.39174575 0.020927828 0.27189282

functional_1/activation_7/Relu;functional_1/batch_normalization_7/FusedBatchNormV3;functional_1/depthwise_conv2d_3/depthwise;functional_1/depthwise_conv2d_3/BiasAdd;functional_1/conv2d_4/Conv2D;functional_1/depthwise_conv2d_3/BiasAdd/ReadVariableOp/resource f4 [64]
00000000: 4067 07bf 73f9 39bf bf76 27bf c5fb 403f
00000010: 3bd9 803f 43dc 0f3f 64ad 2fbf a4d6 ab3f
00000020: bd0d ffbe cc83 a83f 6f31 5dbf 3edf 7c3f
00000030: 031b 6b3f 4211 b43f 3285 99bd 36e9 ae3f
00000040: 054b 943f 3f37 9c3f 376c 6b3f 0984 ed3c
00000050: 4d5a 5e3f 4aae 573f 5222 53bf 477d 273f
00000060: 44c8 343f 0463 3c3f 7a35 bc3f c596 6d3f
00000070: 84f9 58be 3511 e93e 082b 33bf 6178 3b3f
00000080: 7e68 b73f 3dab 5f3f 44c8 39bf ea64 56be
00000090: ff52 3fbf 5f00 19bf 71b0 89bf e7e2 97bf
000000a0: f0a1 a13f cc9a e43c 0dfc 523f 72d0 aa3f
000000b0: d49c 863f b4dd 18bf cb59 1cbf 5818 473f
000000c0: 9a45 33bf 52a9 25bf caf6 ffbe d75a cb3f
000000d0: 7401 12bf 13bb b63e 9c29 7abf 6bc7 10bf
000000e0: 05f0 9cbf 836b 913f f2b8 c83f feec 943f
000000f0: 4d99 a63f 1ed4 d6be a25f 02bf caa0 3dbf
-0.5289192 -0.72646254 -0.6541557 0.7538417 1.0066293 0.5619547 -0.6862395 1.3424878
-0.4981517 1.3165221 -0.86403555 0.9877814 0.9183809 1.4067767 -0.07496108 1.366492
1.1585394 1.220436 0.91962 0.028993623 0.8685654 0.8425032 -0.82474244 0.65425533
0.7061808 0.73588586 1.470382 0.9280818 -0.21188933 0.4552094 -0.69987535 0.7323056
1.4328763 0.87370664 -0.72571206 -0.20936933 -0.74736017 -0.5976619 -1.0756971 -1.186612
1.2627544 0.027905844 0.8241585 1.3344862 1.051661 -0.5971329 -0.61074513 0.7777152
-0.7002808 -0.6471149 -0.49992973 1.5887097 -0.5703347 0.356896 -0.9771974 -0.5655429
-1.2260748 1.1360935 1.5681441 1.1634824 1.3015534 -0.41958708 -0.50927174 -0.7407347

functional_1/batch_normalization_7/FusedBatchNormV3;functional_1/depthwise_conv2d_3/depthwise;functional_1/depthwise_conv2d_3/BiasAdd;functional_1/conv2d_4/Conv2D;functional_1/depthwise_conv2d_3/BiasAdd/ReadVariableOp/resource f4 [1, 3, 3, 64]
00000000: adbe 273f d3de a93e f575 123f 9680 d2be
00000010: 9521 e3be 34ef 86bf 02fa 2a3f 98e7 33bf
00000020: f2e8 c43f 44f4 6fbe 268f 163f 4627 ffbd
00000030: 0a60 1cbf 49ad 09bf a9ca a5be 0395 10bf
00000040: 6235 d8be 19fb 3cbf 6db6 14bf 0540 77bf
00000050: 54a4 b7be f344 23be e5e9 a43e e46b f4be
00000060: b992 b63e 6149 14bf c36c 8abe 2b4f dbbe
00000070: 3217 da3e 55c0 313f 64e6 033f c2c0 49be
00000080: 03cf 94be f13a c8be 6a77 943f bd76 f93e
00000090: 1348 1f3f 8035 fc3e c036 813f fbd2 ab3e
000000a0: deaf f3be 2f5f 81bf 8d0d ffbe 1839 1cbf
000000b0: b66a 03bf 2c60 773e 5d71 c53f 629f 1bbc
000000c0: ef9b 6e3f cfa0 0d3f 5485 25bf abc7 0ebf
000000d0: 6ef4 c73e f3d9 283f 99fb 473f 3f9c ca3f
000000e0: 671c 2f3f ccfc cfbe 0581 ddbe 2536 35bf
000000f0: 91e6 42bf e37e 3fbf 8321 b93f 0186 6f3f
00000100: 2be0 2f3f cfc0 ed3d 028a 9d3e 72b1 debe
00000110: 844a e1be bf50 16bf 9010 2d3f 6236 0abf
00000120: 34b2 c83e ff86 fabe f81c 5e3f 0acb 79be
00000130: 0644 34bf 9ec3 02bf b660 7fbf a069 29bf
00000140: ac93 99be d980 fdbe 7298 87be 0bf3 d43e
00000150: caa5 c5bd 0627 8bbe 951a 643e 72a7 35bf
00000160: 93a1 973e b946 c9be c86e 29bf 8193 88be
00000170: dabf 8bbf 34d4 2cbe 2e4c 2e3f 5f68 e8be
00000180: aac5 9fbe 62ba 69bf 51b6 5a3f ed66 5f3e
00000190: 1949 253f f6bf 263f cc1b 7d3f ef34 db3e
000001a0: b077 00bf 17b3 403f f3c5 dfbd 3f0d 1dbf
000001b0: f45a 15bf 10c0 043f 740c 823f 293c 1cbf
000001c0: 95d1 8a3f 249f 073f e79f e93f cb88 f7be
000001d0: 66e2 273f b55e d3bd 404c 293f c12f 8c3f
000001e0: 5c1d 1a3f a6ff 29bf 8f85 debe 42bc 30bf
000001f0: 67be 3cbf c17b 0c3f 5785 b53f 85a6 7e3f
00000200: 3a4d 513f 58ff 803d e9dc 183f cb6f 063d
00000210: 9554 06bf 239b 003f 3bfb ef3e e455 c0be
00000220: c4af 3cbf 3d19 9ebe 23e1 7a3f e35d abbe
00000230: 2a9a c1be d5b1 fbbe 78a0 a63e bb8f f7be
00000240: 01f5 31bf 7bce 28bf 4ea6 d8be efcd 4d3f
00000250: 3d54 0bbf 7365 69bd d547 2c3e 804e d8be
00000260: c2bb 663e b87e 14bf aca5 5abf c41c 9abe
00000270: ea0a 2e3f 22cb 4cbf 4d06 933f fb75 c0bc
00000280: b83b d4bd 59ae 8abe d19f 203f 5fd9 cdbd
00000290: f33f 453f 8e1e 143f 627e 473f 8073 f23e
000002a0: cf8d cabe 3796 15bf 4076 1ebf cf4f 88be
000002b0: 21b3 b0be 0547 133f ae96 af3f 89c8 90be
000002c0: 478b 903f f586 b43e 588a 14bf 2b44 bdbe
000002d0: 5632 1e3f 1fd1 3abf d337 5e3f 5289 edbe
000002e0: 6d0f 413f 1481 6abe 1694 4cbf b7ce 92be
000002f0: d71a 83be 889a 673e 1545 c63f 8f73 0f3f
00000300: 330e 833d 6b3f 7e3e 7362 123e 8aed 83be
00000310: 668a 47be 710a 38bd 24d3 b63c 39a5 dabe
00000320: 3aba 9a3e fc20 65be 1315 a53d 28bc 77be
00000330: 625e 063e 9f11 86be 02f0 27bf a55b a4bd
00000340: 69d3 373c 037e 7dbe a062 85be 2961 97bf
00000350: f628 c1be d8e4 acbe 276d 833e 0fda 583e
00000360: 8acd 6bbe e744 27be 8d75 a2be 739b bfbd
00000370: 690b 2e3e f0b6 eb3d fc59 153e 33ae 73be
00000380: a5e4 a1be 041f 923c 8499 8d3e 02cf 1f3f
00000390: d6c3 c23d 4a7c 263d e9d4 1a3e 89fc 803e
000003a0: 9ca7 36be 4e62 b3be e154 40be 6965 be3d
000003b0: 4b3f 86be e041 c33d 0b84 cc3e a10a 0d3e
000003c0: 23da 493e 7ae6 143e bd58 0abe ea79 61be
000003d0: 30ad 22bd a082 b63e 3c55 cebe f6c8 a03e
000003e0: 8d1f 003e 5755 60be 4580 ebbd a6c5 9d3d
000003f0: beef dd3d 00d0 52bf c8e6 fdbc fae2 723e
0.65525323 0.33177814 0.5721124 -0.41113728 -0.4436156 -1.0541749 0.6678773 -0.7027526
1.5383589 -0.23433024 0.5881218 -0.12458663 -0.61084044 -0.5378004 -0.3238118 -0.56477374
-0.42228228 -0.73820645 -0.5809086 -0.9658206 -0.3586756 -0.15944271 0.32209697 -0.47738564
0.35658816 -0.5792447 -0.27036104 -0.42833838 0.42595822 0.694341 0.51523423 -0.19702438
-0.29064187 -0.3910747 1.1598942 0.48723403 0.6221935 0.49259567 1.0094833 0.33559403
-0.47595114 -1.0107173 -0.49815026 -0.6102462 -0.513347 0.2415778 1.5425221 -0.009498449
0.93206686 0.553235 -0.6465657 -0.5577342 0.39053673 0.65957564 0.7811828 1.5828933
0.68402714 -0.40622556 -0.43262497 -0.70785743 -0.76133066 -0.7480299 1.4463352 0.9356385
0.6870143 0.11609041 0.30769354 -0.43494755 -0.44002163 -0.5871696 0.676034 -0.5398923
0.39198458 -0.4893112 0.8676295 -0.2439386 -0.70416296 -0.5107974 -0.99756944 -0.66176796
-0.29995477 -0.49512365 -0.26483494 0.41591677 -0.096507624 -0.2717821 0.22275765 -0.70958626
0.2961546 -0.3931177 -0.66184664 -0.26675037 -1.0917923 -0.16877824 0.6808499 -0.4539213
-0.31205493 -0.9130002 0.8543444 0.21816607 0.64564663 0.6513666 0.9887054 0.42813823
-0.5018263 0.7527327 -0.10926428 -0.61348337 -0.5834191 0.51855564 1.016005 -0.610293
1.0845209 0.52977204 1.8251923 -0.48346552 0.6557983 -0.10320798 0.66131973 1.0952073
0.6020105 -0.66405714 -0.43461272 -0.6903726 -0.7372803 0.54876333 1.4181317 0.9947284
0.81758463 0.06298703 0.5971208 0.032821458 -0.5247281 0.5023672 0.4687136 -0.3756553
-0.737057 -0.3087863 0.9799978 -0.33470067 -0.3781293 -0.49159113 0.32544303 -0.48351845
-0.6951447 -0.65940064 -0.4231438 0.80392355 -0.5442541 -0.056981515 0.16824277 -0.4224739
0.22532561 -0.5800586 -0.85409045 -0.3010007 0.67985404 -0.79997456 1.1486298 -0.023493757
-0.10362953 -0.27086142 0.6274386 -0.10051226 0.77050704 0.5785912 0.7792722 0.47353745
-0.39561316 -0.58432335 -0.61899185 -0.2662339 -0.34511665 0.5753024 1.3717859 -0.28277996
1.1292504 0.35259214 -0.58023596 -0.3696607 0.61795557 -0.72975343 0.8680393 -0.4639383
0.7541416 -0.22900802 -0.7991346 -0.28673336 -0.25606415 0.22617543 1.5489832 0.56035703
0.06399193 0.2482888 0.14295368 -0.25767165 -0.19486389 -0.044931833 0.022317477 -0.4270418
0.30220205 -0.22375864 0.0806066 -0.2419287 0.13121942 -0.2618532 -0.656006 -0.08025292
0.011219838 -0.24755101 -0.26051807 -1.1826526 -0.37726563 -0.33768344 0.25669214 0.21176933
-0.23027626 -0.16334878 -0.3173031 -0.093558215 0.1699654 0.11509502 0.14585108 -0.2379692
-0.31619754 0.017837055 0.27656186 0.62425244 0.09510009 0.040645875 0.15120281 0.2519267
-0.17837375 -0.35035938 -0.18782379 0.09296686 -0.26220164 0.09534049 0.3994449 0.13773586
0.19712119 0.14541045 -0.13510413 -0.22019163 -0.039715946 0.35646534 -0.40299404 0.3140332
0.12512036 -0.21907555 -0.11499075 0.07703714 0.10836743 -0.8234863 -0.030993834 0.23719397

functional_1/activation_8/Relu;functional_1/batch_normalization_8/FusedBatchNormV3;functional_1/conv2d_4/BiasAdd/ReadVariableOp/resource;functional_1/conv2d_4/BiasAdd;functional_1/conv2d_4/Conv2D f4 [64]
00000000: 338d 3fbf 6a97 063f d254 6bbf 99a9 fc3e
00000010: 5510 2340 5945 d83f 288f 45be be53 0e3f
00000020: 77cd b13e e73d 3040 a06e 04c0 8119 873f
00000030: 7862 953f 7041 25be 6b99 103e ea6b 973f
00000040: 2ee5 f93e 31d9 0dbe 904e a93f ae6e d43e
00000050: f883 4b3f d186 c83f 0619 74be 4807 af3f
00000060: 1b9a 08bf 527c b6be 25fc 11bf 2aa9 59be
00000070: 3077 9ebe aabe 1740 d8b2 d63f aea1 fabe
00000080: 8c2c 923e 1626 0b3e 3d99 553f 82e7 d43f
00000090: c6e2 bb3f 4896 6b3e 9721 cc3f f5e7 ac3e
000000a0: ecda 7c3f 0dd7 283f 239a 5dbd 807d eb3e
000000b0: 0ff0 603f 8cb5 d53f 3bd1 873f 530d 21bf
000000c0: b227 623e d90d 67be 7357 4e3f 026d 353e
000000d0: 58f0 293f accd 743f 3e52 9e3f c0f1 0e3e
000000e0: b724 823f 51fd b43f 958a 323f 0b5a 073f
000000f0: 0d02 b43e 8707 0040 bf70 5cbe f38e 1740
-0.7482483 0.5257479 -0.919263 0.49348143 2.5478718 1.6896163 -0.19292891 0.5559653
0.3472707 2.7537782 -2.069252 1.0554658 1.1670675 -0.16138244 0.14121024 1.1829808
0.48807663 -0.13852383 1.32271 0.41490692 0.79498243 1.5666143 -0.2383767 1.3674097
-0.53360146 -0.35641724 -0.5702537 -0.21255937 -0.30950308 2.3710122 1.6773329 -0.48951477
0.28549612 0.13588747 0.8343695 1.663315 1.4678581 0.23006546 1.5947751 0.3377072
0.9877155 0.6595314 -0.054102074 0.45994186 0.878663 1.6696029 1.0610727 -0.62910956
0.22085455 -0.22563876 0.80602187 0.17717364 0.6638236 0.9562633 1.2368848 0.13959408
1.0167454 1.4139806 0.6974271 0.5287177 0.35157815 2.0004594 -0.21527384 2.3681

functional_1/dense/MatMul f4 [12, 64]
00000000: 0ae7 2bbf 0539 a3be 2170 a9be 602e b83e
00000010: eb56 473d 9486 203d c59a 04be 8056 973e
00000020: 9eae 55bd 89b3 a93e 2b74 18bf 21cc 0d3f
00000030: bcc9 82be e419 aebe f7a2 a03e 695b 9d3e
00000040: 6e3f 13bf 5e87 99be cf3a 15bf d948 233e
00000050: f701 473e b1c1 c2bd 945a 2cbf d9a8 a2be
00000060: a65d d1be 83af 313e c0d4 37bf 920c 0c3e
00000070: b85b 0bbe e6fb dd3e 60bd 393f 90f9 54be
00000080: ad65 ac3d 92ae 46be 530c 973e 5024 a3bd
00000090: 23a1 72bd 1094 993e ab5e 6dbe 39f8 2cbf
000000a0: ee23 c4be 3be6 b0be 1007 7b3d 28fa 45bf
000000b0: fbc8 aabd 011d 343f e063 ba3e 305f 0fbf
000000c0: 0209 3fbf bdb7 7cbe 0ea8 c93e 31d7 bebe
000000d0: cdc5 2c3f 8082 1ebf 7f5d 1abf 092e b2be
000000e0: cb5f 22bf 8c60 473e 11de bc3e f9ed 80be
000000f0: d3b8 003f 1835 29be e944 8ebe 16e6 873e
00000100: 3150 c83d 0e07 0c3f 65ff 80be 9f71 a3be
00000110: 4b2f 9a3e db0d 1bbe b864 053e e251 b5be
00000120: 13bc 063f 7392 f5be 4998 803e b39e e3bd
00000130: 5db4 5d3e 3260 dcbe 2932 7a3e cc15 07be
00000140: c87b 12bf 7eac 0fbf e02e c8be 29b0 8a3e
00000150: 8803 cc3e ea0d 0ebf a4fe e73c 298b 56be
00000160: 7465 30bf 1711 eabd 102e 1bbf 66a7 22be
00000170: 12e3 85be 4662 97be c85c 5d3e 2c5c 2cbf
00000180: 0523 31bf 37c2 fd3e 586f c1be 06a0 883e
00000190: f404 b7be e394 e73d 5acb 273e 2642 f13e
000001a0: d6cc aebe 3ccc e83e eb84 28be 4d81 16bf
000001b0: c604 c63e 80e3 1ebd de94 b93e 124e c4be
000001c0: 41ce b03d 8db6 96be f634 09bf ff28 a0be
000001d0: 9b0b abbe c0df 35be cad3 e4be 7833 14be
000001e0: f992 9cbe 3116 f03e 7ab6 143f fb54 a1be
000001f0: f413 773e 3b73 2abf d3d8 5f3e 3a80 563e
00000200: a153 e63e 45ba 96be 9336 533e 78f4 e0be
00000210: 1bba ea3d 8ec5 87be f88b 973e 9d11 0ebf
00000220: 7e5c cabe 3b0b a9bd 5712 f0bd 7bdd f3be
00000230: 19d1 ee3e 7011 8d3e 0365 1cbf 7832 07bf
00000240: 2422 233f 116d f53e 5bc6 da3e 0544 21bf
00000250: d2d1 4d3e bff8 033f 13cd 003f 76e5 a43d
00000260: ef1b 053f ce6c 1bbe ea7f 02bf 2076 a6be
00000270: 5419 953d 7073 15bf 04e0 9e3d ea95 8dbe
00000280: be05 b43e 1d04 bc3e cf75 d6be 3e0f 9dbd
00000290: cc80 de3d 72c6 b0bd ccf8 f5be cdc5 7a3e
000002a0: 2733 603e 0ad3 36bf f24c b3be 3ec9 eebe
000002b0: 08a3 02bf a6e8 bfbd 09a5 12bf 0647 24be
000002c0: 5245 29bf 14f2 133f 74fb 77be cd75 bebe
000002d0: 3dee f0be 614e 853d 3edc 753e fd1e 0fbd
000002e0: 5748 fbbe acc8 32bf a6fc 0fbf 8b92 953e
000002f0: 9055 d6be 79d0 123f f957 fdbe 8323 10be
00000300: 38b7 5abe 93e2 843e 64e2 c4be 0ff9 edbe
00000310: 9206 de3e fd1a a4be d423 00bf 55a2 223e
00000320: 6f6e d63d 59c0 a3bd fcef bebe 7844 ddbe
00000330: 3f9b ea3e 7c57 f13c 9e94 c8be b6f6 37be
00000340: 06bf 12bf 41af e43e 85c5 3cbe 61de a33c
00000350: 75e8 bf3e 2275 c7be f23a adbe 31cf f83e
00000360: 7837 0fbf 3673 0cbf 7b1e e9be 2f99 f1be
00000370: ea8f 3b3e ce4b d3be 6645 8abe d71b e5be
00000380: 902b a7be 91eb db3e 6f9e cc3e e218 dfbe
00000390: 75af 023f 418e a93e cce5 8dbe 9290 98bd
000003a0: b47a a3be 0959 0bbf 0d92 3bbf 86e4 d6be
000003b0: 048c 153f e6e5 7ebe ee5f f33e ade1 1ebe
000003c0: dac8 d1bd 1ee6 d8bc 561c 063e a5e6 9bbe
000003d0: c266 84be b2a8 91be 6244 c4be 5a6d ccbd
000003e0: 3924 71be cbd4 e63e 1a4a 81be 186f b53e
000003f0: 1f58 e4be c92f a7bd 71d0 6ebe 90c2 023f
-0.6714941 -0.3187944 -0.3309336 0.3597288 0.048666876 0.039190844 -0.12949665 0.29558182
-0.05216848 0.33144787 -0.5955226 0.553896 -0.25544536 -0.34004128 0.31374332 0.30733803
-0.5751866 -0.2998609 -0.5829286 0.15945758 0.19434343 -0.095096 -0.6732571 -0.31769446
-0.4089176 0.17352109 -0.71809006 0.1367667 -0.13609207 0.43356246 0.7255459 -0.20798326
0.084178306 -0.19402531 0.2950159 -0.079659104 -0.059235703 0.29995775 -0.23180644 -0.6756626
-0.38308662 -0.34550652 0.061286032 -0.77334833 -0.08339115 0.70356756 0.36404324 -0.5600462
-0.7462312 -0.24679466 0.39386028 -0.37273553 0.6748932 -0.6191788 -0.60298914 -0.34800747
-0.6342742 0.19470423 0.36888173 -0.2518156 0.5028202 -0.1652416 -0.2778695 0.2654273
0.0978092 0.54698265 -0.2519485 -0.31922624 0.30114207 -0.15142004 0.13026702 -0.35414034
0.5263073 -0.47963294 0.25116184 -0.11114254 0.21650834 -0.4304214 0.24433197 -0.13191909
-0.57220125 -0.5612258 -0.39098263 0.27087525 0.39846444 -0.5548998 0.028319664 -0.20951523
-0.68904805 -0.11429041 -0.6061716 -0.1588417 -0.26149803 -0.29567164 0.21617424 -0.67328143
-0.6919406 0.49562237 -0.3778026 0.26684588 -0.35745966 0.11307695 0.16386166 0.4712078
-0.34140652 0.45468318 -0.16456954 -0.5879105 0.38675517 -0.03879118 0.3624639 -0.38340813
0.0863309 -0.2943615 -0.53596437 -0.31281278 -0.33407292 -0.17761135 -0.44692832 -0.14472759
-0.3058088 0.4689193 0.5809094 -0.31510147 0.24128705 -0.6658208 0.21860056 0.20947352
0.4498568 -0.29438987 0.20626287 -0.43936515 0.11461278 -0.2651791 0.29598975 -0.55495626
-0.3952369 -0.08254095 -0.11722248 -0.47629914 0.46643904 0.27552366 -0.6109163 -0.52811384
0.6372397 0.47934774 0.42729458 -0.62994415 0.20099571 0.5155143 0.5031292 0.08051579
0.5199575 -0.15178224 -0.5097643 -0.32511997 0.072802216 -0.5837927 0.07757571 -0.27653438
0.3516063 0.36721888 -0.41886756 -0.07668923 0.1086441 -0.086316004 -0.4804138 0.24489518
0.21894513 -0.7141577 -0.35019642 -0.4663791 -0.51030016 -0.09370546 -0.57283074 -0.16042718
-0.661214 0.57791257 -0.24217016 -0.3719925 -0.4705676 0.0650909 0.24009797 -0.034941662
-0.49078628 -0.6983745 -0.56244886 0.29213366 -0.41862154 0.57349354 -0.4948118 -0.14076047
-0.21358955 0.25954112 -0.38453972 -0.4647908 0.43364388 -0.3205184 -0.5005467 0.15882237
0.10470282 -0.07995672 -0.3729247 -0.432163 0.45821568 0.029460661 -0.39175886 -0.17965207
-0.5732273 0.44664958 -0.18434723 0.0200035 0.37482038 -0.38956553 -0.33834034 0.48595574
-0.55944014 -0.548633 -0.45531067 -0.47187182 0.18316618 -0.41268772 -0.27006072 -0.44747803
-0.32650423 0.4295316 0.39964625 -0.43573672 0.51048976 0.33116344 -0.27714384 -0.074494496
-0.31929553 -0.5443273 -0.7326973 -0.41971225 0.5841677 -0.24892387 0.47534126 -0.15515776
-0.102433875 -0.026476916 0.13096747 -0.30449405 -0.25859648 -0.28449017 -0.38333422 -0.09981795
-0.23548974 0.45084223 -0.25251848 0.3543632 -0.4459848 -0.08163411 -0.23321702 0.5107813

functional_1/conv2d/Conv2D i1 [64, 10, 4, 1] scale=0.0020227544 zero_point=0
00000000: fc0c f90c 360e e1ef 5427 df1d 13e9 1348
00000010: e1c8 2c16 d5f7 07c3 ce0d f6ce d2fe 0b0b
00000020: 0408 0beb 1b0c 0ce1 0616 1adc f705 2ce9
00000030: eefc 2ef5 edd6 1911 e7f8 fb14 ffee ee11
00000040: 06fc e70e 1307 e0fe 200c db00 0608 e818
00000050: 04e2 0711 f0f7 fa05 f6f8 f013 eb02 fd09
00000060: fd06 faf0 fe16 0cea ff11 10e7 0d0c 0e04
00000070: fcff 0df9 0bfb fd03 0403 0503 1008 1110
00000080: 0b12 fafd 010a edee f103 fee3 dfeb faf1
00000090: f9ee fafe 05f6 f807 10fb 0321 0d02 090d
000000a0: f8f8 f101 fd03 f30d ff03 f011 01f3 fc03
000000b0: f9e8 04fd ffe4 fa0a 0d0d fa0a 080e 0c07
000000c0: fd15 13f4 fffd 0ff4 0df9 fbf9 1500 e001
000000d0: fb07 e414 ffff d706 ed07 e726 f4fa fc29
000000e0: edfb 0b31 f0ec ff2c ed14 0b16 fc07 1307
000000f0: 1bf0 fffb 18ff 1008 2717 f81b 19f9 e115
-0.008091018 0.024273053 -0.014159281 0.024273053 0.10922874 0.028318562 -0.06270538 -0.034386825
0.16991137 0.07888742 -0.0667509 0.058659878 0.038432334 -0.04652335 0.038432334 0.14563832
-0.06270538 -0.11327425 0.08900119 0.044500597 -0.086978436 -0.01820479 0.014159281 -0.12338802
-0.10113772 0.026295807 -0.020227544 -0.10113772 -0.0930467 -0.004045509 0.022250298 0.022250298
0.008091018 0.016182035 0.022250298 -0.042477842 0.05461437 0.024273053 0.024273053 -0.06270538
0.012136526 0.044500597 0.052591614 -0.07281916 -0.01820479 0.010113772 0.08900119 -0.04652335
-0.03640958 -0.008091018 0.0930467 -0.022250298 -0.038432334 -0.084955685 0.05056886 0.034386825
-0.05056886 -0.016182035 -0.010113772 0.040455088 -0.0020227544 -0.03640958 -0.03640958 0.034386825
0.012136526 -0.008091018 -0.05056886 0.028318562 0.038432334 0.014159281 -0.06472814 -0.004045509
0.06472814 0.024273053 -0.07484192 0.0 0.012136526 0.016182035 -0.048546106 0.048546106
0.008091018 -0.060682632 0.014159281 0.034386825 -0.03236407 -0.01820479 -0.012136526 0.010113772
-0.020227544 -0.016182035 -0.03236407 0.038432334 -0.042477842 0.004045509 -0.006068263 0.01820479
-0.006068263 0.012136526 -0.012136526 -0.03236407 -0.004045509 0.044500597 0.024273053 -0.044500597
-0.0020227544 0.034386825 0.03236407 -0.05056886 0.026295807 0.024273053 0.028318562 0.008091018
-0.008091018 -0.0020227544 0.026295807 -0.014159281 0.022250298 -0.010113772 -0.006068263 0.006068263
0.008091018 0.006068263 0.010113772 0.006068263 0.03236407 0.016182035 0.034386825 0.03236407
0.022250298 0.03640958 -0.012136526 -0.006068263 0.0020227544 0.020227544 -0.038432334 -0.03640958
-0.030341316 0.006068263 -0.004045509 -0.058659878 -0.0667509 -0.042477842 -0.012136526 -0.030341316
-0.014159281 -0.03640958 -0.012136526 -0.004045509 0.010113772 -0.020227544 -0.016182035 0.014159281
0.03236407 -0.010113772 0.006068263 0.0667509 0.026295807 0.004045509 0.01820479 0.026295807
-0.016182035 -0.016182035 -0.030341316 0.0020227544 -0.006068263 0.006068263 -0.026295807 0.026295807
-0.0020227544 0.006068263 -0.03236407 0.034386825 0.0020227544 -0.026295807 -0.008091018 0.006068263
-0.014159281 -0.048546106 0.008091018 -0.006068263 -0.0020227544 -0.056637123 -0.012136526 0.020227544
0.026295807 0.026295807 -0.012136526 0.020227544 0.016182035 0.028318562 0.024273053 0.014159281
-0.006068263 0.042477842 0.038432334 -0.024273053 -0.0020227544 -0.006068263 0.030341316 -0.024273053
0.026295807 -0.014159281 -0.010113772 -0.014159281 0.042477842 0.0 -0.06472814 0.0020227544
-0.010113772 0.014159281 -0.056637123 0.040455088 -0.0020227544 -0.0020227544 -0.082932934 0.012136526
-0.038432334 0.014159281 -0.05056886 0.07686467 -0.024273053 -0.012136526 -0.008091018 0.082932934
-0.038432334 -0.010113772 0.022250298 0.09911497 -0.03236407 -0.040455088 -0.0020227544 0.08900119
-0.038432334 0.040455088 0.022250298 0.044500597 -0.008091018 0.014159281 0.038432334 0.014159281
0.05461437 -0.03236407 -0.0020227544 -0.010113772 0.048546106 -0.0020227544 0.03236407 0.016182035
0.07888742 0.04652335 -0.016182035 0.05461437 0.05056886 -0.014159281 -0.06270538 0.042477842
