static/img/docs/tlc-pack/web-data/main/testdata/microTVM/model/visual_wake_word_fp32.tflite (tflite, 866284 bytes, 56 tensors)

model/dense/BiasAdd/ReadVariableOp/resource f4 [2]
000000 6a 66 dd 3d 7c 66 dd bd
       0.108105496 -0.10810563

model/activation/Relu;model/batch_normalization/FusedBatchNormV3;model/conv2d/BiasAdd/ReadVariableOp/resource;model/conv2d/BiasAdd;model/depthwise_conv2d/depthwise;model/conv2d/Conv2D f4 [8]
000000 35 d4 4b 3f 9e 16 11 3f d7 85 c0 3f 9a e6 81 3f
       0.7962068 0.56675136 1.5040845 1.0148499
000010 93 25 af 3f 2e 09 49 3f d6 78 0e 3f d2 0d a9 3f
       1.3683342 0.7852963 0.5565313 1.3207343

model/activation_1/Relu;model/batch_normalization_1/FusedBatchNormV3;model/depthwise_conv2d/depthwise;model/depthwise_conv2d/BiasAdd;model/depthwise_conv2d/BiasAdd/ReadVariableOp/resource f4 [8]
000000 9c 7f 2a be c8 92 82 bd 57 d4 7e be dd 19 26 3f
       -0.16650242 -0.063756526 -0.24885689 0.64883214
000010 40 95 d0 bc 8f d5 38 40 7b 99 c9 3f ed 74 d9 3f
       -0.025461793 2.8880346 1.5749964 1.6988808

model/batch_normalization_1/FusedBatchNormV3;model/depthwise_conv2d/depthwise;model/depthwise_conv2d/BiasAdd;model/depthwise_conv2d/BiasAdd/ReadVariableOp/resource f4 [1, 3, 3, 8]
000000 bd d5 45 bf b4 5b d4 bf cb 09 05 bf 4e 01 04 bf
       -0.77279264 -1.6590486 -0.5196807 -0.5156449
000010 2d a5 15 bf e5 24 4c c0 61 d5 d0 3f 28 23 3c 3f
       -0.58455163 -3.1897519 1.6315118 0.73491144
000020 ba 59 62 bd 46 27 b9 3d 77 70 5d be b5 de af be
       -0.05526135 0.09040694 -0.21624933 -0.343496
000030 7b 0e 18 bf cd b5 4b 40 31 36 cc 3c 84 54 63 3f
       -0.59397095 3.1829712 0.024928184 0.88800836
000040 fc 8c 4c bf ab ca c8 bd a2 76 a3 bd fd 56 6e bd
       -0.79902625 -0.09804281 -0.07981612 -0.058188427
000050 75 65 bf 3e c7 ec 2e 40 c4 63 73 3f 50 86 ea be
       0.37382093 2.7332017 0.95074105 -0.45805597
000060 ca 46 90 3f aa a0 91 3f d6 b9 ea 3d 9e 00 aa 3e
       1.1271603 1.1377156 0.11461227 0.33203596
000070 6d b9 42 3f b8 dd a7 3f 7f 89 03 c0 e6 6a 7a be
       0.7606419 1.3114538 -2.055267 -0.24454841
000080 05 a5 a9 3f ca 2e 24 3f 02 e5 0b 3f 18 1a a4 bc
       1.3253485 0.64133894 0.54646313 -0.020031974
000090 24 40 fb 3e d1 91 e3 c0 83 d5 22 c0 1a e8 11 c0
       0.49072373 -7.11155 -2.5442817 -2.2797914
0000a0 0e 42 d5 3e 7f ce ca be d0 50 3d be 5c 3b 59 bd
       0.41651958 -0.3961067 -0.18487859 -0.053035125
0000b0 0b 1d 69 bf 61 09 ab 3f 69 0f 82 3e 14 14 30 3f
       -0.9105994 1.3362237 0.25402382 0.68780637
0000c0 14 e0 e2 3e 5e ad ed 3f a9 2c 6e 3f 30 61 94 bc
       0.44311583 1.8568532 0.93036896 -0.018112749
0000d0 9f a4 3c 3f 17 76 70 3f 7c 2f 2f 3f bd ff a7 bf
       0.7368869 0.9393019 0.6843183 -1.312492
0000e0 3d 1c ed 3e 66 50 76 3f c6 cf 03 3f 03 5c 1d 40
       0.46310607 0.9621643 0.5148891 2.458741
0000f0 77 11 f0 3f ff 92 33 40 2f ac b9 bf ee 18 91 bf
       1.875533 2.805847 -1.4505671 -1.1335733
000100 94 cf 71 bf fd 94 c2 bf 97 83 d5 bb ed dc 62 bf
       -0.94457364 -1.5201718 -0.006515931 -0.88618356
000110 5c 2f 88 bf 20 3e 93 c0 60 7d bf 3f 3d 53 8a 3f
       -1.0639453 -4.6013336 1.4960136 1.0806652

model/activation_10/Relu;model/batch_normalization_10/FusedBatchNormV3;model/conv2d_5/BiasAdd/ReadVariableOp/resource;model/conv2d_5/BiasAdd;model/depthwise_conv2d_5/depthwise;model/conv2d_5/Conv2D f4 [64]
000000 cf ba 9d 3d d0 3a c5 bf 2f 51 9f 3e d6 6f 15 3e
       0.077016465 -1.5408573 0.31116626 0.14593443
000010 14 81 0c 3f 6b df 2b be 91 46 8f 3d 87 a0 a5 be
       0.5488446 -0.16784446 0.06995881 -0.32349035
000020 c1 dd a4 3f 62 bd 72 bf c0 1f 45 bf e6 da d1 3e
       1.2880174 -0.94820225 -0.7700157 0.4098732
000030 86 90 b1 3e 63 86 84 be 7a 6e 9d bf 30 b0 01 3d
       0.34680575 -0.2588378 -1.229934 0.031662166
000040 7b cc c1 3e 60 ab 8f bd f4 e2 40 3e 3e c6 3d 3e
       0.3785132 -0.07015109 0.18836576 0.18532655
000050 82 c1 22 bf 2e 91 96 be cc eb e4 be 41 86 77 bf
       -0.6357652 -0.29407638 -0.4471115 -0.9668923
000060 00 fd b3 3e 2d 8d 01 bf 26 2b 50 bf 9c 9a bd 3b
       0.3515396 -0.5060604 -0.8131584 0.005786253
000070 c8 78 46 3c 7d b2 4e bd a2 1f 58 bf d6 f5 7a 3f
       0.012113757 -0.05046319 -0.8442327 0.98031366
000080 7e 7b 1f 3f 95 d3 3e 3f a8 0e ea be 4e 80 16 3f
       0.6229781 0.745416 -0.45714307 0.5878953
000090 d6 4f 05 3d ce 15 a2 bf 47 89 05 3f 12 39 e4 bd
       0.03254684 -1.2662904 0.52162594 -0.11143698
0000a0 7c f0 a5 be e7 73 90 bf b4 f9 1a be 34 3b fd be
       -0.32410038 -1.128537 -0.15134317 -0.4945923
0000b0 8d da df 3f 88 39 34 3f 2e 22 57 3d 7c 8e c4 be
       1.7488571 0.70400286 0.05252283 -0.38389957
0000c0 08 ea 06 3f 33 17 d5 be 0e 3a 52 3f b3 82 82 3e
       0.52700853 -0.41619262 0.82119834 0.2549034
0000d0 54 08 46 be 23 e8 00 3e 20 2b 21 bd 87 2b c7 be
       -0.19339114 0.12588553 -0.039347768 -0.38900396
0000e0 4f 36 51 be 75 67 36 3f 91 30 ec be a6 e4 43 3f
       -0.20430873 0.7125161 -0.46130803 0.76520765
0000f0 31 c4 d3 bd 22 2b 02 3e f3 17 3a 3e 02 c6 49 bc
       -0.10340155 0.12711766 0.18173198 -0.012315275

model/activation_11/Relu;model/batch_normalization_11/FusedBatchNormV3;model/depthwise_conv2d_5/depthwise;model/depthwise_conv2d_5/BiasAdd;model/depthwise_conv2d_5/BiasAdd/ReadVariableOp/resource f4 [64]
000000 a7 94 7f be ae 20 98 3f 83 f6 49 bd f0 5b c7 3f
       -0.2495905 1.1884973 -0.049307358 1.5574932
000010 8c a4 33 bf 66 0d 9c bd 81 86 07 3d bb 9c bb 3d
       -0.70172954 -0.07619743 0.033087257 0.09160753
000020 0b cf ff 3f 1e f5 60 be 12 6e 52 bf 1a ee 92 3f
       1.998506 -0.21968505 -0.82199204 1.1478913
000030 4c ce d6 3f 24 d4 fa be 0d 2c 08 bf ce be 5e be
       1.6781707 -0.48989975 -0.53192216 -0.21752474
000040 b1 6b ca 3f b8 a2 63 bf 5f 92 38 bf a9 e7 c1 3f
       1.5814115 -0.88920164 -0.72098345 1.5148822
000050 00 e3 30 3c 64 f9 ee bd 4e 06 0f bf b4 72 db be
       0.0107963085 -0.11668661 -0.55868995 -0.4286095
000060 8e ec d9 be 6e fe f5 3c 43 91 4c bf 1b 99 00 bf
       -0.4256329 0.030028548 -0.7990915 -0.5023362
000070 ad 21 61 40 6f a3 9f be 0d 00 5b bf 02 f4 b1 3f
       3.5176804 -0.31179377 -0.8554695 1.390259
000080 34 c9 08 bf 12 82 ea bd 33 ef c6 be 75 db a5 bd
       -0.5343201 -0.1145059 -0.3885437 -0.08098499
000090 83 70 a5 3f 38 7c c0 be b5 23 db 3f fe 78 be be
       1.2924961 -0.3759477 1.7120272 -0.37201685
0000a0 cd 15 cf 3f c1 08 c3 be 56 c4 42 bf b3 74 a9 bf
       1.6178528 -0.38092616 -0.76080835 -1.3238739
0000b0 7c 84 d6 3f 8d d5 f0 3f 68 9a 1f bf 5c c3 04 bf
       1.6759181 1.881517 -0.6234498 -0.51860595
0000c0 33 65 1a 40 60 39 c6 bd c8 03 3c 3c e7 a0 5f bd
       2.4124267 -0.09678912 0.011475511 -0.054596808
0000d0 e5 63 fb 3f 46 04 db be a9 ee 59 3e dc 83 1b bf
       1.963986 -0.42776698 0.21282448 -0.60748076
0000e0 04 98 9a 3d 45 e7 b8 be 00 48 76 be 00 eb 09 bf
       0.07548526 -0.36113945 -0.24050903 -0.53874207
0000f0 0c 37 9d 3e af 3e c7 be a0 04 3e bf d1 c6 61 3e
       0.3070606 -0.3891501 -0.7422581 0.22048499

model/batch_normalization_11/FusedBatchNormV3;model/depthwise_conv2d_5/depthwise;model/depthwise_conv2d_5/BiasAdd;model/depthwise_conv2d_5/BiasAdd/ReadVariableOp/resource f4 [1, 3, 3, 64]
000000 ef e1 0b be 3a 59 8e be cd 15 e1 3e fe 63 68 c0
       -0.13660406 -0.2780245 0.43961945 -3.631103
000010 aa 92 55 bd 2a 7f 8e bd 08 30 cc bd c3 b2 28 bd
       -0.052141823 -0.06957848 -0.09970099 -0.041186105
000020 0a 00 7d b9 ed df 8e 3f e5 9a 22 3e 4c 5a b8 bd
       -0.00024127975 1.1162087 0.158794 -0.09001598
000030 20 62 1e c0 d6 ef 15 3e 14 8f 89 3e 62 a3 f9 be
       -2.474739 0.14642271 0.26866972 -0.48757464
000040 2f de 95 be c6 75 01 3e 45 7c 49 3e cb af fb 3d
       -0.29271075 0.12642583 0.19676311 0.12289389
000050 07 57 94 3f 81 46 ad 3e ff 6d c4 bd 23 17 fd 3e
       1.1589059 0.33842853 -0.095912926 0.49431714
000060 9f 38 4e 3e 74 2a 11 bf e1 a0 8e 3e 11 e7 db bc
       0.20138787 -0.56705403 0.27857116 -0.02684358
000070 43 24 01 bf 1e bc 23 3e 5a e7 13 3e d3 64 02 3e
       -0.50445956 0.1598973 0.14443722 0.12733774
000080 27 78 75 3f ef 97 78 3e cb 23 fc bd c3 ba 39 3e
       0.9588646 0.24276708 -0.123115145 0.1813765
000090 1e 75 a3 bf 24 c5 d8 3e dc 11 04 bf 9b dd e5 3e
       -1.2770116 0.42337906 -0.5158975 0.44895634
0000a0 3f 75 75 be f0 61 49 3f ff 35 ca 3e 39 04 ca 3e
       -0.23970507 0.78665066 0.3949432 0.39456347
0000b0 fe 00 9e be 3c e7 d0 bd a3 27 de bd 3d fe f3 bf
       -0.30860132 -0.102003545 -0.10847404 -1.9061962
0000c0 2f 60 aa be 03 c6 c3 3f ac 26 bf 3e 20 1f 45 be
       -0.33276507 1.5294803 0.37334192 -0.19250154
0000d0 87 17 a7 be c4 9a 0a 3e b1 93 f0 3e 6c 5a ad 3e
       -0.32635137 0.13535601 0.4698768 0.3385805
0000e0 11 36 7f 3f af a1 99 3e a6 51 fe 3c fa fc ed 3d
       0.99691874 0.30006167 0.031044792 0.11620517
0000f0 88 c4 ca be 1f fb 10 3e 4b 2f 92 3d db 15 63 bf
       -0.39603066 0.14158295 0.07137927 -0.88705224
000100 c7 f7 38 3f f4 4e f4 be a6 06 a9 3c 9d 01 30 c0
       0.7225308 -0.47716486 0.020633053 -2.7500985
000110 48 7d 87 3e 93 bc 10 bf fd b1 f1 bd b2 6e 0a 3e
       0.2646277 -0.5653774 -0.11801527 0.1351879
000120 99 13 ef be cd a3 b3 3f f8 31 da 3d 7e 42 05 be
       -0.4669464 1.4034363 0.10654062 -0.13013646
000130 49 17 7a bb f6 94 80 bf a1 15 ab 3e 11 e8 9a 3e
       -0.0038160852 -1.0045459 0.3341494 0.30255178
000140 ef da d4 be cf e6 ca 3e 83 18 0c 3e b5 2f 4a bd
       -0.41573283 0.39629218 0.13681225 -0.049361903
000150 0d 03 17 40 0b f2 3e 3f 8a 73 90 3e ba 4f 36 3f
       2.3595612 0.7458808 0.2821315 0.71215403
000160 00 14 bc 3e 1a d1 2c be f2 87 ee 3d 7d 2b e8 3d
       0.3673401 -0.16876641 0.11647023 0.1133642
000170 8c 63 83 bf 5b 0a 80 3e 2c 84 33 3f e8 7d 22 3f
       -1.0264754 0.250079 0.70123553 0.6347337
000180 8e 9f 97 3f c9 b4 38 3e 63 3e 63 bd 47 04 e6 3d
       1.1845567 0.18037714 -0.05547942 0.112312846
000190 a3 af 6c 3d af 95 48 3f c4 bf 06 bf c1 20 13 3f
       0.057784688 0.783534 -0.5263636 0.57471853
0001a0 e3 62 9c be c3 14 5d bd 6e b1 b1 3e 5b 75 0f 3f
       -0.30544195 -0.053974878 0.3470568 0.56038445
0001b0 7a b7 71 be 69 dc e8 be 90 9b a8 3d c6 07 8f c0
       -0.23605147 -0.4548066 0.08232796 -4.469699
0001c0 a3 d1 f7 bb e0 10 1a 40 8c d5 ec bd 3b 76 19 bf
       -0.0075628324 2.40728 -0.11564168 -0.5994603
0001d0 74 d2 09 bf 51 ce 31 be 45 2f b1 3d 93 84 00 3f
       -0.5383675 -0.1736386 0.08651594 0.5020229
0001e0 8d bb 25 3f 72 de 1b 3f ee f4 10 3e 90 b4 0b 3f
       0.64739305 0.608863 0.14155933 0.5457239
0001f0 d1 c2 3a bf b8 6e 66 3e bf 9d f8 3e 69 b4 2c bf
       -0.72953516 0.22503173 0.4855785 -0.67462784
000200 2a 2d 2f 3f 0d c1 37 be b4 48 7b be 10 b6 34 c0
       0.6842829 -0.17944737 -0.24539453 -2.8236122
000210 32 d0 92 3e fc 44 bb 3d 03 36 b9 3c 85 34 0d bf
       0.28674465 0.09144017 0.022608763 -0.55158263
000220 77 1f 55 bf f2 b8 3c 3f 82 f7 14 3e f8 a8 1a be
       -0.83251137 0.73719704 0.14547542 -0.15103519
000230 58 3b 8f 3f 99 ed 2c c0 0e f7 5b 3e 89 f9 2a 3f
       1.1189985 -2.7020018 0.21480963 0.6678701
000240 db e4 a4 be 52 b2 d1 3e 31 2d 84 3b 0d 50 61 be
       -0.32205853 0.4095636 0.0040337075 -0.22003193
000250 33 46 af 3f 49 45 a9 3e 62 be b7 3e 8a 97 dd 3e
       1.3693298 0.33060673 0.35887438 0.43279678
000260 f5 27 70 3e f2 0a 7f 3e 2b 38 a2 bd aa ce b6 3d
       0.23452742 0.24906519 -0.079208694 0.08926137
000270 86 f7 2d bf e6 15 b4 3d 2a 79 bf 3e 6b 98 29 3f
       -0.67955816 0.08793239 0.37397128 0.66248196
000280 41 03 22 3c 53 f4 1b bf 74 5f ec 3c 3f a1 0c 3d
       0.009888471 -0.60919684 0.02885411 0.034333464
000290 f9 f3 55 3e fd e8 4c 3f e0 f4 8a 3c a3 5b 9a 3e
       0.2089385 0.8004301 0.016962469 0.30148038
0002a0 af 7c c1 be 37 b2 42 be 9e 1e 23 bd de b1 ee 3e
       -0.3779044 -0.19013296 -0.03982412 0.46620077
0002b0 43 43 fb bd ac 0c a4 be a3 b1 6c 3e 60 00 74 3f
       -0.122686885 -0.32040918 0.23114638 0.9531307
0002c0 e8 41 b9 3d 59 c4 d2 3f 10 53 5c bf 74 df 13 be
       0.09045774 1.646617 -0.86064243 -0.1444071
0002d0 39 04 aa be 3b 36 41 bf 44 10 29 bf fd e4 7c 3e
       -0.33206347 -0.75473374 -0.66040444 0.24696727
0002e0 ae 39 92 3d 67 f5 1a 3f f5 a0 3e 3e 92 d4 01 3f
       0.07139908 0.60530704 0.18616088 0.5071498
0002f0 7f 04 dc be 99 58 05 3e d0 3a 00 3f 7e 30 a2 be
       -0.4297218 0.13022079 0.5008974 -0.31677622
000300 e6 cb dd be b0 02 03 bf b4 4d ed 3e 0b 00 15 c0
       -0.43319625 -0.51175976 0.46348345 -2.3281276
000310 cc 5f cf 3e 64 3b fe be 66 39 9c 3c 56 e3 9e 3e
       0.40502775 -0.49654686 0.019070338 0.3103282
000320 ad 98 e6 bd 42 fb 54 3f 79 e9 93 3e e2 a7 e2 be
       -0.11259589 0.8319589 0.28889063 -0.4426871
000330 1c 5c 3e c0 66 6f 69 bf 00 4e 70 3e a4 af da be
       -2.974372 -0.91185606 0.23467255 -0.42712128
000340 d7 26 76 be ac 7f 00 3e aa bf 89 3e d8 7e 92 be
       -0.24038254 0.12548703 0.2690404 -0.286124
000350 77 e3 05 40 26 96 12 3f fd 65 04 3f 7f 32 32 3f
       2.0920084 0.5726036 0.5171812 0.696083
000360 e5 eb a4 3e f9 5b b8 be 91 f9 08 3f 83 ef c8 3d
       0.32211223 -0.3600767 0.5350581 0.09811308
000370 2d 69 23 bf 1c a9 c4 3e 2a 97 0c 3f 01 57 79 bf
       -0.6383236 0.3841027 0.5491816 -0.9739838
000380 4c 73 5f 3e 93 7d bf 3e 43 db 01 3f b0 32 a9 3e
       0.21821326 0.37400493 0.5072519 0.33046484
000390 94 49 82 bf ac 0f 9d bf 50 98 38 bf db c5 83 3e
       -1.0178704 -1.2270408 -0.7210741 0.2573689
0003a0 d2 b5 53 bd ba 4d a6 be 8b bf e0 3e e7 08 8f 3e
       -0.05168707 -0.32481176 0.43896136 0.2793648
0003b0 ce fe 95 be 52 63 cf be 86 41 96 3e ee 50 40 bf
       -0.29295963 -0.40505463 0.29346865 -0.7512349
0003c0 1d 61 72 bf 94 82 2d 40 12 69 19 3f ea 37 d0 3e
       -0.94679433 2.7110949 0.5992595 0.4066766
0003d0 d1 2c b6 be 52 45 d1 3e 16 c0 fd 3e b9 41 b0 3e
       -0.35581067 0.408732 0.49560612 0.34425142
0003e0 60 3b a0 3e 84 41 35 bf 10 39 0d 3e 1a 0b 75 3e
       0.312953 -0.70803094 0.13791299 0.23930016
0003f0 56 11 a5 bc fe 9c 37 3e 71 ad 99 3e d8 f9 8a 3e
       -0.020149868 0.17930982 0.30015138 0.2714374

model/activation_12/Relu;model/batch_normalization_12/FusedBatchNormV3;model/conv2d_6/BiasAdd/ReadVariableOp/resource;model/conv2d_6/BiasAdd;model/depthwise_conv2d_11/depthwise;model/conv2d_6/Conv2D f4 [128]
000000 4e d5 26 3f 49 7b 01 c0 c3 16 5d 3f 47 8b 12 3f
       0.6516923 -2.0231497 0.86362857 0.5724377
000010 60 65 7d 3f dd 56 a6 3d 41 0d d3 3f bb 82 b0 3f
       0.9898281 0.081220366 1.648842 1.3789896
000020 9b a7 a4 3f f8 e6 bb 3e 77 c2 53 bf a6 52 e1 bf
       1.2863649 0.36699653 -0.82718605 -1.7603347
000030 00 2d 2a 3f a2 50 cb 3e 40 32 a8 3f ab e2 b4 be
       0.66474915 0.39709955 1.3140335 -0.35329184
000040 f6 ba f9 3e 13 75 c9 3d 29 b0 b0 3d 98 f7 23 be
       0.48775452 0.09836783 0.0862735 -0.16012418
000050 d9 8d 8f 3d df a9 4f 3f 27 2c 91 3e 8c c3 97 3c
       0.07009477 0.8111858 0.28353998 0.018525861
000060 82 8f f5 3e 5c 3b f2 3c 1a 97 27 3f 1a 91 aa 3f
       0.4796105 0.02956932 0.6546494 1.3325531
000070 77 19 ae bf 55 de 13 3f bc 1a 18 3d 70 89 12 3f
       -1.3601521 0.57761127 0.03713487 0.57240963
000080 44 bf 34 bf 5c e8 15 c0 75 74 53 3f e3 7d 00 3f
       -0.7060435 -2.342307 0.82599574 0.5019209
000090 c1 a7 17 bf 88 3a a2 be 39 72 39 3f f8 db b0 bf
       -0.5924035 -0.3168528 0.72439915 -1.3817129
0000a0 17 b8 48 3f fa 62 68 3f 28 f5 0d 3e 6a c7 41 bd
       0.784059 0.90776026 0.13863051 -0.047309317
0000b0 ea 3e 71 be 44 db bf bd f9 36 a2 3f f9 33 0d be
       -0.23559156 -0.093679935 1.2673026 -0.13789357
0000c0 3d 25 32 3f 3e 5f b9 bf da 70 2d be f6 ee b8 3f
       0.6958807 -1.4482191 -0.1693758 1.4447925
0000d0 5b da e3 be 0a da 85 3c 25 32 2c bf 1d 5e 15 3f
       -0.4450253 0.01633932 -0.67264014 0.5834673
0000e0 33 1e 88 3f f3 7d 50 be a5 39 df 3e 00 b8 44 be
       1.0634216 -0.20360546 0.43598667 -0.19210815
0000f0 da ca ac 3f 85 d9 b3 be 95 bf 07 3f 11 0f ec 3e
       1.3499405 -0.35126892 0.53026706 0.46105245
000100 65 95 45 3f da 15 09 3e 7a df c0 bd 6c 15 60 bd
       0.7718108 0.13387242 -0.09417625 -0.05470793
000110 aa af 70 bd 72 0f 04 3f 79 91 39 c0 c0 12 d2 3e
       -0.058761276 0.5158607 -2.899504 0.4102993
000120 57 d1 82 be 48 c0 78 3f ee 91 c4 3f cf e4 13 bf
       -0.2555034 0.971684 1.5357034 -0.5777101
000130 71 5d 99 bf 71 a7 fd 3d 1d fb 52 3d 40 00 c5 3f
       -1.1981641 0.123854525 0.05150901 1.5390701
000140 58 aa 12 3d f0 93 12 bf 37 1e 42 3f c8 94 71 3f
       0.035806984 -0.57256985 0.75827354 0.9436765
000150 06 4c 11 bf 36 50 79 3f 54 1c 27 3c 04 84 0f be
       -0.5675663 0.9738802 0.010199625 -0.14015204
000160 f7 fc a2 3e f9 41 02 bd c3 0c b0 3f 0d 79 06 3f
       0.31833622 -0.031801198 1.3753895 0.5252846
000170 7b 48 3b 3f eb 4b d4 3e 9c 40 9f 3d ec ea 29 bf
       0.7315747 0.4146417 0.07775995 -0.6637409
000180 45 08 a4 3e 80 4e 00 be b2 ab f1 bd 5e 45 f3 be
       0.3203756 -0.12529945 -0.118003264 -0.4751386
000190 c9 ad 96 3f f3 8b a9 bf 7d 4a d2 3e 8c db 2d be
       1.1771785 -1.3245834 0.41072455 -0.16978282
0001a0 9d ac 67 be d3 11 55 3f 3c 06 39 3f eb 19 af 3e
       -0.2262444 0.8323032 0.7227514 0.3419946
0001b0 e5 d0 11 3f 4c f2 68 3f ab e8 74 be 3b 3c 0e 3f
       0.5695937 0.90994716 -0.23916881 0.55560654
0001c0 45 6a ea bd 36 1b 84 3f 89 c2 d5 3e c7 3e 94 3f
       -0.114460506 1.0320804 0.4174998 1.1581658
0001d0 56 45 58 3e c4 5b cd 3e c9 7b c6 3e d8 7e ad bd
       0.211202 0.40109074 0.38766316 -0.08471459
0001e0 d2 e2 aa 3e 91 10 1d 3f 55 b0 fa 3e 63 6f 51 3f
       0.33376175 0.61353403 0.48962656 0.8181059
0001f0 aa 14 4e 3f 10 00 58 3f 01 f5 93 3f bf 15 a4 3e
       0.8050028 0.84375095 1.1559144 0.3204784

model/activation_13/Relu;model/batch_normalization_13/FusedBatchNormV3;model/depthwise_conv2d_6/depthwise;model/depthwise_conv2d_6/BiasAdd;model/depthwise_conv2d_11/depthwise;model/depthwise_conv2d_6/BiasAdd/ReadVariableOp/resource f4 [128]
000000 d4 84 d5 3f b5 32 80 bf 8e 93 a9 bd 80 53 a3 3f
       1.6681161 -1.0015475 -0.08280097 1.2759857
000010 80 92 87 be 28 98 95 bd c8 35 e2 3c 04 70 b9 3f
       -0.26478958 -0.07304412 0.027613536 1.448731
000020 92 15 bb bd 54 72 98 3f a8 61 1f bf 49 a8 9c be
       -0.091349736 1.190989 -0.62258387 -0.3059714
000030 8d 93 ee bd 29 58 e3 3e d4 b0 bc 3f c0 f7 96 bd
       -0.11649237 0.44403198 1.4741464 -0.07371473
000040 c6 11 5b 3d 05 2a c1 3e a6 72 22 bf e2 aa 1a bf
       0.053483747 0.3772737 -0.6345619 -0.60416996
000050 8e 9c 96 bd 6d 7c df bf a1 3f b9 3d 98 f2 88 be
       -0.07354079 -1.7459847 0.090453394 -0.26747584
000060 7b c8 9b bf b8 9b 5e be c5 53 9a 3e 31 d6 87 be
       -1.2170557 -0.2173909 0.30142036 -0.26530603
000070 b2 5c 32 3c 25 b5 a8 bf 59 dc 71 be 9c 03 1d 3d
       0.010886358 -1.3180281 -0.23619212 0.03833352
000080 50 b0 1e be 5c 0f fa 3e 20 97 bb 3f 78 20 81 3f
       -0.15496945 0.48839843 1.4655495 1.0088034
000090 c3 43 55 be fa 66 93 3f 71 ff cc bf 79 60 2b bf
       -0.2082663 1.1515801 -1.6015455 -0.6694408
0000a0 c4 a5 3e bf 9d 17 cf bc 02 55 27 bf 4a 80 19 be
       -0.7447169 -0.025279814 -0.65364087 -0.14990345
0000b0 d6 40 34 bf 64 d4 11 bf 9f d8 a4 be 6a c1 0d bf
       -0.7041143 -0.5696471 -0.3219652 -0.5537325
0000c0 ba b4 49 be 77 7b 0f bf 24 7b c5 3e fc 9e 0a 40
       -0.19697848 -0.5604777 0.3857051 2.1659536
0000d0 68 70 c3 be 6f 42 a6 be de d8 24 bd 56 ea f3 3e
       -0.38171697 -0.3247256 -0.040245883 0.47639722
0000e0 30 d2 bc 3f 34 09 db be 39 fc 8f 3f fd b1 ef be
       1.4751644 -0.4278046 1.1248847 -0.46815482
0000f0 b6 57 89 3f ca e7 5d bf c3 3a 64 bf 86 fb 54 3e
       1.0729892 -0.8668181 -0.89152163 0.20799074
000100 bc f5 be bd 89 59 f8 bd 06 df e3 bd c6 e1 cd be
       -0.09324214 -0.121264525 -0.11126523 -0.40211314
000110 0e 4a f4 be 6b c0 d2 3f 3e 14 3b bf d6 df a6 be
       -0.4771275 1.6464971 -0.7307776 -0.32592648
000120 7d 34 b5 be 4a db 99 3d 74 1e 07 bd dc ce 9e 3d
       -0.35391608 0.07512529 -0.032988027 0.07754299
000130 c8 99 96 bc b7 3d 3d bf 20 ea 11 bc 7f ae f2 3f
       -0.018383875 -0.73922294 -0.008905917 1.8959502
000140 f4 01 ab be 20 ef c6 3b b0 85 43 3e 1c 94 35 be
       -0.33399928 0.0060709864 0.19093966 -0.1773228
000150 92 6f 3b bf 1e d6 4c be 16 62 d9 be 05 48 13 bf
       -0.7321712 -0.20003554 -0.42457646 -0.5753177
000160 90 2a ef 3e c1 b5 1b bf 0b df 01 40 5e d9 35 3e
       0.4671216 -0.6082421 2.0292385 0.177587
000170 09 e9 3a bf 43 53 b9 3f 50 79 fc bc 72 0d 4e 3f
       -0.73011833 1.4478534 -0.030819565 0.80489266
000180 74 5a 1b be 84 3a 4c bf d5 e0 d5 be 1b 29 89 bd
       -0.15171224 -0.7977679 -0.41773096 -0.06697293
000190 d8 21 dd bd 85 c1 16 be 2f 6e f4 3f dc 76 06 bf
       -0.10797471 -0.1472226 1.9096125 -0.52525115
0001a0 52 4c 04 bf 7b 66 9e be 5f 7c 12 3e 8b 40 9f bd
       -0.51678956 -0.3093756 0.14305256 -0.077759825
0001b0 2a 6a 66 be ee 56 f7 bd 30 73 c9 be fa d4 05 3e
       -0.22501436 -0.120771274 -0.39345694 0.13069525
0001c0 f7 9c ad 3d f3 48 c9 be 60 42 67 bc 28 b1 15 be
       0.08477204 -0.39313468 -0.014114946 -0.14618361
0001d0 34 42 ad 3e cf 10 aa 3f d2 49 f7 be d5 85 5a bf
       0.3383957 1.328638 -0.48298508 -0.8536046
0001e0 6d a6 2e 3e ba 35 87 bd 37 eb d0 bd 2c c5 b9 bd
       0.17055674 -0.066020444 -0.10201114 -0.09070811
0001f0 93 f9 65 bf 8e 03 a0 3e d0 aa 20 3c 3b 89 74 be
       -0.89833945 0.31252712 0.00980635 -0.23880474

model/batch_normalization_13/FusedBatchNormV3;model/depthwise_conv2d_6/depthwise;model/depthwise_conv2d_6/BiasAdd;model/depthwise_conv2d_11/depthwise;model/depthwise_conv2d_6/BiasAdd/ReadVariableOp/resource f4 [1, 3, 3, 128]
000000 d4 c6 62 bf 41 d2 2e bf 51 ff 90 3f 18 82 18 3d
       -0.8858464 -0.6828957 1.1327916 0.037233442
000010 d9 c0 ed 3d 78 6c aa be 8e 85 f7 3d 90 af 93 3e
       0.116090484 -0.3328588 0.120860204 0.2884488
000020 a4 4e 1c 3f 94 d6 2a bf 3f c9 ed 3f ea 2b 4a be
       0.61057496 -0.6673367 1.857704 -0.19743314
000030 e5 d4 c6 bd 16 d6 0a bf 30 57 84 bf 23 db 4b 3f
       -0.09708575 -0.5423292 -1.0339108 0.7963125
000040 68 0c 56 be 6c e4 a1 bc c4 03 c4 3d 50 04 82 3e
       -0.2090317 -0.01976224 0.09571031 0.25393915
000050 5b 4f 2c be 87 bd 40 3e e5 17 52 bf 0c e5 16 c0
       -0.16827147 0.18822299 -0.8206771 -2.35773
000060 78 75 12 3e b0 df 69 3c ce 05 59 be e3 69 32 3f
       0.14302623 0.014274523 -0.2119362 0.6969282
000070 39 62 11 3f 92 d3 e7 be 82 26 6e bf b9 a2 6e 3f
       0.567905 -0.45278603 -0.9302751 0.93217045
000080 68 1b 23 bf ca 96 e3 bd 1e 07 0e bf f6 d9 c0 bd
       -0.63713694 -0.11112745 -0.5547961 -0.09416573
000090 98 3c e6 be 6e 9e bc be e3 94 8b bc 92 9a 48 3c
       -0.44968104 -0.36839622 -0.017038768 0.012243884
0000a0 a6 76 e8 3e 25 4b ce bd 6f c2 72 be 76 cb 28 bf
       0.45403022 -0.100729264 -0.23706983 -0.65935457
0000b0 c0 b1 c9 c0 51 3a c8 bd 5e d1 8f 3f 21 e7 18 bd
       -6.302948 -0.09776748 1.1235769 -0.037329797
0000c0 29 bb 02 be ec 1e 5e 3f ec ce 03 be 5f b8 b1 be
       -0.12766708 0.86765933 -0.12871903 -0.34710976
0000d0 f3 ed 8f be 02 c7 20 c0 25 f2 4e 3f 7c 3a 72 3d
       -0.28111228 -2.5121465 0.80838233 0.059137806
0000e0 a9 b9 94 be f6 b2 cf 3e db 92 1f bf 15 34 90 3e
       -0.29047897 0.40566224 -0.6233346 0.28164735
0000f0 be 18 08 bf cd d5 75 3f 20 f5 50 bf c2 3d 95 3e
       -0.53162754 0.9602936 -0.8162403 0.2914868
000100 e9 dc c5 be 66 6d 69 be 4b 56 a7 3e 8a 91 bb bf
       -0.38645104 -0.22795638 0.32683024 -1.465379
000110 a0 95 ad 3f dc 3c ef 3d 7a 8f cb 3d 47 76 b3 bf
       1.3561287 0.1168153 0.09939475 -1.402047
000120 92 3a 08 c0 d4 4b 10 c0 07 66 8e 3e cb a3 a9 3e
       -2.1285748 -2.2546282 0.27812216 0.33132777
000130 8d 5f 82 be 48 af 19 3f 51 b1 dc c0 a3 09 a4 be
       -0.25463524 0.6003308 -6.896645 -0.32038602
000140 ed 5f 2c 3f f4 47 c1 be f8 3d 9d bf ee 97 8f be
       0.6733387 -0.37750208 -1.2284536 -0.280456
000150 72 a5 b9 3f 55 eb 55 bf a1 0a 6f bc 03 d7 d5 c0
       1.4503615 -0.83562213 -0.0145899365 -6.6824965
000160 b5 c6 f1 3e f0 cc fa be 1a 0a 81 be 4a f7 05 be
       0.47221914 -0.4898448 -0.2520302 -0.13082615
000170 cf 03 4e 3e df 4e b7 be 89 a5 fb 3d 65 22 17 3e
       0.2011864 -0.3580236 0.12287433 0.14759214
000180 b7 a3 24 be 46 e5 e3 c0 a0 7c 99 c0 b3 c2 1e 3e
       -0.16078077 -7.1217375 -4.796463 0.1550396
000190 aa 15 9a be b6 53 92 3e e7 11 89 bc ab b2 b3 bf
       -0.30094653 0.2857949 -0.01673217 -1.40389
0001a0 43 70 ad bf ae b2 24 3f 07 0a 18 bf e1 66 b9 3e
       -1.3549885 0.64335144 -0.593903 0.36211303
0001b0 9f bb 8d be 23 a1 6f bf 54 82 65 3f b0 df 4c bf
       -0.27682206 -0.9360525 0.8965199 -0.8002882
0001c0 d1 62 34 bf 09 aa 1b 3f e6 39 05 bf 56 57 2d be
       -0.7046328 0.6080633 -0.5204147 -0.16927847
0001d0 95 d7 14 bf dd 0e 38 bf 6e 26 b9 be 16 47 82 3e
       -0.5814145 -0.7189768 -0.36162132 0.2544486
0001e0 7e 8e 48 3f b5 4b d6 be 15 0c f8 3d 2b 40 6f be
       0.78342426 -0.41854635 0.121116795 -0.23364322
0001f0 ac 84 28 be e8 11 02 c0 b3 f0 5b bf 91 c6 95 be
       -0.1645686 -2.032343 -0.8591415 -0.29253057
000200 58 fa 48 be 88 86 4d 3f 4a 89 b4 3e 0f 43 e7 be
       -0.19626749 0.80283403 0.35260993 -0.4516835
000210 01 47 0e 3e f7 75 36 bf 58 77 90 be 9a 73 08 3f
       0.13894273 -0.7127375 -0.28216052 0.53301394
000220 73 19 27 3f 88 7c a7 be 0f b8 cc bd 8b 05 15 3f
       0.6527321 -0.32712197 -0.09996044 0.5821158
000230 ab 11 20 bf 5a cc 83 be 0d 88 14 bf 54 89 3a 3f
       -0.6252696 -0.25741845 -0.58020097 0.72865796
000240 11 ec 58 bf 18 ce 95 bf c9 6e 9b 3d 80 42 66 bf
       -0.8473521 -1.170352 0.0758949 -0.8994522
000250 04 24 3e bd 32 c4 15 3f e5 9d 0e be 29 4e 11 c0
       -0.046421066 0.58502495 -0.1392742 -2.2703955
000260 45 66 6d bb 8c 58 89 bf c5 b0 3a 3e a1 61 12 3d
       -0.0036224287 -1.0730147 0.18231495 0.035737637
000270 6e 5f 03 3f f3 5f 07 bf f5 ce 61 3f 1b ef d3 be
       0.5131749 -0.5288078 0.88206416 -0.4139336
000280 52 90 59 3e e6 d8 71 be f8 97 8f bf 7e 82 0c 3f
       0.2124646 -0.23617896 -1.1218252 0.54886615
000290 a5 0b 61 3c 97 0b 74 be a3 fb d9 3e 7a 41 ec 3e
       0.013735686 -0.23832546 0.42574796 0.46143705
0002a0 45 4c f7 3c 87 3b fc be dd 3c ec bc d5 8a f0 be
       0.030187735 -0.49264166 -0.028837616 -0.4698092
0002b0 ca 5b 03 c1 79 a2 ab 3f 3f 38 73 3b 87 30 4e bd
       -8.209909 1.3408958 0.0037112383 -0.050339248
0002c0 8a 8c 93 be 92 f8 15 bf 9c dd 71 bf 73 47 9d be
       -0.2881816 -0.58582413 -0.94478774 -0.30718574
0002d0 b7 51 40 3e 84 18 07 3f b1 39 75 be a9 a4 f6 bd
       0.18781172 0.5277178 -0.23947789 -0.12043125
0002e0 a8 48 01 be 62 37 76 bf 3f 37 78 bf 1e 30 bb c0
       -0.12625372 -0.9617826 -0.969593 -5.8496237
0002f0 15 94 09 bf 00 29 48 3e c6 02 60 be 49 75 93 be
       -0.5374158 0.1954689 -0.21876058 -0.2880042
000300 25 ef 85 3f d2 4d c1 3d 48 97 3e bf 2d 5c 1e 3f
       1.0463606 0.09438671 -0.74449587 0.618594
000310 e8 78 45 bf 64 46 01 bf d5 2f dd 3e a2 9b 8b bf
       -0.77137613 -0.5049803 0.43200555 -1.090687
000320 ca f6 4e 3d f1 3b c2 3f 93 6b 3d bf fc 68 20 bf
       0.050528325 1.5174543 -0.7399227 -0.62660193
000330 7c 40 58 be e2 d9 17 bf ec fa 4b c0 e3 f3 fc 3c
       -0.21118349 -0.5931684 -3.18719 0.030878013
000340 70 60 24 bf 54 23 a7 be 3a c1 81 be 48 6c 9f 3f
       -0.6420965 -0.3264414 -0.25342733 1.245492
000350 53 a8 6c 3e 5e d0 9e bf 51 bd e9 3e d1 ba f9 3f
       0.23111086 -1.2407339 0.4565225 1.9510137
000360 94 55 5e 3c 84 e9 a4 3e 5d 64 f5 bd 26 c1 64 3e
       0.013570208 0.32209408 -0.119820334 0.22339305
000370 de 98 85 3d d3 91 89 be d3 32 51 be b0 44 2a bf
       0.06523298 -0.26869068 -0.20429544 -0.6651106
000380 1b bc bb be 95 6f 32 3f 8b 60 90 bd c9 7d c6 bf
       -0.3666695 0.6970151 -0.07049664 -1.5507137
000390 e5 56 87 3e d5 20 59 bd 0c 7e a3 be f1 70 7a c0
       0.26433483 -0.053009827 -0.31932104 -3.9131434
0003a0 2b 41 3e c0 b9 8c ff 3e c9 f3 0a bf 9a 67 34 3f
       -2.9727275 0.4991205 -0.54278237 0.70470583
0003b0 1e 64 17 3f 47 2c 54 be 71 7a 51 bf a8 5d c3 3e
       0.5913714 -0.20720015 -0.81827456 0.38157392
0003c0 d3 39 43 bf b5 2f d8 3e 41 07 22 3f 26 51 ac bf
       -0.7626011 0.42223898 0.6329232 -1.3462265
0003d0 22 b1 d6 be 3c 71 b2 bd 0b 2c 9b 3f fa 60 8a 3f
       -0.41932017 -0.08713004 1.2122816 1.0810845
0003e0 bd a6 a4 3e 46 58 f5 be cf 75 e4 3e d3 e6 59 bf
       0.3215846 -0.4791891 0.4462113 -0.85117835
0003f0 45 e2 0b be 35 e9 9f be 9e e1 05 bf 5a f7 37 3d
       -0.13660534 -0.3123261 -0.5229739 0.044913627

model/activation_14/Relu;model/batch_normalization_14/FusedBatchNormV3;model/conv2d_7/BiasAdd/ReadVariableOp/resource;model/conv2d_7/BiasAdd;model/depthwise_conv2d_11/depthwise;model/conv2d_7/Conv2D f4 [128]
000000 99 bb 95 bd 81 c2 ee be 24 e0 d1 3e f0 e7 35 3f
       -0.07311172 -0.4663277 0.40991318 0.71057034
000010 3c 17 d3 be 30 67 c0 bb 59 8a 12 3f 25 5a a0 bf
       -0.41228664 -0.005871676 0.5724235 -1.252751
000020 8a 28 8a 3f 8f a1 a7 3e 48 6f f2 bd 09 a4 73 3d
       1.0793622 0.32740447 -0.118376315 0.059482608
000030 40 6a e5 bd 9a e7 54 be 8b 55 83 be af c4 5d bf
       -0.11201906 -0.20791474 -0.25651202 -0.8662824
000040 0e 97 aa bf d2 9f 7a bc 7d 50 ad bd b4 52 7d bf
       -1.3327348 -0.015296893 -0.084626175 -0.9895432
000050 1e 83 1b be 49 67 91 3f 1e 5b eb bd fd c0 38 be
       -0.15186736 1.1359645 -0.114919886 -0.18042369
000060 e0 9d 30 3a c9 8b 68 3f 80 9e 8a bd 2b 1d 2f bd
       0.00067373924 0.90838295 -0.06768513 -0.042752426
000070 48 98 85 3c f1 fb 09 be 4e 1e 3b 3f 76 eb 1f c0
       0.016307965 -0.13475014 0.73093116 -2.4987464
000080 9f 73 d2 be 54 99 c0 3e 48 24 a7 3d 28 f5 9c bf
       -0.41103837 0.3761698 0.08161217 -1.2262316
000090 bb 4d 41 bd 98 9b 11 c0 1b 2e 9b be 87 6e 5b 3f
       -0.04719327 -2.2751217 -0.30308613 0.85715526
0000a0 0c 3d bf bc 84 37 86 3f cb 95 f7 bd 7d 0a 34 3f
       -0.02334454 1.0485692 -0.120891176 0.70328504
0000b0 26 1f c6 3d 22 b1 ad be db bc 15 bf d8 52 38 be
       0.0967391 -0.33924204 -0.58491296 -0.18000352
0000c0 ce 64 5c bf 84 f2 2a 3c 69 3e 2b 3f ea cf 53 be
       -0.86091316 0.010433797 0.66892105 -0.20684782
0000d0 d8 7e e9 bc 72 f8 7f 3e 3b a9 8d bd 2a 6e 7f be
       -0.028502867 0.24997118 -0.06917044 -0.24944368
0000e0 78 dc 1e be d5 b7 3d be 35 bb 93 3c 08 d1 17 3e
       -0.1551379 -0.18527158 0.018033603 0.14825833
0000f0 28 04 84 bf f3 8a 8c 3d 48 fd a9 3e c8 a0 16 3d
       -1.0313768 0.0686244 0.3320105 0.036774427
000100 d3 17 ba 3e 97 87 ba 3d e2 fd b4 bf 30 9c 7e 3f
       0.363463 0.09107893 -1.4139979 0.99457073
000110 81 07 94 bf 45 4e 79 bd b2 f6 d4 3e 89 d3 50 be
       -1.156479 -0.06086566 0.41594464 -0.20393194
000120 98 fa 59 be b5 67 f5 3d 1a 1e 9a bd fe 9d 8d bd
       -0.21287 0.11982671 -0.07525273 -0.069149
000130 20 e6 ab 3d 94 4c f6 bd bf 25 45 3f f2 b7 52 bc
       0.08393502 -0.12026325 0.7701072 -0.012861239
000140 83 35 2b 3f 7a 87 40 3c b5 9a 7d be 4c 0a e5 3c
       0.6687853 0.01175105 -0.24766047 0.027959011
000150 9c 7e 4a 3e 54 f1 1d 3d be c7 10 be 30 d5 56 bd
       0.1977486 0.038560227 -0.14138696 -0.052449405
000160 5c 3a 74 be 68 51 0c be 8b 9b b9 bd 17 c0 07 be
       -0.23850387 -0.13702929 -0.090628706 -0.1325687
000170 c5 cd 4c be 22 85 b5 bf 8d 41 63 bf 37 07 ef bd
       -0.2000037 -1.4181254 -0.887719 -0.11671298
000180 6f 32 52 3f ad 8c a1 3e 0a a3 74 3d 22 a8 57 bd
       0.82108206 0.3155264 0.0597258 -0.05265058
000190 d6 2c 29 3f 07 e4 17 3f 6a 2d d6 3d 8c 8f ae 3f
       0.6608404 0.5933232 0.10457881 1.3637557
0001a0 51 24 be bd 4c bd 5d 3f 96 fc c1 bd f4 7c d3 3d
       -0.092842706 0.8661697 -0.09472005 0.10326567
0001b0 f0 e6 5e bd 16 07 04 bd ce ce 8b bd 3d 4f dc bc
       -0.054419458 -0.03223332 -0.06826554 -0.026893253
0001c0 d8 29 37 bd cb 4f 13 be 87 da 6f be a0 16 ca 3c
       -0.04471764 -0.14385907 -0.23423205 0.024668992
0001d0 dd 48 e1 3e f4 51 0b 3d 50 48 ce bc 70 d3 9a 3d
       0.44000903 0.034013703 -0.025180966 0.0755986
0001e0 1c 4b a5 bd c6 7b 88 be 82 f0 88 3d f9 87 67 bf
       -0.080709666 -0.26656932 0.06686498 -0.9044185
0001f0 63 70 68 bf fe 56 c8 bd 7f 4b 55 be a0 b2 1e 3e
       -0.9079649 -0.097822174 -0.2082958 0.15497828

model/activation_15/Relu;model/batch_normalization_15/FusedBatchNormV3;model/depthwise_conv2d_7/depthwise;model/depthwise_conv2d_7/BiasAdd;model/depthwise_conv2d_11/depthwise;model/depthwise_conv2d_7/BiasAdd/ReadVariableOp/resource f4 [128]
000000 34 e4 c9 be fa 28 c6 be e4 96 2a be e2 2f a9 bd
       -0.39431918 -0.38703138 -0.16659123 -0.08261086
000010 d5 00 9c be 43 21 e8 be 47 08 13 be 04 75 8f bf
       -0.30469385 -0.45337877 -0.14358626 -1.1207585
000020 9d 83 81 bf 00 bb 0d bf 61 2d 11 bf 6b 4f 8c be
       -1.011829 -0.55363464 -0.5670987 -0.2740434
000030 c0 80 c8 be b2 d0 03 bf 2d 96 0b bf fe a5 62 be
       -0.39160728 -0.5149032 -0.54526025 -0.22133633
000040 f2 ad ab bf 73 64 c3 be cc 76 b1 be bf be 16 3d
       -1.3412459 -0.38162574 -0.34660947 0.036803003
000050 db 10 d4 be 9e 21 5f bf 7d 38 e7 be 94 fe bf be
       -0.4141911 -0.8716067 -0.45160285 -0.37498915
000060 32 b7 e8 be 66 c7 1e bf 2d 01 b3 be 31 52 c6 be
       -0.45452267 -0.6202301 -0.34961835 -0.38734582
000070 78 0a a9 be 0c 3c c2 be e5 78 b9 be 10 4d 8a be
       -0.330158 -0.37936437 -0.36225048 -0.2701192
000080 52 0d 39 bf 9e 08 33 bf f2 b7 32 be ee 2f 5e bf
       -0.7228595 -0.69935024 -0.17452982 -0.86791885
000090 f9 d0 b3 be 76 4d 33 bf ca 0e 36 bf 49 9c 7a 3f
       -0.3512037 -0.7004007 -0.71116316 0.9789472
0000a0 47 94 eb be d4 21 97 bf 24 d0 ff be 9e a7 82 bf
       -0.46011564 -1.1807199 -0.49963486 -1.0207403
0000b0 cc 17 1d bc f2 f4 83 be 4f 39 98 3e 2c 28 ab be
       -0.009588193 -0.25772816 0.29731223 -0.33429086
0000c0 93 45 22 3f 00 b3 b5 be 0a cb 2b 3d 37 e6 ee be
       0.6338741 -0.3548813 0.04194168 -0.46660015
0000d0 b2 4b 0a bf e8 60 8f bd 46 40 8e 3d ed 8c c6 be
       -0.5402175 -0.07000905 0.06945853 -0.38779393
0000e0 6c 0e f2 be 42 e2 e1 be 56 4c 4c bf 58 ba 72 3c
       -0.47276628 -0.44117934 -0.7980398 0.014814936
0000f0 58 32 bb bd 4a db 26 bf 98 59 ca 3d 40 97 8e 3c
       -0.09140462 -0.6517836 0.0988037 0.017406106
000100 29 19 38 bf 86 18 a1 3d 66 d9 18 bf 81 82 8c 3f
       -0.7191339 0.078660056 -0.59706724 1.0977327
000110 ae 36 6c bf cd 2d f1 be 75 75 7d be 3c 72 cb be
       -0.92270935 -0.47105256 -0.24751838 -0.3973559
000120 b9 ab 94 be ca a9 f2 3c b3 34 2d bf f1 9c e4 be
       -0.29037264 0.029621977 -0.6765854 -0.44650987
000130 52 84 b9 3c e7 ab 08 bf c3 11 48 bf 68 0f bd be
       0.022646103 -0.533873 -0.781521 -0.36925817
000140 e3 2c 72 bf 19 27 8f be de ef 58 be 7d b9 39 be
       -0.9459974 -0.27959517 -0.21185252 -0.18137164
000150 17 d3 f0 3e 7a f5 0a bd 7a 5a c0 be c2 51 c2 be
       0.4703605 -0.03392551 -0.37569028 -0.37953
000160 94 83 c7 be 9a f3 d5 be fa c1 e0 be 1c dd b0 be
       -0.38967574 -0.41787416 -0.43897992 -0.34543693
000170 7b 69 5e bf 44 78 4d 3e 81 55 1f bd 98 dc ba be
       -0.868797 0.20065409 -0.038899902 -0.36496425
000180 d6 89 93 bf 67 d6 c3 be 9c e6 f0 3b 6a c2 b5 be
       -1.1526439 -0.38249514 0.0073517095 -0.3549989
000190 d0 86 19 bf 22 f0 1a 3e b0 c5 da 3d 9b 35 7f bf
       -0.5997133 0.15130666 0.10682237 -0.9969117
0001a0 4b aa 15 bf 0a a8 87 bf 78 1d d5 be c7 ab 6d be
       -0.5846297 -1.0598156 -0.41624045 -0.23210059
0001b0 e2 03 dd be 51 cd a1 be b4 f0 06 bf c0 2b cf be
       -0.43167025 -0.31601956 -0.52711034 -0.40463066
0001c0 3a 0b 1d bf 30 5a 15 bf 5c 18 ca be a0 63 77 be
       -0.61345255 -0.5834074 -0.3947171 -0.24159098
0001d0 2c 70 3c be a0 c0 9c bd 16 94 cb be b1 f9 78 3e
       -0.18402165 -0.07653928 -0.39761418 0.24314
0001e0 be de 87 be 0f b7 03 bf e0 84 9d 3c 78 10 cd bc
       -0.26537126 -0.514512 0.019228399 -0.025032267
0001f0 7e 7a 1c bf 18 e9 0f bf 94 93 e8 be ba f6 39 bf
       -0.6112441 -0.5621505 -0.45425093 -0.726421

model/batch_normalization_15/FusedBatchNormV3;model/depthwise_conv2d_7/depthwise;model/depthwise_conv2d_7/BiasAdd;model/depthwise_conv2d_11/depthwise;model/depthwise_conv2d_7/BiasAdd/ReadVariableOp/resource f4 [1, 3, 3, 128]
000000 9b a4 1d bf 62 db ae be d3 ce eb bd 96 5c 2e 3f
       -0.61579293 -0.3415175 -0.11514058 0.68110025
000010 94 09 3a 3d 3c 87 5c bf b2 12 3b 3b e9 3a 6a be
       0.04541929 -0.8614385 0.0028545079 -0.22874035
000020 ce d7 0d bf 19 6a 94 3f 53 be 64 c0 56 41 c6 3f
       -0.55407417 1.1594878 -3.5741165 1.5488689
000030 50 45 d8 c0 00 cf 00 c1 1d f4 10 3f b8 fb 4b 3f
       -6.758461 -8.050537 0.5662249 0.7968097
000040 4e 41 ce be 1e b9 6d be c2 85 3a c0 8d 74 78 3f
       -0.402842 -0.23215148 -2.914414 0.9705284
000050 bd c3 08 3f 4e cd ff 3e a1 69 d1 bf 0b dc af bf
       0.5342367 0.49961323 -1.636036 -1.3739027
000060 86 98 cf c0 6d ae 39 3d 87 5e 47 bf 07 30 c9 bf
       -6.4873686 0.04533236 -0.7787861 -1.5717782
000070 31 6c 77 bf 72 ac 76 3f ca d7 05 3f c8 7b 00 3f
       -0.9664946 0.9635688 0.5228239 0.50188875
000080 4b 7e a5 bd 6d 3b 43 bf 3c 0f 7f 3e 08 d0 5d 3f
       -0.08080729 -0.7626255 0.24908155 0.86645555
000090 b1 1f 92 3e 3b 67 e4 be d0 4c f6 3d 0c e7 92 bf
       0.28539804 -0.4461001 0.120263696 -1.147676
0000a0 f2 91 f1 c0 c9 36 8b 3f e9 da b7 bf c4 74 46 3f
       -7.5490656 1.0876094 -1.4363681 0.7752192
0000b0 c5 1d 5f c0 8c d7 48 be 22 fc cf be 44 a4 43 c0
       -3.486192 -0.19613475 -0.4062205 -3.056901
0000c0 65 a5 d2 be 60 77 dd bf 44 1c f8 bd 3e b7 59 be
       -0.4114181 -1.7302055 -0.12114766 -0.21261308
0000d0 f5 a3 bf c0 dd 4d ee be c9 38 c2 3e 03 00 2d bf
       -5.9887643 -0.4654378 0.3793395 -0.6757814
0000e0 4c 23 ca be 6a 6a d1 bf 30 c0 89 bf c3 8a 56 c0
       -0.39480054 -1.63606 -1.0761776 -3.3522193
0000f0 a9 75 83 bf 59 da 56 3d b6 71 2a bf bb b4 af c0
       -1.0270282 0.052454326 -0.6657976 -5.490812
000100 c3 d8 41 be 61 39 7c c0 bc ef a6 3e f5 79 91 bd
       -0.18930344 -3.9410021 0.32604778 -0.071033396
000110 70 a3 b7 3f 09 eb ee c0 2b 9f 35 3f aa 61 16 c0
       1.4346752 -7.466191 0.70945996 -2.349711
000120 ba c1 a2 bf b2 f8 22 bf e3 95 f1 c0 45 2d 20 c0
       -1.2715371 -0.6366073 -7.5495467 -2.502763
000130 a4 c2 9b c0 ef e7 9b c0 05 4b 2f be fa c2 09 bf
       -4.86751 -4.872062 -0.17118461 -0.53813136
000140 10 e4 96 3f b0 47 8b bf e5 56 7c be 92 37 b5 c0
       1.1788349 -1.0881252 -0.24642523 -5.6630335
000150 37 29 4e 3f 86 38 f2 c0 37 f9 8b 3e 79 63 23 bf
       0.8053164 -7.5694 0.27338573 -0.6382366
000160 f1 7d 3e c0 f6 73 1c c0 d8 e1 2e c0 12 2d 9b c0
       -2.9764369 -2.4445777 -2.7325344 -4.8492517
000170 27 92 ae bc bb f1 42 3e 09 5e 90 3e 27 8e b2 c0
       -0.021309925 0.19037525 0.28196743 -5.5798526
000180 6a 5e e6 3e ff bb 6f 3e 83 4b e1 bf 60 0f 9d c0
       0.44993907 0.23411559 -1.7601169 -4.908127
000190 01 11 49 be 63 c1 68 bf 2d a2 8d 3e 94 ab 97 3e
       -0.19635393 -0.90920085 0.27662793 0.2962309
0001a0 d5 25 f5 c0 40 96 74 3f 44 44 1f 3f f1 5b 8b 3e
       -7.660868 0.95541763 0.6221354 0.27218583
0001b0 69 d2 96 c0 e4 fa 55 bf 2e 7e 6f 3f bb b9 df c0
       -4.713185 -0.83585954 0.9355191 -6.991422
0001c0 c9 45 7d bf 61 26 82 c0 58 54 32 bf a0 fc 41 be
       -0.9893461 -4.067185 -0.6965995 -0.18944025
0001d0 9b 9d 33 bf ee c8 6b bf 36 08 cc c0 5e 33 e1 bd
       -0.7016236 -0.9210347 -6.3760023 -0.10996126
0001e0 f8 29 77 c0 8e 1d 9c be c9 94 d8 3e f5 aa 3a be
       -3.8619366 -0.30491298 0.42301014 -0.18229277
0001f0 e5 c0 6f be 7a dd f5 c0 a1 7b fa 3e ad 8d 75 3f
       -0.23413427 -7.6832857 0.48922446 0.95919305
000200 83 ca 2b bf c9 69 03 bf b0 10 4d 3e e9 48 f2 3e
       -0.67105883 -0.5133329 0.20025897 0.4732125
000210 ad 4e 6c 3e 79 a0 65 3f cd 71 d1 3e 8a 58 16 be
       0.23076887 0.89697987 0.40907136 -0.14682212
000220 18 03 7b be ed a6 5e be 85 5f 84 c0 e2 2f 20 3e
       -0.24512899 -0.21743365 -4.13666 0.15643266
000230 c3 7c 54 3f 1f 41 b5 c0 09 1d 62 3f 66 6f 02 be
       0.8300287 -5.6641994 0.88325554 -0.12737808
000240 b8 3c cf 3c ff eb e9 3e 24 af f7 bf 58 a5 aa 3f
       0.025297508 0.45687863 -1.9350324 1.3331709
000250 bc dc 30 bf eb 28 4a 3e f3 6b 8f bb e7 12 c5 c0
       -0.69086814 0.19742171 -0.004376882 -6.1585574
000260 d4 a2 ae c0 dc 09 b5 3e 1d 4b 61 bd 09 16 59 c0
       -5.4573765 0.35359085 -0.055003274 -3.39197
000270 d4 c3 d4 c0 d5 5b ce c0 13 c7 2c 3f f9 e9 d7 3e
       -6.648905 -6.44871 0.67491263 0.42170694
000280 ea ff 2f 3e d1 ec 0f 3f a9 bd 62 3f 12 bd 95 3e
       0.17187467 0.5622073 0.8857065 0.29245812
000290 3b 2a 25 3f 13 57 20 bf 2c f0 99 be 58 4b 55 3e
       0.64517564 -0.62632865 -0.3006605 0.20829523
0002a0 01 7d ce c0 97 1b 24 3e db ec b8 3f 4d 58 a8 3e
       -6.4527593 0.1602615 1.4447283 0.32879868
0002b0 b0 68 55 c0 74 66 87 bf a6 df 7d bd 01 f3 07 c0
       -3.3345146 -1.0578141 -0.061980866 -2.1242068
0002c0 3c 27 24 bf 71 63 3b 3f 12 94 28 3e 4e 5f 35 bf
       -0.64122367 0.7319861 0.16462734 -0.7084855
0002d0 7e cd b4 c0 bd 69 78 3d 64 b0 99 be b7 fc 9b bf
       -5.6500845 0.060647715 -0.30017388 -1.2186497
0002e0 eb 15 78 bf c4 42 71 bf 44 91 a6 be 97 e1 15 be
       -0.96908444 -0.942425 -0.32532704 -0.14636837
0002f0 e7 3b 07 be 9e ad 14 be b9 fb a4 be 00 37 a3 c0
       -0.13206445 -0.14519355 -0.322233 -5.100464
000300 8b 69 d8 bd ff 95 30 3e 76 8d 45 bc 73 c9 8c bd
       -0.10567006 0.17244719 -0.012057653 -0.06874361
000310 49 cd 9a 3f f6 47 9b bf 1a c6 2f 3e 55 6b e4 3e
       1.2093898 -1.2131336 0.17165413 0.44613138
000320 aa a9 c5 be ed ec 8d 3e fb 09 c4 c0 63 bd 1e 3f
       -0.38606006 0.27719823 -6.1262183 0.6200773
000330 b4 b7 d7 bf 8b 38 9f 3e de 58 c4 be 44 8e 98 3e
       -1.6852937 0.31097826 -0.3834905 0.2979604
000340 db 27 64 be 66 a2 40 c0 65 2f 4e 3e ef 57 84 c0
       -0.22280829 -3.009912 0.20135267 -4.135734
000350 9f 65 fb bf 96 f2 f4 be 50 30 e9 bf 64 27 68 3f
       -1.9640387 -0.47841328 -1.8217869 0.90685105
000360 64 5e 9e c0 c8 ca b9 3f 04 a4 60 3f 91 d1 ab bd
       -4.9490223 1.4515009 0.8775027 -0.08389581
000370 0e c1 4c be d1 91 47 be b8 fb 94 3f 4b 6a 97 3e
       -0.1999552 -0.19489218 1.1639318 0.29573283
000380 58 e3 0d 3f ca 74 46 3e 54 2f ad 3e 68 ea f4 bf
       0.55425024 0.19380489 0.3382517 -1.9134035
000390 59 e0 05 bf 04 f5 c3 bc 7c a4 01 c0 5c e2 f9 bc
       -0.5229545 -0.023920543 -2.0256643 -0.030503444
0003a0 6b 1a 68 c0 6e 5b 06 3f 8c c2 bf 3b 1b 32 38 bd
       -3.6266124 0.5248326 0.005852049 -0.04496966
0003b0 60 7d 2a bf 93 81 35 3f bc 7c 3d c0 a5 60 8c 3f
       -0.6659756 0.7090084 -2.9607382 1.0966994
0003c0 f6 9e f0 3f 79 70 8d 3b 44 b0 fb be a3 78 24 c0
       1.8798511 0.0043163863 -0.49157917 -2.569863
0003d0 1c c0 b4 3d 50 41 bc c0 99 01 50 c0 ae 7a 7a 3f
       0.088257045 -5.8829727 -3.2500975 0.97843444
0003e0 3c 0f 63 be a3 61 24 3e de 87 92 be e3 bd e7 3e
       -0.2217378 0.1605287 -0.28619283 0.4526206
0003f0 ab a1 d8 3a 33 95 d0 c0 3f 57 9c bf 2d 53 09 3f
       0.0016527673 -6.518213 -1.2214125 0.5364254

model/activation_16/Relu;model/batch_normalization_16/FusedBatchNormV3;model/conv2d_8/BiasAdd/ReadVariableOp/resource;model/conv2d_8/BiasAdd;model/depthwise_conv2d_11/depthwise;model/conv2d_8/Conv2D f4 [128]
000000 25 ea 5d 3d 8f f0 47 bd 6b 19 1c be 27 ef ae 3c
       0.054178376 -0.0488134 -0.15244071 0.021354271
000010 f6 0d 2b be 50 38 c3 bc c0 ff 08 be 75 09 69 3e
       -0.16704544 -0.023830563 -0.13378811 0.22757514
000020 72 24 5a be 87 19 b4 be e9 85 9a bd fe 29 5f be
       -0.21302965 -0.35175726 -0.075450726 -0.21793362
000030 02 cc a0 bd 3a 94 3a 3d bc 86 5e bf 14 f6 cc 3e
       -0.078514114 0.045551516 -0.8692434 0.40031493
000040 b6 d0 22 3f bc 8d 0e bd 6b 60 da bd c8 f6 d2 bd
       0.6359972 -0.034803137 -0.106629215 -0.10300976
000050 21 89 40 be be c1 87 be 4a d5 8a bd 2c 9d a7 be
       -0.1880231 -0.26515 -0.06778963 -0.327371
000060 aa 1b 72 be 96 35 19 be a3 0c ff bd 72 35 3b be
       -0.23643366 -0.14961848 -0.12453582 -0.18282107
000070 2e 1f 71 be d0 79 52 be 2a 32 4c be e3 f5 00 3f
       -0.2354705 -0.2055428 -0.19941011 0.50375193
000080 d7 f5 26 be 28 96 35 be 37 6b 96 3f e4 ee b7 be
       -0.16304718 -0.17733061 1.1751469 -0.35924447
000090 96 eb 0e be 91 b4 18 be 4a 79 f4 be 39 2e a8 be
       -0.13957056 -0.1491263 -0.47748786 -0.32847765
0000a0 54 85 06 bc 3c fa ec 3b 90 a5 85 bc 54 c8 44 be
       -0.008210499 0.0072319787 -0.016314298 -0.19217044
0000b0 42 06 07 bd 64 5c 0c be 96 16 7d bd c8 65 70 3c
       -0.032964952 -0.13707119 -0.061789118 0.014672704
0000c0 0f 44 3f 3f f3 1c bd bd 71 bf 56 3f c7 d6 28 bc
       0.74713224 -0.09234037 0.83885866 -0.010305113
0000d0 8c 64 45 be 21 c9 e8 bd 80 b0 b9 be a1 d8 47 be
       -0.19276637 -0.11366487 -0.3626747 -0.19516231
0000e0 97 43 b6 3c 39 ae c2 bd 77 7e 18 bd 74 b3 9d bd
       0.022249026 -0.095058866 -0.03722998 -0.077002436
0000f0 6c 5e 63 3e 3f 86 28 be 5c 21 23 bc 72 4a f6 bd
       0.22203988 -0.16457461 -0.009956684 -0.12025918
000100 b9 0e fd bd 86 5d 41 be 7d 09 ff bd 39 e4 1c 3f
       -0.12356324 -0.18883333 -0.124529816 0.6128574
000110 c5 18 2b be e2 81 35 3c 5e 5a 14 bd db 74 c4 3e
       -0.16708668 0.01107833 -0.036218993 0.38370404
000120 be e6 3c be 26 94 74 be b3 29 b4 be e1 b7 a6 be
       -0.18447396 -0.23884639 -0.35188064 -0.32562163
000130 e3 ea 85 be 2c 6f 0e be 03 62 48 3f 86 c5 20 bd
       -0.26155767 -0.13909596 0.78274554 -0.039250873
000140 ee 05 d0 be b7 aa c1 3f 14 33 c5 bd b4 bf bd be
       -0.40629524 1.5130223 -0.09628883 -0.3706032
000150 9a 2c 95 be 0e 76 c8 3e 15 04 a1 be eb 6c c1 be
       -0.2913559 0.3915257 -0.31448427 -0.3777841
000160 95 c9 29 bf 2e 43 87 bd ca c4 c3 be 4e 5a 86 be
       -0.66323215 -0.066046104 -0.38236076 -0.26240772
000170 35 47 a2 bc 57 d0 14 be 3e 24 a9 bd 32 1e 80 3d
       -0.019809345 -0.145326 -0.08258866 0.06255759
000180 af 9f 9f be 7a 48 77 3d 50 11 e9 3d 53 59 a9 bc
       -0.31176516 0.060371853 0.11380255 -0.020672476
000190 3f 43 fd 3e 6c 36 13 bf d2 ef a1 3d ea 81 7e 3c
       0.49465367 -0.57504916 0.0790707 0.015533904
0001a0 94 fc e0 bd c6 f4 34 be e8 7d ad be 51 1f 26 3e
       -0.109856755 -0.17671499 -0.3388512 0.16222884
0001b0 28 32 8f 3e 06 02 a9 be ac ae c9 bd 5f bd 95 be
       0.27967954 -0.33009356 -0.09847769 -0.2924604
0001c0 c7 51 a6 bc 48 2b 0f be d7 a4 b6 3f db 36 97 3f
       -0.020302666 -0.13981354 1.4269055 1.1813616
0001d0 b6 54 d6 3c 4c 6a 5c be a7 65 71 be c1 8c af bf
       0.02616344 -0.21524924 -0.23573934 -1.371483
0001e0 ce 36 c7 bc cc fb 7a be 7e 83 92 bd e1 4b 22 be
       -0.024318125 -0.24510115 -0.071539864 -0.15849258
0001f0 c7 22 49 bc 8f 82 88 be 12 4e ad 3f 4d 31 04 3f
       -0.012276358 -0.26662108 1.353945 0.5163773

model/activation_17/Relu;model/batch_normalization_17/FusedBatchNormV3;model/depthwise_conv2d_8/depthwise;model/depthwise_conv2d_8/BiasAdd;model/depthwise_conv2d_11/depthwise;model/depthwise_conv2d_8/BiasAdd/ReadVariableOp/resource f4 [128]
000000 7c e8 00 3d 08 74 dc be 9a 22 c8 be 3e 85 5a be
       0.031471714 -0.43057275 -0.390889 -0.2133989
000010 f4 50 f0 be 71 bb e2 be 92 7b ce be 26 51 07 bf
       -0.46936762 -0.4428363 -0.40328652 -0.528582
000020 07 94 a9 be bf f5 ae be 1b a5 13 bf 3b 20 cf be
       -0.33120748 -0.34171864 -0.57673806 -0.40454277
000030 6a b3 d6 be 00 72 1a bc 74 2d 70 bf 29 98 b0 3e
       -0.41933757 -0.009426594 -0.93819356 0.3449109
000040 ee fa 04 bf 36 9e c2 be 4d ff cf be be 9e b5 be
       -0.5194539 -0.3801133 -0.40624467 -0.35472673
000050 2e 8c c1 be e4 ff e5 be 39 1d a2 be 76 f2 9c be
       -0.3780226 -0.44921792 -0.3166292 -0.30653733
000060 f8 1a e7 be 87 e7 b9 be 8c ad a5 be 35 0e 5a be
       -0.45137763 -0.36309454 -0.32358968 -0.21294482
000070 6a b1 f2 be 29 60 c6 be f5 1a 03 bf b9 4b 8a bf
       -0.4740098 -0.3874524 -0.5121301 -1.0804359
000080 bc 50 d9 be c5 8d c1 be 4a 7f d5 bd e4 82 9c be
       -0.42444408 -0.37803474 -0.10424669 -0.30568612
000090 b8 89 d2 be b4 c6 ce be be 0a ac be db 57 ca be
       -0.41120696 -0.40385973 -0.33601946 -0.39520153
0000a0 d4 52 2b bf ba a4 74 be 62 45 e8 be bb 65 ce be
       -0.6692326 -0.23890963 -0.45365435 -0.4031199
0000b0 fc c2 bd be e8 7a c8 be cf bb cc be 00 de 0a be
       -0.37062824 -0.3915627 -0.39987037 -0.13561249
0000c0 6d 93 93 bf fc 84 1c bc 65 c4 7f 3f ea 14 b6 be
       -1.1529366 -0.00955319 0.9990905 -0.3556283
0000d0 18 8f b4 be a2 3b d7 be be 25 fc be 94 de e8 be
       -0.35265422 -0.42037684 -0.49247545 -0.45482314
0000e0 ec 19 4a be 20 05 cc be e1 04 ea be 56 11 e0 be
       -0.19736451 -0.3984766 -0.45706847 -0.43763226
0000f0 9c 97 e7 bd 16 29 ac be ae cd d3 be 5e 47 c4 be
       -0.11308214 -0.33625096 -0.4136786 -0.383357
000100 43 85 be be ed d2 b8 be 09 f0 07 bf 2b 6c 4d bf
       -0.37211046 -0.36098424 -0.5310064 -0.80243176
000110 1e 7f c5 be e7 f0 a7 be 02 55 b0 be 54 06 87 bf
       -0.38573545 -0.3280098 -0.34439856 -1.0548806
000120 b6 a8 ab be f0 6e 9f be 10 ac 98 be 24 a4 c4 be
       -0.33527154 -0.31139326 -0.29818773 -0.3840648
000130 49 e9 a4 be 2b a0 b6 be f9 3b 7d 3f 82 cd f8 be
       -0.32209232 -0.35669073 0.98919636 -0.4859429
000140 f1 7f a7 be 29 15 98 bf 4c f6 db be 66 d1 53 bf
       -0.327148 -1.1881458 -0.42961347 -0.8274139
000150 42 b3 d6 be d3 0a 3b bc e3 0e d4 3d 08 06 74 bf
       -0.41933638 -0.011416155 0.10354402 -0.953217
000160 48 96 a6 be a8 98 d1 be 81 6c aa bf 55 67 a4 be
       -0.3253653 -0.4093678 -1.3314363 -0.32110086
000170 e6 45 77 bf 75 aa c2 be f0 e7 9e be e0 99 57 3b
       -0.9659103 -0.38020673 -0.3103633 0.0032898113
000180 c4 9c bb be 38 e0 27 be 40 86 1d bf 67 33 e9 be
       -0.3664304 -0.16394126 -0.61532974 -0.4554703
000190 5c fb cb be a6 ee 40 3f 71 5b fe 3d 42 dc 3f be
       -0.3984021 0.7536415 0.12419785 -0.18736365
0001a0 15 78 b9 be 0b 53 c3 be b9 5c dc be 1d b0 0c 3f
       -0.36224428 -0.38149294 -0.43039492 0.5495623
0001b0 2e 2a 00 bf 32 f6 53 bf 7b 7a e6 be b6 03 be be
       -0.5006436 -0.8279754 -0.4501532 -0.37112206
0001c0 1c ad e6 be 9a 69 a6 be 7d 9e b7 bf d2 ae 9b 3d
       -0.45053947 -0.32502443 -1.4345242 0.07601704
0001d0 ec 50 21 be 38 2e bb be b7 d4 ca be b9 25 b4 be
       -0.15753525 -0.365587 -0.39615414 -0.3518503
0001e0 3e 3f f7 be a8 8c b3 be 98 93 cd be 63 12 e5 be
       -0.48290437 -0.3506825 -0.40151668 -0.4474059
0001f0 17 ff ce be 86 17 9f be b7 6d b1 bf e0 47 7d bf
       -0.40428993 -0.31072634 -1.3861607 -0.989378
